lstm/best_checkpoint.pth (torch, 474939 bytes, 12 tensors)

encoder.0.weight f4 [250, 303]
0	0x3d19303e	0.037399523
1	0x3c9586ba	0.01825272
2	0x3bda6871	0.0066652824
3	0x3c8af1fc	0.01696109
4	0xbd077c1c	-0.033077344
5	0x3c921ad2	0.017835055
6	0x3d26f527	0.04076114
7	0x3d588439	0.052860472
8	0xbd016fc1	-0.031600717
9	0x3a230d29	0.00062199176
10	0x3cab3329	0.020898419
11	0xbc89ce64	-0.016822048
12	0xbd374dec	-0.044752046
13	0x3c83c6dd	0.016086036
14	0xbd5184fc	-0.051152214
15	0xbd45bef9	-0.04827783
16	0x3d6af258	0.057360023
17	0x3d68b04e	0.056808762
18	0x3d338268	0.043825537
19	0xbca86688	-0.020556703
20	0x3d3f5e05	0.046720523
21	0x3d3e07e6	0.04639425
22	0x3c9ffabf	0.019528745
23	0xbc9e26ea	-0.019305665
24	0x3c5393d3	0.012913662
25	0xbd380aee	-0.0449323
26	0xbcd01083	-0.025398498
27	0x3cd8f4f0	0.026483983
28	0xbd307f37	-0.04309007
29	0x3d11a93f	0.035561796
30	0xbd2c4c8a	-0.04206518
31	0x3b058880	0.002037555
32	0xbd4192c2	-0.0472591
33	0x3ca9af14	0.020713367
34	0xbca1d525	-0.019754956
35	0x3cf7a098	0.030227944
36	0x3cbd8a3d	0.023137206
37	0x3d2bbee3	0.04193009
38	0x3d1bfc1f	0.03808224
39	0x3d02ad4a	0.031903543
40	0xbd2dfb32	-0.042475887
41	0x3d3bd746	0.045859598
42	0xbc0d93ea	-0.0086412225
43	0x3d4b1e4d	0.049589444
44	0xbd22fa86	-0.0397897
45	0xbc813de9	-0.015776591
46	0xbcff0103	-0.031128412
47	0xbd1130ca	-0.03544692
48	0x3d676eae	0.056502037
49	0xbd3fbfc1	-0.04681373
50	0x3d22051f	0.039555665
51	0xbcf92af3	-0.030415988
52	0xbd51d9ff	-0.051233288
53	0x3d5d396d	0.054009844
54	0xbcc00719	-0.023440884
55	0x3bdde79a	0.006771994
56	0xbd0cbe9d	-0.03436147
57	0xbd6a5043	-0.05720545
58	0xbc9daec3	-0.019248372
59	0xbd2cd915	-0.042199213
60	0xbc9264f6	-0.017870408
61	0x3bffb9d7	0.0078041363
62	0x3c0a2756	0.00843223
63	0x3d1bd231	0.03804225
64	0x3d3630a6	0.04447999
65	0xbd31bcce	-0.04339295
66	0x3d589dc0	0.052884817
67	0xbb162723	-0.002291151
68	0xbbaaf1cc	-0.0052168127
69	0xbae603cb	-0.0017548738
70	0x3cda457f	0.026644466
71	0x3c8e530f	0.01737359
72	0x3d342708	0.043982536
73	0x3c8d99bf	0.017285226
74	0xbd4fd976	-0.050744496
75	0xbd4cbda2	-0.049985535
76	0x3d21eb8a	0.03953127
77	0xbd517fe8	-0.05114737
78	0xbd1c81ad	-0.038209606
79	0x3c0f3a30	0.0087419
80	0xbbb3411d	-0.0054704086
81	0xbcbea23e	-0.023270722
82	0x3d253845	0.040336866
83	0x3c9d9b3e	0.019239064
84	0x3d08a803	0.033363353
85	0xbd0fa69c	-0.035071
86	0x3c42ab14	0.0118816085
87	0xbd1a2dd3	-0.037641358
88	0x3c6f136b	0.014592032
89	0x3b88cda4	0.004174905
90	0xbd0c5fe0	-0.03427112
91	0x3d3434a9	0.043995533
92	0x3ca0f523	0.01964814
93	0x3d256eef	0.040388998
94	0xbcbea3c4	-0.023271449
95	0xbc3001d6	-0.010742625
96	0xbd5aa112	-0.053376265
97	0x3cb48431	0.02203569
98	0x3d4ace92	0.049513407
99	0x3be4db30	0.006984137
100	0xbc9d33ff	-0.019189833
101	0x3d30ab93	0.043132376
102	0xbceeb46a	-0.029138763
103	0x3c0e0703	0.008668664
104	0xbd5712c9	-0.05250815
105	0x3c91fc29	0.017820435
106	0x3d4a0ebc	0.049330458
107	0xbce00b29	-0.027349072
108	0xbd321b21	-0.043482903
109	0xbd418801	-0.047248844
110	0xbccfc188	-0.025360838
111	0x3d46723b	0.048448782
112	0x3d5cfeb0	0.053953826
113	0x3cba5ca7	0.022749258
114	0xbd0dc489	-0.03461126
115	0xbc4fe07f	-0.012687801
116	0x3d058546	0.032597803
117	0xbc3028c9	-0.010751911
118	0xbc849c1d	-0.016187722
119	0x3d4d9fe7	0.050201323
120	0x3d1544c1	0.036442522
121	0x3d2ccf8c	0.04219012
122	0x3cf5a232	0.029984567
123	0x3cc0a9f3	0.023518538
124	0x3c87df88	0.01658608
125	0xbd3d359a	-0.046193697
126	0xbd5eb445	-0.054371137
127	0x3d1487d7	0.03626236
128	0xbd4b5f73	-0.049651574
129	0x3aad972c	0.0013243905
130	0x3cd5b629	0.026087837
131	0xbd3a6124	-0.045502797
132	0x3b83f3f2	0.0040268833
133	0x3d5eaef1	0.054366056
134	0x3c7bc7aa	0.015367428
135	0x3b3b43f8	0.0028574448
136	0x3b1ec581	0.0024226608
137	0xbd656362	-0.056002982
138	0x3ab2e06e	0.0013647208
139	0xbd442a7c	-0.04789208
140	0x3c7bbddf	0.015365093
141	0x3cbe2e95	0.023215571
142	0x3d4d3c14	0.050106123
143	0x3d09c7f7	0.033637967
144	0xbd0071ce	-0.031358533
145	0xbcbdb86d	-0.02315923
146	0x3d50851e	0.0509082
147	0x3d070700	0.03296566
148	0x3d15cf18	0.036574453
149	0xbc3ec37a	-0.011643285
150	0xbd57689f	-0.05259001
151	0x3d5277cc	0.05138378
152	0xbd17e8a4	-0.037087098
153	0x3d321d9d	0.043485273
154	0xbaeeddca	-0.0018224057
155	0xbcfd72c8	-0.030938521
156	0x3d3dbe19	0.04632387
157	0x3c36ffac	0.011169355
158	0xbcc8b46a	-0.02450009
159	0xbd42924a	-0.047502793
160	0x3c76e959	0.015070283
161	0x3d02c910	0.03193003
162	0x3cb0ec48	0.021597043
163	0x3b91488f	0.0044336985
164	0xbd0853dd	-0.033283103
165	0x3d69540e	0.056964926
166	0x3d580e93	0.052748274
167	0xbc269f7b	-0.010169859
168	0x3d6487c2	0.05579353
169	0x3d0d46b4	0.034491256
170	0xbd1995b4	-0.037496284
171	0xbd318288	-0.043337375
172	0xbcb9d233	-0.022683239
173	0xbd31a015	-0.043365557
174	0x3ca607d9	0.020267414
175	0x3d28a4c7	0.04117277
176	0x3bb2518e	0.005441851
177	0x3cd046b7	0.025424344
178	0x3d17afe7	0.037032988
179	0xbd39f981	-0.04540396
180	0xbc25a298	-0.010109566
181	0xbd503d5b	-0.050839763
182	0xbd642820	-0.05570233
183	0x3cc93a92	0.024564061
184	0x3d25c853	0.040474247
185	0x3c98f736	0.018672567
186	0x3c838549	0.016054766
187	0x3b5bf54c	0.0033562956
188	0x3c52a461	0.012856574
189	0x3d037e6a	0.03210298
190	0x3d3f74ef	0.046742376
191	0x3ce9d07f	0.028541801
192	0xbd0e2d75	-0.03471132
193	0xbbc30605	-0.0059516453
194	0xbd599d38	-0.05312845
195	0x3cd6f73d	0.02624094
196	0xbc277f37	-0.0102232015
197	0x3cece38a	0.028917093
198	0xbcdf72fa	-0.027276505
199	0x3d353347	0.044238355
200	0x3d2e003d	0.042480696
201	0xbce1b4de	-0.027552065
202	0x3d526211	0.051363055
203	0xbb973060	-0.004613921
204	0xba3b2213	-0.00071385613
205	0x3ca0d7a3	0.019634074
206	0x3d30b155	0.043137867
207	0xbd286f26	-0.041121624
208	0x3ccfee33	0.025382137
209	0x3d152311	0.036410395
210	0x3d0318d5	0.032006104
211	0xbd4abd2c	-0.049496815
212	0xbd01069a	-0.031500436
213	0x3d3543e5	0.044254202
214	0x3a362cb1	0.00069494086
215	0x3d63832f	0.05554503
216	0x3cebbcb0	0.028776497
217	0x3c3cba30	0.011519
218	0x3c6a33fb	0.01429462
219	0xbc3ac7f0	-0.011400208
220	0x3c8912ae	0.01673254
221	0x3af45dbd	0.0018643659
222	0x3d1b173d	0.03786396
223	0x3d6429e4	0.055704013
224	0xbcb0b150	-0.021568924
225	0xbd03947a	-0.03212402
226	0x3c62664c	0.013818335
227	0xbcd26e08	-0.025687233
228	0x3d5f3910	0.05449778
229	0xbd6b2162	-0.057404883
230	0xbd4e366c	-0.05034487
231	0x3cd01eea	0.025405366
232	0x3d27357b	0.040822487
233	0x3cd6267c	0.026141398
234	0x3d3ec22f	0.046571907
235	0xbc4ebc49	-0.012618133
236	0xbd1c1f4d	-0.03811579
237	0x3c86ed45	0.01647056
238	0x3caecff7	0.0213394
239	0x3d05383b	0.03252433
240	0xbd587f9e	-0.05285608
241	0xbd26ace0	-0.04069221
242	0xbb088456	-0.0020830831
243	0xbbeeb6f5	-0.007284994
244	0x3c5fa314	0.013649721
245	0x3afdb534	0.0019356371
246	0x3d27b3a5	0.040942807
247	0xbd2d333c	-0.04228519
248	0x3d155618	0.03645906
249	0xbc213827	-0.009840048
250	0x3b79d952	0.0038123918
251	0xbcd367e0	-0.025806367
252	0x3c8bea59	0.01707952
253	0xbd20103c	-0.039077982
254	0x3c69f4ca	0.014279554
255	0x3c2e1147	0.010624236

encoder.0.bias f4 [250]
0	0x3d45619a	0.048188783
1	0xbd12c78a	-0.035834827
2	0xbc33f73a	-0.010984236
3	0xbd0e695d	-0.03476845
4	0x3d16748a	0.036732234
5	0xbd5ac4f3	-0.05341048
6	0x3cb8b250	0.022545964
7	0xbc4fad99	-0.012675666
8	0xbc924606	-0.017855655
9	0xbd56c5e8	-0.05243483
10	0xbc8b5135	-0.017006496
11	0xbab1776c	-0.0013539619
12	0x3cf9b499	0.030481623
13	0xbcef3eec	-0.029204808
14	0x3d2dc3fb	0.04242323
15	0xbd3969d5	-0.045266945
16	0x3cea8d28	0.028631762
17	0x3b8b650e	0.00425399
18	0x3d1365bb	0.03598569
19	0xbd5c0939	-0.053719733
20	0x3d1e7b88	0.038692027
21	0x3cbccb7e	0.023046251
22	0x3c7b24d4	0.015328605
23	0x3bc3e350	0.0059780255
24	0x3c84aa8c	0.016194604
25	0x3c72ccb8	0.014819317
26	0xbd5645d6	-0.052312694
27	0xbcacd063	-0.02109546
28	0xbd391343	-0.045184385
29	0x3bb4cbd8	0.005517464
30	0xbca7ba7d	-0.020474667
31	0xbd57673c	-0.052588686
32	0x3cef631d	0.029222066
33	0xbd0a33e0	-0.033740878
34	0xbce16457	-0.027513666
35	0x3d115c4b	0.035488408
36	0xbd642361	-0.055697802
37	0xbccf2a0b	-0.025288602
38	0x3c07c45f	0.008286565
39	0x3ca0c10f	0.019623308
40	0xbd588a5b	-0.05286632
41	0x3c9f228a	0.01942565
42	0xbd4de0e2	-0.050263293
43	0x3d1707f2	0.03687281
44	0x3d345947	0.044030454
45	0x3d488a2d	0.0489599
46	0x3d19e077	0.037567582
47	0x3cddd50c	0.027079128
48	0x3c9af172	0.018913958
49	0x3d684c09	0.056713138
50	0x3c2a6b7b	0.010401602
51	0xbd036fa7	-0.0320889
52	0xbced3377	-0.028955204
53	0xbca55709	-0.020183103
54	0xbcf489c6	-0.029850852
55	0xbba6539f	-0.0050758864
56	0xbc1c654c	-0.009545635
57	0xbceb4078	-0.028717265
58	0xbcc14d90	-0.023596555
59	0xbd36dd76	-0.044644795
60	0x3d1eddfd	0.038785923
61	0x3cdd56f6	0.027019005
62	0x3d06557d	0.03279637
63	0x3d1101ec	0.035402223
64	0x3d39521d	0.045244325
65	0x3d64544c	0.055744454
66	0x3d0bcd7d	0.034131516
67	0xbcda22ba	-0.026627887
68	0x3d1d86c2	0.038458593
69	0xb9dc527a	-0.0004202312
70	0x3cdcd6e2	0.026957933
71	0xbd1150d7	-0.035477486
72	0x3b149117	0.0022669488
73	0xbbc26624	-0.0059325863
74	0x3a9ac938	0.0011809235
75	0xbd19aad8	-0.037516445
76	0x3d5cd24f	0.053911503
77	0x3d5349d6	0.051584087
78	0x3c305a31	0.010763691
79	0xbcc12fb0	-0.02358231
80	0xbcc81379	-0.024423348
81	0xbd4a9451	-0.04945785
82	0xbba3c337	-0.0049976367
83	0xbd5c1c99	-0.05373821
84	0xbc80c85f	-0.015720544
85	0x3c3c019b	0.011474992
86	0xbd574eca	-0.052565373
87	0x3cee64dd	0.02910083
88	0x3be499b2	0.0069763297
89	0xbc81e01a	-0.01585393
90	0x3c4a48f8	0.012346499
91	0x3cf85efb	0.030318728
92	0xbd5c12ee	-0.05372899
93	0xbc266dd1	-0.010158018
94	0x3c4e5193	0.012592691
95	0x3d179728	0.03700939
96	0x3d38806b	0.045044344
97	0xbd50ec76	-0.051006757
98	0xbcdd9e20	-0.027052939
99	0xbd420ed4	-0.047377422
100	0xbc0853fe	-0.008320807
101	0x3c2d2cf3	0.010569799
102	0xbd1b07ec	-0.03784935
103	0xbd21a592	-0.03946454
104	0xbd311de9	-0.043241415
105	0x3c446da6	0.011989033
106	0x3c9ca47d	0.019121403
107	0x3c1cb54b	0.009564708
108	0x3ca0a050	0.019607693
109	0xbd22c7ea	-0.039741434
110	0xbd092cda	-0.03349004
111	0xbca13eb7	-0.019683225
112	0xbab2606f	-0.0013609062
113	0xbd064686	-0.0327821
114	0xbd6a2a2e	-0.057169132
115	0xbb1997f0	-0.002343651
116	0x3b2726a1	0.0025505202
117	0x3cd9da6e	0.026593413
118	0xbc6e30c9	-0.0145379985
119	0xbd023ea4	-0.03179802
120	0x3d69525a	0.056963302
121	0x3c3c9496	0.011510035
122	0x3d569bf2	0.052394815
123	0x3cd481c3	0.025940781
124	0x3b689d81	0.003549427
125	0x3d398846	0.045295976
126	0xbbfeeb24	-0.007779496
127	0xbb82aef6	-0.003988142
128	0x3ac41171	0.0014958811
129	0x3d3dee2d	0.04636972
130	0xb927be10	-0.00015997165
131	0x3d696466	0.056980513
132	0xbc6eb53b	-0.014569576
133	0xbce70d76	-0.02820466
134	0xbbb6a73b	-0.0055741346
135	0xbc83a81a	-0.016071368
136	0xbd69cb01	-0.057078365
137	0xbd301534	-0.04298897
138	0xbd2768ca	-0.04087142
139	0xbc86959e	-0.016428765
140	0x3d150f53	0.036391567
141	0x3c0cad75	0.008586277
142	0x3cbcf682	0.023066763
143	0x3d51382f	0.05107897
144	0xbd057672	-0.03258366
145	0xbb7fd521	-0.0039036947
146	0x3cdf1869	0.02723332
147	0xbd43ce4d	-0.047804166
148	0x3c83b152	0.016075764
149	0x3c521b4e	0.012823893
150	0xbd59a35b	-0.053134304
151	0xbd01fdc1	-0.03173614
152	0x3cf99da9	0.030470686
153	0x3ae40919	0.0017397731
154	0xbcb5b800	-0.022182465
155	0x3cc8b559	0.024500536
156	0xbd25bf08	-0.040465385
157	0xbd312b81	-0.04325438
158	0x3d4c4947	0.04987457
159	0xbd37e5ac	-0.044896767
160	0xbce0d26f	-0.027444093
161	0xbd19db86	-0.03756287
162	0x3d1ef6f5	0.038809735
163	0xbcaa9471	-0.020822736
164	0xbcbc11c0	-0.022957683
165	0x3bb5ceb5	0.005548323
166	0xbc5e3d8c	-0.013564479
167	0xbcc4445f	-0.023958383
168	0x3d07fb8f	0.03319889
169	0x3d277147	0.040879514
170	0x3d66fc4f	0.056392964
171	0xbbb14b30	-0.0054105744
172	0xbb4922dc	-0.0030690944
173	0x3d454c90	0.04816872
174	0xbc8a802a	-0.016906817
175	0x3d4a8d13	0.049450945
176	0x3b74bc6a	0.003734375
177	0xbc98b939	-0.018643009
178	0x3c8e215e	0.017349895
179	0x3cc5e58c	0.024157308
180	0x3c8951ee	0.0167627
181	0xbce41868	-0.027843669
182	0x3d4820a3	0.04885925
183	0x3d483567	0.048879053
184	0x3b208aa8	0.0024496708
185	0xbc9b2035	-0.018936256
186	0x3c3a6ea2	0.011378916
187	0xbc4a78bc	-0.012357887
188	0x3cf545e3	0.029940551
189	0xbcc3d90b	-0.023907205
190	0xbc8853d2	-0.016641531
191	0x3d59cbbc	0.053172812
192	0x3caa9ec5	0.02082766
193	0x3d24422d	0.040102173
194	0x3d45bb74	0.048274472
195	0xbd5590a3	-0.05213989
196	0x3d4fd1e6	0.050737284
197	0xbcda6080	-0.026657343
198	0x3cc56baf	0.0240992
199	0x3d3a1037	0.04542562
200	0xbd43371c	-0.04765998
201	0xbd1ffcd5	-0.03905948
202	0x3cddd9e3	0.027081436
203	0xbd2c53b5	-0.042072017
204	0x3d68244c	0.05667524
205	0xbb6dc88b	-0.0036282863
206	0xbd618fb6	-0.055068694
207	0x3c888c52	0.016668472
208	0xbd4b9435	-0.049701888
209	0xbd62760f	-0.05528837
210	0x3cd641b7	0.026154382
211	0xbc978a27	-0.018498493
212	0x3be6754f	0.0070330272
213	0x3cf77886	0.030208837
214	0x3c796b40	0.015223324
215	0x3caae478	0.020860896
216	0xbbd6cee9	-0.0065554273
217	0x3b01db26	0.001981446
218	0x3c0bfb99	0.008543872
219	0xbd4be485	-0.04977848
220	0x3cf8c5c5	0.030367741
221	0x3d03a18d	0.03213649
222	0xbd226653	-0.039648365
223	0x3bed6a45	0.0072453343
224	0xbd61f080	-0.055161
225	0xbba92d55	-0.0051628747
226	0xbd5dd8ab	-0.05416171
227	0x3c80ef40	0.015739083
228	0x3d467465	0.048450846
229	0xbd697c06	-0.057003044
230	0x3c1a170a	0.009404907
231	0xbd18191d	-0.037133325
232	0xbc970263	-0.018433755
233	0x3d550fe9	0.052017126
234	0xbd3ebc44	-0.046566263
235	0x3c6d862a	0.014497319
236	0xbd0c484d	-0.03424864
237	0xbcedf3ca	-0.029046912
238	0xbcf72a7f	-0.03017163
239	0xbc5a0423	-0.01330665
240	0x3d1b2234	0.037874416
241	0x3c7e16de	0.015508382
242	0xbd2364c9	-0.039891038
243	0xbd165153	-0.03669865
244	0xbd41b142	-0.047288187
245	0xbd6ab877	-0.057304826
246	0xbc6c0aeb	-0.0144069
247	0x3c65cd5c	0.014026012
248	0x3d416f4d	0.047225285
249	0x3d0d0db3	0.034436893

encoder.1.weight f4 [250]
0	0x3f800000	1.0
1	0x3f800000	1.0
2	0x3f800000	1.0
3	0x3f800000	1.0
4	0x3f800000	1.0
5	0x3f800000	1.0
6	0x3f800000	1.0
7	0x3f800000	1.0
8	0x3f800000	1.0
9	0x3f800000	1.0
10	0x3f800000	1.0
11	0x3f800000	1.0
12	0x3f800000	1.0
13	0x3f800000	1.0
14	0x3f800000	1.0
15	0x3f800000	1.0
16	0x3f800000	1.0
17	0x3f800000	1.0
18	0x3f800000	1.0
19	0x3f800000	1.0
20	0x3f800000	1.0
21	0x3f800000	1.0
22	0x3f800000	1.0
23	0x3f800000	1.0
24	0x3f800000	1.0
25	0x3f800000	1.0
26	0x3f800000	1.0
27	0x3f800000	1.0
28	0x3f800000	1.0
29	0x3f800000	1.0
30	0x3f800000	1.0
31	0x3f800000	1.0
32	0x3f800000	1.0
33	0x3f800000	1.0
34	0x3f800000	1.0
35	0x3f800000	1.0
36	0x3f800000	1.0
37	0x3f800000	1.0
38	0x3f800000	1.0
39	0x3f800000	1.0
40	0x3f800000	1.0
41	0x3f800000	1.0
42	0x3f800000	1.0
43	0x3f800000	1.0
44	0x3f800000	1.0
45	0x3f800000	1.0
46	0x3f800000	1.0
47	0x3f800000	1.0
48	0x3f800000	1.0
49	0x3f800000	1.0
50	0x3f800000	1.0
51	0x3f800000	1.0
52	0x3f800000	1.0
53	0x3f800000	1.0
54	0x3f800000	1.0
55	0x3f800000	1.0
56	0x3f800000	1.0
57	0x3f800000	1.0
58	0x3f800000	1.0
59	0x3f800000	1.0
60	0x3f800000	1.0
61	0x3f800000	1.0
62	0x3f800000	1.0
63	0x3f800000	1.0
64	0x3f800000	1.0
65	0x3f800000	1.0
66	0x3f800000	1.0
67	0x3f800000	1.0
68	0x3f800000	1.0
69	0x3f800000	1.0
70	0x3f800000	1.0
71	0x3f800000	1.0
72	0x3f800000	1.0
73	0x3f800000	1.0
74	0x3f800000	1.0
75	0x3f800000	1.0
76	0x3f800000	1.0
77	0x3f800000	1.0
78	0x3f800000	1.0
79	0x3f800000	1.0
80	0x3f800000	1.0
81	0x3f800000	1.0
82	0x3f800000	1.0
83	0x3f800000	1.0
84	0x3f800000	1.0
85	0x3f800000	1.0
86	0x3f800000	1.0
87	0x3f800000	1.0
88	0x3f800000	1.0
89	0x3f800000	1.0
90	0x3f800000	1.0
91	0x3f800000	1.0
92	0x3f800000	1.0
93	0x3f800000	1.0
94	0x3f800000	1.0
95	0x3f800000	1.0
96	0x3f800000	1.0
97	0x3f800000	1.0
98	0x3f800000	1.0
99	0x3f800000	1.0
100	0x3f800000	1.0
101	0x3f800000	1.0
102	0x3f800000	1.0
103	0x3f800000	1.0
104	0x3f800000	1.0
105	0x3f800000	1.0
106	0x3f800000	1.0
107	0x3f800000	1.0
108	0x3f800000	1.0
109	0x3f800000	1.0
110	0x3f800000	1.0
111	0x3f800000	1.0
112	0x3f800000	1.0
113	0x3f800000	1.0
114	0x3f800000	1.0
115	0x3f800000	1.0
116	0x3f800000	1.0
117	0x3f800000	1.0
118	0x3f800000	1.0
119	0x3f800000	1.0
120	0x3f800000	1.0
121	0x3f800000	1.0
122	0x3f800000	1.0
123	0x3f800000	1.0
124	0x3f800000	1.0
125	0x3f800000	1.0
126	0x3f800000	1.0
127	0x3f800000	1.0
128	0x3f800000	1.0
129	0x3f800000	1.0
130	0x3f800000	1.0
131	0x3f800000	1.0
132	0x3f800000	1.0
133	0x3f800000	1.0
134	0x3f800000	1.0
135	0x3f800000	1.0
136	0x3f800000	1.0
137	0x3f800000	1.0
138	0x3f800000	1.0
139	0x3f800000	1.0
140	0x3f800000	1.0
141	0x3f800000	1.0
142	0x3f800000	1.0
143	0x3f800000	1.0
144	0x3f800000	1.0
145	0x3f800000	1.0
146	0x3f800000	1.0
147	0x3f800000	1.0
148	0x3f800000	1.0
149	0x3f800000	1.0
150	0x3f800000	1.0
151	0x3f800000	1.0
152	0x3f800000	1.0
153	0x3f800000	1.0
154	0x3f800000	1.0
155	0x3f800000	1.0
156	0x3f800000	1.0
157	0x3f800000	1.0
158	0x3f800000	1.0
159	0x3f800000	1.0
160	0x3f800000	1.0
161	0x3f800000	1.0
162	0x3f800000	1.0
163	0x3f800000	1.0
164	0x3f800000	1.0
165	0x3f800000	1.0
166	0x3f800000	1.0
167	0x3f800000	1.0
168	0x3f800000	1.0
169	0x3f800000	1.0
170	0x3f800000	1.0
171	0x3f800000	1.0
172	0x3f800000	1.0
173	0x3f800000	1.0
174	0x3f800000	1.0
175	0x3f800000	1.0
176	0x3f800000	1.0
177	0x3f800000	1.0
178	0x3f800000	1.0
179	0x3f800000	1.0
180	0x3f800000	1.0
181	0x3f800000	1.0
182	0x3f800000	1.0
183	0x3f800000	1.0
184	0x3f800000	1.0
185	0x3f800000	1.0
186	0x3f800000	1.0
187	0x3f800000	1.0
188	0x3f800000	1.0
189	0x3f800000	1.0
190	0x3f800000	1.0
191	0x3f800000	1.0
192	0x3f800000	1.0
193	0x3f800000	1.0
194	0x3f800000	1.0
195	0x3f800000	1.0
196	0x3f800000	1.0
197	0x3f800000	1.0
198	0x3f800000	1.0
199	0x3f800000	1.0
200	0x3f800000	1.0
201	0x3f800000	1.0
202	0x3f800000	1.0
203	0x3f800000	1.0
204	0x3f800000	1.0
205	0x3f800000	1.0
206	0x3f800000	1.0
207	0x3f800000	1.0
208	0x3f800000	1.0
209	0x3f800000	1.0
210	0x3f800000	1.0
211	0x3f800000	1.0
212	0x3f800000	1.0
213	0x3f800000	1.0
214	0x3f800000	1.0
215	0x3f800000	1.0
216	0x3f800000	1.0
217	0x3f800000	1.0
218	0x3f800000	1.0
219	0x3f800000	1.0
220	0x3f800000	1.0
221	0x3f800000	1.0
222	0x3f800000	1.0
223	0x3f800000	1.0
224	0x3f800000	1.0
225	0x3f800000	1.0
226	0x3f800000	1.0
227	0x3f800000	1.0
228	0x3f800000	1.0
229	0x3f800000	1.0
230	0x3f800000	1.0
231	0x3f800000	1.0
232	0x3f800000	1.0
233	0x3f800000	1.0
234	0x3f800000	1.0
235	0x3f800000	1.0
236	0x3f800000	1.0
237	0x3f800000	1.0
238	0x3f800000	1.0
239	0x3f800000	1.0
240	0x3f800000	1.0
241	0x3f800000	1.0
242	0x3f800000	1.0
243	0x3f800000	1.0
244	0x3f800000	1.0
245	0x3f800000	1.0
246	0x3f800000	1.0
247	0x3f800000	1.0
248	0x3f800000	1.0
249	0x3f800000	1.0

encoder.1.bias f4 [250]
0	0x00000000	0.0
1	0x00000000	0.0
2	0x00000000	0.0
3	0x00000000	0.0
4	0x00000000	0.0
5	0x00000000	0.0
6	0x00000000	0.0
7	0x00000000	0.0
8	0x00000000	0.0
9	0x00000000	0.0
10	0x00000000	0.0
11	0x00000000	0.0
12	0x00000000	0.0
13	0x00000000	0.0
14	0x00000000	0.0
15	0x00000000	0.0
16	0x00000000	0.0
17	0x00000000	0.0
18	0x00000000	0.0
19	0x00000000	0.0
20	0x00000000	0.0
21	0x00000000	0.0
22	0x00000000	0.0
23	0x00000000	0.0
24	0x00000000	0.0
25	0x00000000	0.0
26	0x00000000	0.0
27	0x00000000	0.0
28	0x00000000	0.0
29	0x00000000	0.0
30	0x00000000	0.0
31	0x00000000	0.0
32	0x00000000	0.0
33	0x00000000	0.0
34	0x00000000	0.0
35	0x00000000	0.0
36	0x00000000	0.0
37	0x00000000	0.0
38	0x00000000	0.0
39	0x00000000	0.0
40	0x00000000	0.0
41	0x00000000	0.0
42	0x00000000	0.0
43	0x00000000	0.0
44	0x00000000	0.0
45	0x00000000	0.0
46	0x00000000	0.0
47	0x00000000	0.0
48	0x00000000	0.0
49	0x00000000	0.0
50	0x00000000	0.0
51	0x00000000	0.0
52	0x00000000	0.0
53	0x00000000	0.0
54	0x00000000	0.0
55	0x00000000	0.0
56	0x00000000	0.0
57	0x00000000	0.0
58	0x00000000	0.0
59	0x00000000	0.0
60	0x00000000	0.0
61	0x00000000	0.0
62	0x00000000	0.0
63	0x00000000	0.0
64	0x00000000	0.0
65	0x00000000	0.0
66	0x00000000	0.0
67	0x00000000	0.0
68	0x00000000	0.0
69	0x00000000	0.0
70	0x00000000	0.0
71	0x00000000	0.0
72	0x00000000	0.0
73	0x00000000	0.0
74	0x00000000	0.0
75	0x00000000	0.0
76	0x00000000	0.0
77	0x00000000	0.0
78	0x00000000	0.0
79	0x00000000	0.0
80	0x00000000	0.0
81	0x00000000	0.0
82	0x00000000	0.0
83	0x00000000	0.0
84	0x00000000	0.0
85	0x00000000	0.0
86	0x00000000	0.0
87	0x00000000	0.0
88	0x00000000	0.0
89	0x00000000	0.0
90	0x00000000	0.0
91	0x00000000	0.0
92	0x00000000	0.0
93	0x00000000	0.0
94	0x00000000	0.0
95	0x00000000	0.0
96	0x00000000	0.0
97	0x00000000	0.0
98	0x00000000	0.0
99	0x00000000	0.0
100	0x00000000	0.0
101	0x00000000	0.0
102	0x00000000	0.0
103	0x00000000	0.0
104	0x00000000	0.0
105	0x00000000	0.0
106	0x00000000	0.0
107	0x00000000	0.0
108	0x00000000	0.0
109	0x00000000	0.0
110	0x00000000	0.0
111	0x00000000	0.0
112	0x00000000	0.0
113	0x00000000	0.0
114	0x00000000	0.0
115	0x00000000	0.0
116	0x00000000	0.0
117	0x00000000	0.0
118	0x00000000	0.0
119	0x00000000	0.0
120	0x00000000	0.0
121	0x00000000	0.0
122	0x00000000	0.0
123	0x00000000	0.0
124	0x00000000	0.0
125	0x00000000	0.0
126	0x00000000	0.0
127	0x00000000	0.0
128	0x00000000	0.0
129	0x00000000	0.0
130	0x00000000	0.0
131	0x00000000	0.0
132	0x00000000	0.0
133	0x00000000	0.0
134	0x00000000	0.0
135	0x00000000	0.0
136	0x00000000	0.0
137	0x00000000	0.0
138	0x00000000	0.0
139	0x00000000	0.0
140	0x00000000	0.0
141	0x00000000	0.0
142	0x00000000	0.0
143	0x00000000	0.0
144	0x00000000	0.0
145	0x00000000	0.0
146	0x00000000	0.0
147	0x00000000	0.0
148	0x00000000	0.0
149	0x00000000	0.0
150	0x00000000	0.0
151	0x00000000	0.0
152	0x00000000	0.0
153	0x00000000	0.0
154	0x00000000	0.0
155	0x00000000	0.0
156	0x00000000	0.0
157	0x00000000	0.0
158	0x00000000	0.0
159	0x00000000	0.0
160	0x00000000	0.0
161	0x00000000	0.0
162	0x00000000	0.0
163	0x00000000	0.0
164	0x00000000	0.0
165	0x00000000	0.0
166	0x00000000	0.0
167	0x00000000	0.0
168	0x00000000	0.0
169	0x00000000	0.0
170	0x00000000	0.0
171	0x00000000	0.0
172	0x00000000	0.0
173	0x00000000	0.0
174	0x00000000	0.0
175	0x00000000	0.0
176	0x00000000	0.0
177	0x00000000	0.0
178	0x00000000	0.0
179	0x00000000	0.0
180	0x00000000	0.0
181	0x00000000	0.0
182	0x00000000	0.0
183	0x00000000	0.0
184	0x00000000	0.0
185	0x00000000	0.0
186	0x00000000	0.0
187	0x00000000	0.0
188	0x00000000	0.0
189	0x00000000	0.0
190	0x00000000	0.0
191	0x00000000	0.0
192	0x00000000	0.0
193	0x00000000	0.0
194	0x00000000	0.0
195	0x00000000	0.0
196	0x00000000	0.0
197	0x00000000	0.0
198	0x00000000	0.0
199	0x00000000	0.0
200	0x00000000	0.0
201	0x00000000	0.0
202	0x00000000	0.0
203	0x00000000	0.0
204	0x00000000	0.0
205	0x00000000	0.0
206	0x00000000	0.0
207	0x00000000	0.0
208	0x00000000	0.0
209	0x00000000	0.0
210	0x00000000	0.0
211	0x00000000	0.0
212	0x00000000	0.0
213	0x00000000	0.0
214	0x00000000	0.0
215	0x00000000	0.0
216	0x00000000	0.0
217	0x00000000	0.0
218	0x00000000	0.0
219	0x00000000	0.0
220	0x00000000	0.0
221	0x00000000	0.0
222	0x00000000	0.0
223	0x00000000	0.0
224	0x00000000	0.0
225	0x00000000	0.0
226	0x00000000	0.0
227	0x00000000	0.0
228	0x00000000	0.0
229	0x00000000	0.0
230	0x00000000	0.0
231	0x00000000	0.0
232	0x00000000	0.0
233	0x00000000	0.0
234	0x00000000	0.0
235	0x00000000	0.0
236	0x00000000	0.0
237	0x00000000	0.0
238	0x00000000	0.0
239	0x00000000	0.0
240	0x00000000	0.0
241	0x00000000	0.0
242	0x00000000	0.0
243	0x00000000	0.0
244	0x00000000	0.0
245	0x00000000	0.0
246	0x00000000	0.0
247	0x00000000	0.0
248	0x00000000	0.0
249	0x00000000	0.0

encoder.1.running_mean f4 [250]
0	0x3e340880	0.17581367
1	0xbec23781	-0.3793297
2	0x3de72a7c	0.112874
3	0x3df925d8	0.12165421
4	0x3ea60c35	0.32431188
5	0xbec99072	-0.39368016
6	0xbd27977c	-0.04091595
7	0xbda814c9	-0.082070895
8	0xbe3e85e0	-0.18605757
9	0x3f27efde	0.65600383
10	0x3d54ebff	0.051982876
11	0x3f807d8c	1.0038314
12	0x3eac71fa	0.33680707
13	0x3e000b9f	0.12504433
14	0x3df47db0	0.119380355
15	0x3e885537	0.26627514
16	0x3ebd7ca9	0.3700917
17	0x3d5da472	0.054111905
18	0xbdd67ae2	-0.10472657
19	0xbeae5083	-0.340458
20	0xbe9ad1bb	-0.30238137
21	0xbcf35137	-0.029701812
22	0xbddc2909	-0.10750014
23	0xbefd23ee	-0.49441475
24	0x3c263cd2	0.010146337
25	0xbe767d0c	-0.24071139
26	0xbe68ba60	-0.22727346
27	0x3f06e59a	0.52694094
28	0x3c9e8191	0.019348891
29	0xbefe895f	-0.4971418
30	0x3e276f9d	0.16351171
31	0xbe1005ca	-0.14064708
32	0xbea72272	-0.32643467
33	0xbd3a64dc	-0.045506343
34	0x3e5dc818	0.21658361
35	0x3f24172c	0.6409786
36	0xbe836983	-0.25666437
37	0x3e3a53ea	0.18196073
38	0x3e30acd1	0.17253424
39	0xbe6626d8	-0.22475755
40	0x3ea53a02	0.3227082
41	0x3de7e3e3	0.11322763
42	0x3ebc649b	0.36795506
43	0x3f024c6b	0.50897855
44	0xbe9e17a6	-0.30877417
45	0xbf0a1923	-0.53944606
46	0x3e64fa65	0.22361143
47	0x3dd6bfbc	0.10485789
48	0x3eda134d	0.4259285
49	0x3e28a8c4	0.16470629
50	0xbead2a5c	-0.3382138
51	0xbe002a2b	-0.12516086
52	0xbf162692	-0.58652604
53	0x3f153f71	0.5829993
54	0x3e2e34f3	0.17012386
55	0x3e0bc271	0.13648392
56	0x3d68082e	0.056648426
57	0x3eb39f4f	0.3508248
58	0xbf039ee9	-0.5141435
59	0x3e0de61e	0.13857314
60	0x3e6cf449	0.23140062
61	0xbdfe7a41	-0.12425662
62	0xbcded1ca	-0.027199645
63	0x3e56fae4	0.20994145
64	0xbefeae35	-0.49742284
65	0xbd9c4463	-0.07630231
66	0x3e062934	0.13101655
67	0xbe2894be	-0.1646299
68	0x3dba96e4	0.09110811
69	0x3df64bc7	0.12026172
70	0xbe487a7f	-0.19577979
71	0x3f174869	0.59094864
72	0xbe8afe3f	-0.271471
73	0xbccb2f6e	-0.02480289
74	0x3da3bef0	0.07995403
75	0xbeb57318	-0.35439372
76	0x3dcc7941	0.09984065
77	0x3ebdaa43	0.37043962
78	0x3e440761	0.1914344
79	0x3c33d7aa	0.010976711
80	0x3de9bf3c	0.11413428
81	0xbeb83695	-0.35979143
82	0x3d3f1258	0.046648353
83	0xbec0d356	-0.37661237
84	0xbe572c4c	-0.21012992
85	0x3f1d7324	0.61503816
86	0xbe657f31	-0.22411801
87	0xbc04ba48	-0.008101054
88	0x3eac2952	0.33625275
89	0x3d6317d4	0.055442646
90	0xbe8baaa3	-0.27278623
91	0x3de1c272	0.110234156
92	0x3e0e3e6d	0.13891001
93	0xbe7d310a	-0.24725738
94	0xbec5dc90	-0.38644838
95	0xbe84b651	-0.25920346
96	0x3e225571	0.15852906
97	0x3e0e3e1f	0.13890885
98	0x3e6cd880	0.23129463
99	0xbc454458	-0.01204022
100	0x3eb9e95b	0.3631085
101	0xbec26d58	-0.37974048
102	0xbebef8bb	-0.3729914
103	0xbe7d1af2	-0.2471731
104	0xbdfa7812	-0.12229933
105	0x3c9fb020	0.019493163
106	0x3f028d6d	0.5099705
107	0xbe013074	-0.1261614
108	0x3d0fec11	0.03513724
109	0xbde0d8f2	-0.10978879
110	0xbe140bc0	-0.14457607
111	0x3e73b503	0.23799519
112	0xbd556ca2	-0.052105553
113	0x3e898fea	0.2686761
114	0xbeb0dec0	-0.34544945
115	0x3f0e703b	0.5564
116	0xbe5fdf86	-0.21862611
117	0x3e2540c3	0.16137986
118	0xbeaf5702	-0.3424607
119	0xbe3a99e8	-0.18222773
120	0x3e6971a7	0.22797261
121	0x3eb0a301	0.34499362
122	0xbeb2a720	-0.3489313
123	0xbd832ded	-0.06405244
124	0x3e8a0302	0.2695542
125	0x3e0f42d3	0.13990335
126	0xbc13d76d	-0.0090235295
127	0x3ed59dd3	0.41721973
128	0x3d9dd7f7	0.07707208
129	0x3df9f250	0.122044206
130	0xbd563e09	-0.052305255
131	0x3f18534d	0.59502107
132	0x3ea30b4d	0.3184456
133	0xbe633a51	-0.22190215
134	0xbefcafc9	-0.49352863
135	0x3e1b3d2a	0.15160051
136	0xbd9c4445	-0.07630209
137	0xbddcee24	-0.10787609
138	0xbec8925c	-0.39174163
139	0xbe46821e	-0.19385573
140	0x3d98bf1a	0.07458325
141	0xbd806bae	-0.06270538
142	0x3e9452a6	0.28969306
143	0x3e906ef9	0.28209665
144	0xbef500a6	-0.47852057
145	0xbe861fd5	-0.2619616
146	0x3e0f8f75	0.14019568
147	0xbc354029	-0.01106266
148	0xbd299d4b	-0.041409772
149	0x3dead099	0.11465568
150	0xbf41a189	-0.7563711
151	0xbb8613d9	-0.0040917215
152	0xbe56d99b	-0.20981447
153	0xbe1996da	-0.14998952
154	0x3e06adeb	0.13152282
155	0x3a9b20c6	0.0011835329
156	0xbe861060	-0.26184368
157	0xbeb22d75	-0.34800306
158	0x3e83d656	0.25749463
159	0x3e4c9e38	0.1998223
160	0x3ca6d8ca	0.020367045
161	0x3cdfa466	0.027300071
162	0x3cb09faf	0.021560518
163	0xbd8f519b	-0.06997987
164	0xbd7ed0cb	-0.06221084
165	0xbe5e4317	-0.2170528
166	0xbf2d98ce	-0.67811286
167	0xbeb4ee0d	-0.35337868
168	0xbc1f9ea4	-0.009742413
169	0x3e5bd301	0.2146721
170	0xbc7390dc	-0.01486608
171	0xbe29f54e	-0.16597483
172	0x3c745402	0.014912607
173	0x3d5dd7ff	0.054161068
174	0xbe9085a0	-0.28226948
175	0x3d9fe1d6	0.07806747
176	0xbd989be7	-0.07451611
177	0x3e6a60ec	0.22888535
178	0x3cefb77c	0.029262297
179	0x3e2220cd	0.15832825
180	0xbe740cb7	-0.23832975
181	0xbe6c163b	-0.23055355
182	0x3ebf0904	0.37311566
183	0xbe0ec473	-0.13942127
184	0x3e1a890f	0.15091346
185	0x3ea31f95	0.31860033
186	0xbcfee4e9	-0.031115012
187	0xbc047bbb	-0.00808614
188	0xbeca0cab	-0.3946279
189	0xbd94ce52	-0.07265915
190	0xbe6880a9	-0.2270533
191	0x3e453970	0.19260192
192	0xbdc96129	-0.09832985
193	0xbd4c4671	-0.049871866
194	0xbdba2276	-0.09088604
195	0x3e354b00	0.17704391
196	0xbd57b331	-0.052661125
197	0x3f0c4ad8	0.548017
198	0x3e31c710	0.17361093
199	0xbeb52dae	-0.35386413
200	0xbe96be55	-0.29442087
201	0x3ebdffcc	0.3710922
202	0x3e317a7b	0.17331879
203	0x3eaff762	0.34368426
204	0x3e130d13	0.14360456
205	0xbec035ef	-0.37541148
206	0xbee8b02d	-0.4544691
207	0x3e624f42	0.22100547
208	0xbcd144c1	-0.02554548
209	0xbf47257c	-0.7779157
210	0x3ec15280	0.37758255
211	0xbe51e676	-0.2049807
212	0x3f2f480e	0.6846932
213	0x3ec9056e	0.39261955
214	0xbe79812e	-0.24365684
215	0x3d917413	0.071022175
216	0x3d0ebdf7	0.034849133
217	0x3f031d8c	0.5121696
218	0xbe06d47e	-0.13166997
219	0x3d9402fd	0.072271325
220	0xbe935642	-0.28776747
221	0x3e9150fc	0.283821
222	0x3ee1510e	0.44007152
223	0xbeeac6ec	-0.4585489
224	0xbc3a7eb7	-0.01138275
225	0x3e87123f	0.26381108
226	0x3e7b3bce	0.24534532
227	0xbe19de89	-0.15026297
228	0x3f19bf1f	0.6005725
229	0xbbc24103	-0.00592816
230	0x3e75bd00	0.23997879
231	0x3acc8dc0	0.001560621
232	0x3cb353af	0.02189049
233	0x3f040930	0.5157652
234	0xbe7e148d	-0.24812527
235	0xbf006e57	-0.50168365
236	0xbe199ac0	-0.15000439
237	0x3d8e62c3	0.06952431
238	0x3e9cd0ea	0.3062814
239	0x3efda586	0.49540347
240	0xbd8bd3d7	-0.068275146
241	0x3ebdfb96	0.37106007
242	0xbe1b9786	-0.1519452
243	0x3ed440fe	0.41455835
244	0xbed66b2d	-0.41878644
245	0xbf0a33c5	-0.53985244
246	0xbebdb43c	-0.3705157
247	0xbc2cf8ba	-0.010557348
248	0x3dc86977	0.09785741
249	0xbdb552ce	-0.08853684

encoder.1.running_var f4 [250]
0	0x3d1dabb1	0.038493816
1	0x3cfb0486	0.030641805
2	0x3cd89a88	0.026440874
3	0x3cb79411	0.02240947
4	0x3d3cfe9f	0.046141263
5	0x3d03510d	0.032059718
6	0x3e027250	0.1273892
7	0x3ce86ef4	0.02837322
8	0x3d0342bd	0.03204607
9	0x3d60822b	0.054811638
10	0x3d49f176	0.04930254
11	0x3e068fc7	0.13140784
12	0x3c6b8215	0.014374276
13	0x3cd7cec9	0.02634372
14	0x3ce49337	0.027902229
15	0x3c2a1d47	0.010382957
16	0x3c840543	0.01611579
17	0x3dfc6ddd	0.12325642
18	0x3d17fd79	0.037106965
19	0x3d08216a	0.03323499
20	0x3d0c4cdc	0.034252986
21	0x3c95f4a4	0.01830513
22	0x3ca2979b	0.019847682
23	0x3d13457d	0.03595494
24	0x3cba2e66	0.022727203
25	0x3d2e8037	0.042602744
26	0x3c739be8	0.014868714
27	0x3cc8e2a5	0.024522135
28	0x3d131927	0.03591266
29	0x3cc5d399	0.02414875
30	0x3cd74b9b	0.026281169
31	0x3c66b880	0.014082074
32	0x3dc795ae	0.09745346
33	0x3d2b2451	0.04178268
34	0x3c8f6f82	0.017509226
35	0x3de2f79b	0.11082383
36	0x3c92caaf	0.017918913
37	0x3cc3118e	0.023812082
38	0x3c8a8add	0.016911918
39	0x3cec46d5	0.02884237
40	0x3cc63cbd	0.024198884
41	0x3c12b828	0.008955039
42	0x3daa59c7	0.08317905
43	0x3c6d762e	0.014493508
44	0x3cd52616	0.026019137
45	0x3d3d3b1e	0.046198957
46	0x3de4c44d	0.11170254
47	0x3ce617e5	0.028087566
48	0x3d1add67	0.037808802
49	0x3d844403	0.06458285
50	0x3cd1ea7a	0.025624502
51	0x3df3879b	0.11891099
52	0x3d04d29e	0.032427423
53	0x3db4a757	0.0882098
54	0x3d6933b0	0.05693406
55	0x3ce74a7c	0.02823376
56	0x3cf22a5a	0.02956121
57	0x3c82ba2b	0.015957912
58	0x3dc98e55	0.09841601
59	0x3cac65d3	0.021044647
60	0x3cae99cc	0.02131357
61	0x3d2e9c3d	0.04262947
62	0x3c969170	0.018379897
63	0x3dc8e86e	0.098099574
64	0x3d1761f3	0.036958646
65	0x3cc73979	0.024319397
66	0x3ce2b041	0.027671935
67	0x3cd67e42	0.026183251
68	0x3cdd26c6	0.026996028
69	0x3d327618	0.043569654
70	0x3cded34b	0.027200362
71	0x3c704515	0.014664908
72	0x3d6dfd70	0.058103025
73	0x3c575701	0.013143302
74	0x3d28bdbf	0.04119658
75	0x3d38a3dc	0.045078143
76	0x3c8106ed	0.015750373
77	0x3e1a97d4	0.1509698
78	0x3d2a024d	0.0415061
79	0x3db2619f	0.08710026
80	0x3d3c1502	0.045918472
81	0x3dabc503	0.083871864
82	0x3db9025f	0.090336554
83	0x3db924df	0.09040236
84	0x3cd940ad	0.026520098
85	0x3e4b29b6	0.1984013
86	0x3ce9b642	0.02852929
87	0x3d845815	0.06462113
88	0x3d22579a	0.039634325
89	0x3bdff523	0.0068346425
90	0x3d2e04bd	0.042484988
91	0x3d1aa1a8	0.037751824
92	0x3c85d371	0.016336175
93	0x3c7398df	0.01486799
94	0x3d3b6cb6	0.04575797
95	0x3d829dfa	0.06377788
96	0x3cc9a4a5	0.024614641
97	0x3cf3bf96	0.029754441
98	0x3d124340	0.035708666
99	0x3c8ead16	0.017416518
100	0x3ce08b8e	0.027410295
101	0x3d66ccdb	0.05634771
102	0x3cfdd132	0.030983541
103	0x3ca9a4a9	0.020708399
104	0x3cb43cc3	0.02200163
105	0x3db00972	0.085955516
106	0x3c9c3005	0.019065866
107	0x3d4e6ded	0.050397802
108	0x3c979e60	0.018508136
109	0x3c86239f	0.016374407
110	0x3ca2135f	0.019784627
111	0x3cfa97f2	0.030590031
112	0x3d9bf30c	0.07614717
113	0x3d29a447	0.041416433
114	0x3c952c09	0.018209474
115	0x3d94f501	0.07273293
116	0x3d1c0f29	0.038100395
117	0x3c838cea	0.016058404
118	0x3d06d825	0.032920975
119	0x3e571f75	0.21008094
120	0x3db7f831	0.08982886
121	0x3daa7ae6	0.08324222
122	0x3dbfae69	0.09359438
123	0x3d1e82ac	0.038698837
124	0x3c4995ec	0.012303811
125	0x3c91a408	0.017778412
126	0x3d6cf8d9	0.057854507
127	0x3c94e298	0.018174455
128	0x3d182d43	0.03715254
129	0x3d906aa8	0.07051593
130	0x3d685a06	0.056726478
131	0x3d0d0714	0.03443058
132	0x3cb409ac	0.021977268
133	0x3c333948	0.01093895
134	0x3cc522ac	0.024064384
135	0x3d807852	0.06272949
136	0x3d27dca3	0.0409819
137	0x3d269bb3	0.04067583
138	0x3c73e4ae	0.014886064
139	0x3d17e06f	0.03707927
140	0x3cd76509	0.026293295
141	0x3cdd3867	0.027004434
142	0x3d014be6	0.031566523
143	0x3d18a04e	0.037262253
144	0x3caaaeb3	0.020835256
145	0x3e142341	0.14466573
146	0x3cc9e63f	0.024645923
147	0x3c548215	0.012970467
148	0x3cc2e1b5	0.023789266
149	0x3d921bd6	0.071342155
150	0x3d736c33	0.05942936
151	0x3c13a3d7	0.00901123
152	0x3d45fcfa	0.04833696
153	0x3ce3f96b	0.027828893
154	0x3d12b555	0.035817463
155	0x3cd6ce05	0.026221285
156	0x3c5947ed	0.013261777
157	0x3d478d7d	0.048718918
158	0x3cdf9b89	0.027295845
159	0x3ce1535d	0.027505571
160	0x3e179df6	0.14806351
161	0x3dc93bb1	0.09825838
162	0x3cec0a02	0.028813366
163	0x3da7a1a1	0.08185125
164	0x3cae5b22	0.02128369
165	0x3d2ae795	0.04172476
166	0x3d837985	0.064196624
167	0x3cb27e65	0.021788785
168	0x3d09d14f	0.033646878
169	0x3d55370a	0.052054442
170	0x3d04a904	0.03238775
171	0x3d2b035d	0.041751254
172	0x3d6d216c	0.0578932
173	0x3d721488	0.05910161
174	0x3e1ab080	0.15106392
175	0x3d6f43d6	0.058414303
176	0x3cf504d9	0.029909538
177	0x3c6ddb56	0.014517626
178	0x3d35e486	0.04440739
179	0x3dcefffb	0.10107418
180	0x3d264c9b	0.0406004
181	0x3d5fac49	0.054607663
182	0x3ce72052	0.028213654
183	0x3ceb48b4	0.028721191
184	0x3d733304	0.059374824
185	0x3c8bbbeb	0.01705738
186	0x3d974c2f	0.07387578
187	0x3cfb9963	0.030712789
188	0x3c64a8e8	0.013956286
189	0x3c822cb5	0.015890459
190	0x3e189448	0.14900315
191	0x3c837a68	0.016049579
192	0x3bff0631	0.0077827205
193	0x3ca75c56	0.020429771
194	0x3d0fd3d7	0.035114136
195	0x3d8e6153	0.06952157
196	0x3e0d2efe	0.13787457
197	0x3d13ec07	0.036113765
198	0x3c989005	0.018623361
199	0x3da3a6e7	0.079908185
200	0x3c16cfce	0.009204818
201	0x3da96b85	0.08272461
202	0x3d01e8da	0.031716205
203	0x3c4b9375	0.012425293
204	0x3c996ef4	0.018729664
205	0x3d8f2054	0.06988588
206	0x3d98264d	0.0742918
207	0x3c486d09	0.012233027
208	0x3c379a3c	0.011206206
209	0x3dc787ca	0.097426966
210	0x3cd7653d	0.026293391
211	0x3d86a399	0.065741725
212	0x3e2c1683	0.16805463
213	0x3ced9648	0.029002324
214	0x3c45452f	0.01204042
215	0x3cd3e8bd	0.025867814
216	0x3c8a89e3	0.016911453
217	0x3cda1be1	0.026624622
218	0x3dadff50	0.084959626
219	0x3d0dd375	0.03462549
220	0x3d24842a	0.040165104
221	0x3d5a2172	0.053254552
222	0x3d08f8b7	0.033440318
223	0x3dbef239	0.09323544
224	0x3ccc467e	0.024935957
225	0x3c76167d	0.01502001
226	0x3dae776c	0.08518872
227	0x3d12fb8c	0.035884425
228	0x3d0383b9	0.032108042
229	0x3dad1805	0.08451847
230	0x3cb04f97	0.021522326
231	0x3ce59507	0.028025163
232	0x3daf35a5	0.08555154
233	0x3d7ea9d3	0.062173676
234	0x3d6af1d5	0.057359535
235	0x3ca9fe3f	0.020751117
236	0x3cc92841	0.024555327
237	0x3d0769f0	0.033060014
238	0x3cce9611	0.025218042
239	0x3cdf6206	0.02726842
240	0x3e109e27	0.1412283
241	0x3d34b616	0.044118963
242	0x3e05dda7	0.13072835
243	0x3db815e7	0.089885525
244	0x3da245b2	0.079234496
245	0x3c5d3d00	0.013503313
246	0x3cc05c90	0.023481637
247	0x3d9685ef	0.073497646
248	0x3d9b4e54	0.07583299
249	0x3d02b55e	0.031911246

encoder.4.weight f4 [150, 250]
0	0x3cc25c86	0.02372576
1	0x3d342b13	0.04398639
2	0x3d7c50ac	0.061600372
3	0xbd4779e3	-0.048700225
4	0x3d52c26e	0.051454954
5	0x3ce52d0a	0.027975578
6	0xbc01ef2d	-0.007930559
7	0x3b3968a6	0.0028291135
8	0x3d601c38	0.05471441
9	0x3d63b69c	0.05559407
10	0x3ceb5cee	0.028730836
11	0x3d28d10f	0.041215
12	0x3d5ec7b7	0.05438968
13	0xbc819b74	-0.015821196
14	0xbb36fcb7	-0.0027921626
15	0xbcc14fa2	-0.023597542
16	0x3d2f94a3	0.04286636
17	0xbd64fe79	-0.055906747
18	0xbd501d04	-0.05080892
19	0xbc712862	-0.014719101
20	0xbce1c77e	-0.027560946
21	0xbca45719	-0.020061063
22	0x3c16e296	0.009209296
23	0x3cb6152c	0.022226892
24	0x3d66818d	0.056275893
25	0xbd6e1192	-0.058122225
26	0x3d45e3fc	0.048313126
27	0x3d28591f	0.041100617
28	0x3d0a93c2	0.03383232
29	0xbd4057ae	-0.046958618
30	0xbd2d51c0	-0.04231429
31	0x3d3d9fcc	0.046294972
32	0xbd5a450e	-0.053288512
33	0xbd67207b	-0.05642746
34	0xbd4f6fe6	-0.050643824
35	0xbc702a13	-0.014658469
36	0xbd573712	-0.052542754
37	0x3d05020b	0.03247265
38	0x3c54303e	0.012950955
39	0xbc9a5f8d	-0.01884439
40	0xbd2c5c2f	-0.0420801
41	0xbc81986b	-0.015819749
42	0x3d6dcd0b	0.058056872
43	0xbc24cccc	-0.010058593
44	0xbd5b29c0	-0.053506613
45	0x3d542a05	0.051797885
46	0xbb9ce5ec	-0.004788151
47	0xbd47198f	-0.04860836
48	0x3c680c96	0.014163157
49	0xbd5b8688	-0.053595096
50	0xbd7ad194	-0.061235026
51	0xbae7fb92	-0.0017698875
52	0x3d622fba	0.055221297
53	0x3c779de8	0.015113331
54	0xbcd08569	-0.02545424
55	0xbba82929	-0.00513186
56	0x3bfa8d8d	0.0076462687
57	0x3d764cfe	0.06013202
58	0x3d02407a	0.03179977
59	0x3c788a19	0.015169644
60	0xbc9b4b24	-0.018956728
61	0x3d4e3da7	0.050351765
62	0xbd2b7117	-0.041855898
63	0x39e7cd87	0.00044212883
64	0x3d29cfea	0.041458048
65	0xbd7e7580	-0.062123775
66	0xbd5d4db0	-0.054029167
67	0xbc8779d2	-0.01653758
68	0xbbbc9220	-0.005754724
69	0x3d3123f4	0.04324718
70	0x3c924111	0.017853292
71	0x3d5e1453	0.0542186
72	0xbce9bc8d	-0.02853229
73	0x3d2298aa	0.039696373
74	0x3c368672	0.011140453
75	0x3aabbdc7	0.0013102823
76	0x3c89c625	0.016818115
77	0x3d2f325c	0.042772636
78	0xbc34aed3	-0.0110280095
79	0xbca5db79	-0.020246254
80	0xbd2413ba	-0.040057875
81	0x3d31e836	0.043434344
82	0x3d2cc2c6	0.042177938
83	0x3ad56885	0.001628176
84	0x3bcf2a0d	0.0063221515
85	0xbd5fc583	-0.05463172
86	0x3d79173d	0.060813177
87	0x3d530a92	0.051523753
88	0xbd2723ba	-0.040805556
89	0xbd7d9946	-0.06191375
90	0x3d346acf	0.044047173
91	0x3d814b1c	0.06313154
92	0xbd2164c1	-0.039402727
93	0xbc249f6b	-0.010047774
94	0x3d7a312e	0.061082058
95	0x3c9e49a5	0.019322226
96	0xbd1c03e2	-0.03808964
97	0xbc0403cc	-0.008057546
98	0xbd58da5a	-0.05294261
99	0xbd3a1dd0	-0.045438588
100	0xbcaccd5e	-0.02109402
101	0x3ab46c7a	0.0013765239
102	0x3d759448	0.059955865
103	0xbc67fe1a	-0.014159704
104	0xbc911924	-0.017712183
105	0xbc73a0bf	-0.014869868
106	0xbd26be8c	-0.040709063
107	0x3d5a1639	0.05324385
108	0x3d4f8874	0.05066724
109	0x3d51002b	0.05102555
110	0x3c974168	0.018463805
111	0xbd5a302f	-0.053268608
112	0x3cc284a3	0.023744887
113	0xbd4282a7	-0.04748788
114	0xbae9ca87	-0.0017836847
115	0x3ce8d8a1	0.02842361
116	0x3d5c5cd3	0.05379946
117	0xbb14c005	-0.002269746
118	0xbd20385a	-0.03911624
119	0xbd1b49fb	-0.03791235
120	0x3d5952b1	0.053057376
121	0xbd6806ba	-0.05664704
122	0x3d310e00	0.043226242
123	0xbd11d51b	-0.035603624
124	0xbcdd8ec4	-0.027045615
125	0x3cf44180	0.02981639
126	0xbd7c7326	-0.06163325
127	0xbbbe130a	-0.0058006095
128	0x3b3c07cf	0.0028691178
129	0x3d403d18	0.046933264
130	0xbcc3cbe7	-0.02390094
131	0x3d3e4f6c	0.04646246
132	0x3d24a112	0.04019267
133	0xbc5e492f	-0.013567253
134	0x3ac5ebc8	0.0015100176
135	0xbcdfc40e	-0.027315166
136	0x3d3404bd	0.04394983
137	0xbd43708b	-0.04771475
138	0xbd1d4f13	-0.03840549
139	0xbd6751e4	-0.05647458
140	0x3d709900	0.058739662
141	0x3d7e2dda	0.062055446
142	0xbbbe6f61	-0.0058116172
143	0x3c954c99	0.018225001
144	0xbd7ae4c0	-0.06125331
145	0xbd62c778	-0.05536601
146	0x3d654b04	0.055979744
147	0xbd3d299e	-0.046182267
148	0x3d288a31	0.041147415
149	0xbb85f7f9	-0.0040883985
150	0x3c317e6b	0.010833363
151	0xbcd7194b	-0.026257178
152	0xbcb64529	-0.022249775
153	0x3d7c225e	0.061556213
154	0x3cee0d0e	0.02905896
155	0xbc7183d6	-0.014740905
156	0x3d807dc5	0.06273989
157	0x3d61a76b	0.055091303
158	0xbd08518b	-0.03328089
159	0xbd5bf3ca	-0.053699292
160	0xbd3fa5dc	-0.046789035
161	0x3cb840a4	0.02249176
162	0x3d4ce4b4	0.050022796
163	0x3d815885	0.06315712
164	0xbd2d0d1b	-0.042248826
165	0xbc38da48	-0.011282511
166	0x3d060af5	0.032725293
167	0xbc1313c9	-0.008976885
168	0x3d398c43	0.04529978
169	0xbcc1b8cc	-0.023647688
170	0xbcab62d4	-0.020921148
171	0x3c4d0908	0.01251436
172	0x3d3b9cf0	0.045803964
173	0x3d78478c	0.060615107
174	0x3bcb6b60	0.0062078685
175	0x3d389aeb	0.045069616
176	0x3c2eda7b	0.010672207
177	0x3d4e7430	0.050403774
178	0xbc89d221	-0.01682383
179	0x3d5bf9b4	0.053704932
180	0x3d15ecdb	0.036602836
181	0x3d7ba9b8	0.061441153
182	0xbd38a473	-0.045078706
183	0x3d6799db	0.056543212
184	0x3d4c097b	0.04981373
185	0x3d65b08b	0.056076568
186	0xbcb0ad27	-0.02156694
187	0xbd04d041	-0.03242517
188	0x3d14e3b7	0.03634998
189	0x3cafe75e	0.02147263
190	0xbd28ec47	-0.041240957
191	0xbd78e8db	-0.060768943
192	0xbcadc201	-0.021210672
193	0x3d5f8ecc	0.05457954
194	0x3d0c7f6a	0.0343012
195	0xbd6d311f	-0.057908174
196	0xbd3727f5	-0.04471584
197	0xbd75ae32	-0.05998058
198	0xbcd0f0d5	-0.025505463
199	0xba549403	-0.00081092137
200	0x3c6b7a05	0.014372353
201	0xbd5d429f	-0.054018613
202	0xbcd6facf	-0.026242642
203	0x3d3b3574	0.045705274
204	0xbc065420	-0.008198768
205	0xbcd9bded	-0.026579821
206	0x3d4bb7df	0.0497359
207	0x3cf2c97d	0.029637093
208	0x3ca26078	0.01982139
209	0x3d0bc2be	0.034121267
210	0xbc1088e4	-0.0088217
211	0xbd2ca9fe	-0.042154305
212	0xbd500094	-0.0507818
213	0x3cc6b37f	0.024255512
214	0x3d50881d	0.050911058
215	0xbd71f716	-0.05907353
216	0xbc8eb6a5	-0.017421076
217	0x3ba57258	0.005049031
218	0xbd168099	-0.036743734
219	0x3c89c5f1	0.016818019
220	0xbd0d18c0	-0.03444743
221	0x3c9b2105	0.018936643
222	0xbbd40d4d	-0.006471312
223	0x3d7d63b0	0.061862648
224	0x3cfb720a	0.030694026
225	0x3c827bdd	0.015928203
226	0xbd7fb493	-0.06242807
227	0xbcced5c2	-0.025248412
228	0xbc10a08c	-0.00882734
229	0xbcc5ba77	-0.024136765
230	0x3c8ec289	0.017426746
231	0xbb067f42	-0.002052263
232	0xbc4002c2	-0.0117194075
233	0xbd7efa37	-0.062250342
234	0xbbefb1c8	-0.0073148943
235	0x3d15e0a2	0.03659118
236	0xbd47e5ab	-0.048803013
237	0xbcf20767	-0.029544545
238	0x3d5713b4	0.052509025
239	0xbd001dd4	-0.031278446
240	0xbca16ae7	-0.019704295
241	0xbd6aa329	-0.057284508
242	0xbd482fd2	-0.04887373
243	0xbd48f148	-0.04905823
244	0x3c4f6e7b	0.012660618
245	0x3ab87dc1	0.0014075564
246	0xbd6e218a	-0.058137454
247	0xbd07f5f9	-0.033193562
248	0xbd6f61e5	-0.05844297
249	0xbd784273	-0.060610246
250	0xbcb4bbd6	-0.022062223
251	0x3d424d54	0.047437027
252	0xbb69a77e	-0.0035652812
253	0xbb9cc240	-0.0047838986
254	0xbcdddad6	-0.027081888
255	0x3d6abd56	0.05730947

encoder.4.bias f4 [150]
0	0x3cee2e3e	0.029074784
1	0xbc8d1bad	-0.01722511
2	0xbc7b0d5e	-0.015323011
3	0xbb501c68	-0.0031755213
4	0x3d27a456	0.040928207
5	0xbd6eafbb	-0.05827306
6	0x3d255773	0.0403666
7	0x3cf55538	0.029947862
8	0xbd52a40f	-0.05142599
9	0x3c88d720	0.016704142
10	0xbd154178	-0.03643939
11	0xbad7d24d	-0.0016465873
12	0x3c6965a7	0.014245427
13	0xbd116428	-0.035495907
14	0x3d5679f6	0.052362405
15	0xbd6964e3	-0.05698098
16	0xbd0e78d1	-0.03478319
17	0x3cda8197	0.026673121
18	0x3cdb6dd8	0.026785776
19	0x3d04f5fd	0.032461155
20	0x3bc0daee	0.0058854735
21	0xbc6db966	-0.014509534
22	0x3d1e458f	0.038640555
23	0x3d1493c9	0.03627375
24	0x3d70ed71	0.05882019
25	0xbcef415d	-0.029205972
26	0x3d14d345	0.036334295
27	0xbd182b79	-0.037150834
28	0xbcd7f355	-0.026361147
29	0x3bed5290	0.007242508
30	0xbd24a4f2	-0.040196367
31	0x3ce09d32	0.027418707
32	0xbb723e49	-0.0036963394
33	0xbca2b9ea	-0.019864041
34	0x3d392ad9	0.04520688
35	0x3cc23174	0.023705222
36	0xbc9679a2	-0.018368546
37	0x3c887ca7	0.016661001
38	0xbc7cda1d	-0.015432862
39	0x3d23faf1	0.04003424
40	0x3d04032c	0.032229587
41	0x3ce79901	0.0282712
42	0xbd484e3c	-0.048902735
43	0xbc814bc0	-0.01578319
44	0xbc8a631b	-0.01689296
45	0x3d187eb0	0.037230194
46	0x3d5bbe8b	0.053648513
47	0xbd4368e6	-0.04770746
48	0xbc72df16	-0.014823696
49	0x3d34ec7b	0.044170838
50	0x3bb43ad5	0.0055001774
51	0xbca5884e	-0.020206597
52	0xbbbb276a	-0.0057114856
53	0xbd1b76a5	-0.037954945
54	0x3d44fe74	0.048094228
55	0x3d168440	0.036747217
56	0x3c73434d	0.014847589
57	0x3d58e15d	0.0529493
58	0xbbb55579	-0.005533871
59	0xbd2aeca0	-0.04172957
60	0x3d7d7943	0.061883222
61	0xbd61a29a	-0.05508671
62	0x3cff4077	0.031158669
63	0xbc8bf670	-0.017085284
64	0x3c92bbe7	0.017911864
65	0x3cc51fbc	0.024062984
66	0xbca64dda	-0.020300794
67	0x3d5b02f3	0.05346961
68	0x3b89cbb6	0.0042051924
69	0xbd2b1064	-0.04176368
70	0xbd08d092	-0.033402033
71	0xbd4f8835	-0.050667007
72	0x3d0991d9	0.033586357
73	0x3ca942e3	0.020661777
74	0x3d699e4c	0.05703573
75	0x3d793f72	0.06085152
76	0xbc83d74a	-0.016093869
77	0x3d4efec6	0.05053594
78	0xbd2ec1b2	-0.04266519
79	0x3d428e1c	0.047498807
80	0xbc83d0a2	-0.016090695
81	0xbd0b59cd	-0.034021188
82	0x3bac67d8	0.0052614026
83	0xbd6e003c	-0.058105692
84	0xbcbdf8db	-0.023189953
85	0x3c9c6646	0.019091737
86	0x3d0dad28	0.034588963
87	0xbc3b44e3	-0.011429998
88	0xbd7cba94	-0.061701372
89	0xbd20a933	-0.03922386
90	0xbd4776f0	-0.048697412
91	0x3c68b147	0.014202422
92	0xbc1b2ebe	-0.009471593
93	0x3cbae6f7	0.02281521
94	0xbcadff52	-0.02123991
95	0xbc8e094e	-0.017338421
96	0xbd22aa14	-0.03971298
97	0xbcb53e3f	-0.022124408
98	0xbd8184e1	-0.06324173
99	0x3d4b18b8	0.04958412
100	0x3ca1d1a1	0.01975328
101	0x3d7f7d1c	0.062375173
102	0x3d14e32d	0.036349464
103	0x3d7a81d9	0.06115899
104	0x3d48a8af	0.048988994
105	0x3c863fe7	0.016387893
106	0x3caa7ac4	0.020810492
107	0xbd7ce65c	-0.061743125
108	0x3d1a0ce8	0.037609965
109	0xbd4f167a	-0.050558545
110	0xbd5e6caa	-0.05430285
111	0xbbb3ef61	-0.0054911827
112	0xbd175eb3	-0.036955547
113	0x3ce61246	0.028084885
114	0x3b8a8d0e	0.004228241
115	0x3d2c7377	0.042102303
116	0x3d514cd5	0.051098663
117	0xbd1ac89e	-0.03778898
118	0x3ca038cb	0.019558331
119	0x3cd47947	0.025936736
120	0xbcf29103	-0.029610163
121	0xbcf26dfd	-0.029593462
122	0x3d2edada	0.042689182
123	0x3d40c481	0.0470624
124	0xbd236386	-0.039889835
125	0x3bf03452	0.007330456
126	0xbc8ac4de	-0.016939577
127	0xbc941f58	-0.018081352
128	0x3d36d02c	0.044632122
129	0xbd7bd2e0	-0.061480403
130	0x3d3d85fa	0.046270348
131	0xbd626903	-0.05527593
132	0x3c39ebb1	0.011347697
133	0x3cb1e0d4	0.021713652
134	0xbd68a5d8	-0.056798786
135	0xbd3eef0c	-0.04661469
136	0xbbc9b6ba	-0.006155816
137	0x3d2efbfa	0.042720772
138	0x3d53e770	0.051734388
139	0x3d3a6562	0.045506842
140	0xbd62bc2c	-0.055355236
141	0x3cb1fb74	0.021726348
142	0xbd7ef68e	-0.06224685
143	0x3ccee005	0.025253305
144	0xbd132e57	-0.035932865
145	0xbcac4564	-0.021029182
146	0xbb8f3a4b	-0.0043709627
147	0xbc3f6c4c	-0.011683535
148	0x3d54e2c5	0.051974077
149	0x3bd9846b	0.0066381

encoder.5.weight f4 [150]
0	0x3f800000	1.0
1	0x3f800000	1.0
2	0x3f800000	1.0
3	0x3f800000	1.0
4	0x3f800000	1.0
5	0x3f800000	1.0
6	0x3f800000	1.0
7	0x3f800000	1.0
8	0x3f800000	1.0
9	0x3f800000	1.0
10	0x3f800000	1.0
11	0x3f800000	1.0
12	0x3f800000	1.0
13	0x3f800000	1.0
14	0x3f800000	1.0
15	0x3f800000	1.0
16	0x3f800000	1.0
17	0x3f800000	1.0
18	0x3f800000	1.0
19	0x3f800000	1.0
20	0x3f800000	1.0
21	0x3f800000	1.0
22	0x3f800000	1.0
23	0x3f800000	1.0
24	0x3f800000	1.0
25	0x3f800000	1.0
26	0x3f800000	1.0
27	0x3f800000	1.0
28	0x3f800000	1.0
29	0x3f800000	1.0
30	0x3f800000	1.0
31	0x3f800000	1.0
32	0x3f800000	1.0
33	0x3f800000	1.0
34	0x3f800000	1.0
35	0x3f800000	1.0
36	0x3f800000	1.0
37	0x3f800000	1.0
38	0x3f800000	1.0
39	0x3f800000	1.0
40	0x3f800000	1.0
41	0x3f800000	1.0
42	0x3f800000	1.0
43	0x3f800000	1.0
44	0x3f800000	1.0
45	0x3f800000	1.0
46	0x3f800000	1.0
47	0x3f800000	1.0
48	0x3f800000	1.0
49	0x3f800000	1.0
50	0x3f800000	1.0
51	0x3f800000	1.0
52	0x3f800000	1.0
53	0x3f800000	1.0
54	0x3f800000	1.0
55	0x3f800000	1.0
56	0x3f800000	1.0
57	0x3f800000	1.0
58	0x3f800000	1.0
59	0x3f800000	1.0
60	0x3f800000	1.0
61	0x3f800000	1.0
62	0x3f800000	1.0
63	0x3f800000	1.0
64	0x3f800000	1.0
65	0x3f800000	1.0
66	0x3f800000	1.0
67	0x3f800000	1.0
68	0x3f800000	1.0
69	0x3f800000	1.0
70	0x3f800000	1.0
71	0x3f800000	1.0
72	0x3f800000	1.0
73	0x3f800000	1.0
74	0x3f800000	1.0
75	0x3f800000	1.0
76	0x3f800000	1.0
77	0x3f800000	1.0
78	0x3f800000	1.0
79	0x3f800000	1.0
80	0x3f800000	1.0
81	0x3f800000	1.0
82	0x3f800000	1.0
83	0x3f800000	1.0
84	0x3f800000	1.0
85	0x3f800000	1.0
86	0x3f800000	1.0
87	0x3f800000	1.0
88	0x3f800000	1.0
89	0x3f800000	1.0
90	0x3f800000	1.0
91	0x3f800000	1.0
92	0x3f800000	1.0
93	0x3f800000	1.0
94	0x3f800000	1.0
95	0x3f800000	1.0
96	0x3f800000	1.0
97	0x3f800000	1.0
98	0x3f800000	1.0
99	0x3f800000	1.0
100	0x3f800000	1.0
101	0x3f800000	1.0
102	0x3f800000	1.0
103	0x3f800000	1.0
104	0x3f800000	1.0
105	0x3f800000	1.0
106	0x3f800000	1.0
107	0x3f800000	1.0
108	0x3f800000	1.0
109	0x3f800000	1.0
110	0x3f800000	1.0
111	0x3f800000	1.0
112	0x3f800000	1.0
113	0x3f800000	1.0
114	0x3f800000	1.0
115	0x3f800000	1.0
116	0x3f800000	1.0
117	0x3f800000	1.0
118	0x3f800000	1.0
119	0x3f800000	1.0
120	0x3f800000	1.0
121	0x3f800000	1.0
122	0x3f800000	1.0
123	0x3f800000	1.0
124	0x3f800000	1.0
125	0x3f800000	1.0
126	0x3f800000	1.0
127	0x3f800000	1.0
128	0x3f800000	1.0
129	0x3f800000	1.0
130	0x3f800000	1.0
131	0x3f800000	1.0
132	0x3f800000	1.0
133	0x3f800000	1.0
134	0x3f800000	1.0
135	0x3f800000	1.0
136	0x3f800000	1.0
137	0x3f800000	1.0
138	0x3f800000	1.0
139	0x3f800000	1.0
140	0x3f800000	1.0
141	0x3f800000	1.0
142	0x3f800000	1.0
143	0x3f800000	1.0
144	0x3f800000	1.0
145	0x3f800000	1.0
146	0x3f800000	1.0
147	0x3f800000	1.0
148	0x3f800000	1.0
149	0x3f800000	1.0
