lstm/last_checkpoint.pth (torch, 474939 bytes, 12 tensors)

encoder.0.weight f4 [250, 303]
0.037399523 0.01825272 0.0066652824 0.01696109 -0.033077344 0.017835055 0.04076114 0.052860472
-0.031600717 0.00062199176 0.020898419 -0.016822048 -0.044752046 0.016086036 -0.051152214 -0.04827783
0.057360023 0.056808762 0.043825537 -0.020556703 0.046720523 0.04639425 0.019528745 -0.019305665
0.012913662 -0.0449323 -0.025398498 0.026483983 -0.04309007 0.035561796 -0.04206518 0.002037555
-0.0472591 0.020713367 -0.019754956 0.030227944 0.023137206 0.04193009 0.03808224 0.031903543
-0.042475887 0.045859598 -0.0086412225 0.049589444 -0.0397897 -0.015776591 -0.031128412 -0.03544692
0.056502037 -0.04681373 0.039555665 -0.030415988 -0.051233288 0.054009844 -0.023440884 0.006771994
-0.03436147 -0.05720545 -0.019248372 -0.042199213 -0.017870408 0.0078041363 0.00843223 0.03804225
0.04447999 -0.04339295 0.052884817 -0.002291151 -0.0052168127 -0.0017548738 0.026644466 0.01737359
0.043982536 0.017285226 -0.050744496 -0.049985535 0.03953127 -0.05114737 -0.038209606 0.0087419
-0.0054704086 -0.023270722 0.040336866 0.019239064 0.033363353 -0.035071 0.0118816085 -0.037641358
0.014592032 0.004174905 -0.03427112 0.043995533 0.01964814 0.040388998 -0.023271449 -0.010742625
-0.053376265 0.02203569 0.049513407 0.006984137 -0.019189833 0.043132376 -0.029138763 0.008668664
-0.05250815 0.017820435 0.049330458 -0.027349072 -0.043482903 -0.047248844 -0.025360838 0.048448782
0.053953826 0.022749258 -0.03461126 -0.012687801 0.032597803 -0.010751911 -0.016187722 0.050201323
0.036442522 0.04219012 0.029984567 0.023518538 0.01658608 -0.046193697 -0.054371137 0.03626236
-0.049651574 0.0013243905 0.026087837 -0.045502797 0.0040268833 0.054366056 0.015367428 0.0028574448
0.0024226608 -0.056002982 0.0013647208 -0.04789208 0.015365093 0.023215571 0.050106123 0.033637967
-0.031358533 -0.02315923 0.0509082 0.03296566 0.036574453 -0.011643285 -0.05259001 0.05138378
-0.037087098 0.043485273 -0.0018224057 -0.030938521 0.04632387 0.011169355 -0.02450009 -0.047502793
0.015070283 0.03193003 0.021597043 0.0044336985 -0.033283103 0.056964926 0.052748274 -0.010169859
0.05579353 0.034491256 -0.037496284 -0.043337375 -0.022683239 -0.043365557 0.020267414 0.04117277
0.005441851 0.025424344 0.037032988 -0.04540396 -0.010109566 -0.050839763 -0.05570233 0.024564061
0.040474247 0.018672567 0.016054766 0.0033562956 0.012856574 0.03210298 0.046742376 0.028541801
-0.03471132 -0.0059516453 -0.05312845 0.02624094 -0.0102232015 0.028917093 -0.027276505 0.044238355
0.042480696 -0.027552065 0.051363055 -0.004613921 -0.00071385613 0.019634074 0.043137867 -0.041121624
0.025382137 0.036410395 0.032006104 -0.049496815 -0.031500436 0.044254202 0.00069494086 0.05554503
0.028776497 0.011519 0.01429462 -0.011400208 0.01673254 0.0018643659 0.03786396 0.055704013
-0.021568924 -0.03212402 0.013818335 -0.025687233 0.05449778 -0.057404883 -0.05034487 0.025405366
0.040822487 0.026141398 0.046571907 -0.012618133 -0.03811579 0.01647056 0.0213394 0.03252433
-0.05285608 -0.04069221 -0.0020830831 -0.007284994 0.013649721 0.0019356371 0.040942807 -0.04228519
0.03645906 -0.009840048 0.0038123918 -0.025806367 0.01707952 -0.039077982 0.014279554 0.010624236
00000000: 3e30 193d ba86 953c 7168 da3b fcf1 8a3c
00000010: 1c7c 07bd d21a 923c 27f5 263d 3984 583d
00000020: c16f 01bd 290d 233a 2933 ab3c 64ce 89bc
00000030: ec4d 37bd ddc6 833c fc84 51bd f9be 45bd
00000040: 58f2 6a3d 4eb0 683d 6882 333d 8866 a8bc
00000050: 055e 3f3d e607 3e3d bffa 9f3c ea26 9ebc
00000060: d393 533c ee0a 38bd 8310 d0bc f0f4 d83c
00000070: 377f 30bd 3fa9 113d 8a4c 2cbd 8088 053b
00000080: c292 41bd 14af a93c 25d5 a1bc 98a0 f73c
00000090: 3d8a bd3c e3be 2b3d 1ffc 1b3d 4aad 023d
000000a0: 32fb 2dbd 46d7 3b3d ea93 0dbc 4d1e 4b3d
000000b0: 86fa 22bd e93d 81bc 0301 ffbc ca30 11bd
000000c0: ae6e 673d c1bf 3fbd 1f05 223d f32a f9bc
000000d0: ffd9 51bd 6d39 5d3d 1907 c0bc 9ae7 dd3b
000000e0: 9dbe 0cbd 4350 6abd c3ae 9dbc 15d9 2cbd
000000f0: f664 92bc d7b9 ff3b 5627 0a3c 31d2 1b3d
00000100: a630 363d cebc 31bd c09d 583d 2327 16bb
00000110: ccf1 aabb cb03 e6ba 7f45 da3c 0f53 8e3c
00000120: 0827 343d bf99 8d3c 76d9 4fbd a2bd 4cbd
00000130: 8aeb 213d e87f 51bd ad81 1cbd 303a 0f3c
00000140: 1d41 b3bb 3ea2 bebc 4538 253d 3e9b 9d3c
00000150: 03a8 083d 9ca6 0fbd 14ab 423c d32d 1abd
00000160: 6b13 6f3c a4cd 883b e05f 0cbd a934 343d
00000170: 23f5 a03c ef6e 253d c4a3 bebc d601 30bc
00000180: 12a1 5abd 3184 b43c 92ce 4a3d 30db e43b
00000190: ff33 9dbc 93ab 303d 6ab4 eebc 0307 0e3c
000001a0: c912 57bd 29fc 913c bc0e 4a3d 290b e0bc
000001b0: 211b 32bd 0188 41bd 88c1 cfbc 3b72 463d
000001c0: b0fe 5c3d a75c ba3c 89c4 0dbd 7fe0 4fbc
000001d0: 4685 053d c928 30bc 1d9c 84bc e79f 4d3d
000001e0: c144 153d 8ccf 2c3d 32a2 f53c f3a9 c03c
000001f0: 88df 873c 9a35 3dbd 45b4 5ebd d787 143d
00000200: 735f 4bbd 2c97 ad3a 29b6 d53c 2461 3abd
00000210: f2f3 833b f1ae 5e3d aac7 7b3c f843 3b3b
00000220: 81c5 1e3b 6263 65bd 6ee0 b23a 7c2a 44bd
00000230: dfbd 7b3c 952e be3c 143c 4d3d f7c7 093d
00000240: ce71 00bd 6db8 bdbc 1e85 503d 0007 073d
00000250: 18cf 153d 7ac3 3ebc 9f68 57bd cc77 523d
00000260: a4e8 17bd 9d1d 323d cadd eeba c872 fdbc
00000270: 19be 3d3d acff 363c 6ab4 c8bc 4a92 42bd
00000280: 59e9 763c 10c9 023d 48ec b03c 8f48 913b
00000290: dd53 08bd 0e54 693d 930e 583d 7b9f 26bc
000002a0: c287 643d b446 0d3d b495 19bd 8882 31bd
000002b0: 33d2 b9bc 15a0 31bd d907 a63c c7a4 283d
000002c0: 8e51 b23b b746 d03c e7af 173d 81f9 39bd
000002d0: 98a2 25bc 5b3d 50bd 2028 64bd 923a c93c
000002e0: 53c8 253d 36f7 983c 4985 833c 4cf5 5b3b
000002f0: 61a4 523c 6a7e 033d ef74 3f3d 7fd0 e93c
00000300: 752d 0ebd 0506 c3bb 389d 59bd 3df7 d63c
00000310: 377f 27bc 8ae3 ec3c fa72 dfbc 4733 353d
00000320: 3d00 2e3d deb4 e1bc 1162 523d 6030 97bb
00000330: 1322 3bba a3d7 a03c 55b1 303d 266f 28bd
00000340: 33ee cf3c 1123 153d d518 033d 2cbd 4abd
00000350: 9a06 01bd e543 353d b12c 363a 2f83 633d
00000360: b0bc eb3c 30ba 3c3c fb33 6a3c f0c7 3abc
00000370: ae12 893c bd5d f43a 3d17 1b3d e429 643d
00000380: 50b1 b0bc 7a94 03bd 4c66 623c 086e d2bc
00000390: 1039 5f3d 6221 6bbd 6c36 4ebd ea1e d03c
000003a0: 7b35 273d 7c26 d63c 2fc2 3e3d 49bc 4ebc
000003b0: 4d1f 1cbd 45ed 863c f7cf ae3c 3b38 053d
000003c0: 9e7f 58bd e0ac 26bd 5684 08bb f5b6 eebb
000003d0: 14a3 5f3c 34b5 fd3a a5b3 273d 3c33 2dbd
000003e0: 1856 153d 2738 21bc 52d9 793b e067 d3bc
000003f0: 59ea 8b3c 3c10 20bd caf4 693c 4711 2e3c

encoder.0.bias f4 [250]
0.048188783 -0.035834827 -0.010984236 -0.03476845 0.036732234 -0.05341048 0.022545964 -0.012675666
-0.017855655 -0.05243483 -0.017006496 -0.0013539619 0.030481623 -0.029204808 0.04242323 -0.045266945
0.028631762 0.00425399 0.03598569 -0.053719733 0.038692027 0.023046251 0.015328605 0.0059780255
0.016194604 0.014819317 -0.052312694 -0.02109546 -0.045184385 0.005517464 -0.020474667 -0.052588686
0.029222066 -0.033740878 -0.027513666 0.035488408 -0.055697802 -0.025288602 0.008286565 0.019623308
-0.05286632 0.01942565 -0.050263293 0.03687281 0.044030454 0.0489599 0.037567582 0.027079128
0.018913958 0.056713138 0.010401602 -0.0320889 -0.028955204 -0.020183103 -0.029850852 -0.0050758864
-0.009545635 -0.028717265 -0.023596555 -0.044644795 0.038785923 0.027019005 0.03279637 0.035402223
0.045244325 0.055744454 0.034131516 -0.026627887 0.038458593 -0.0004202312 0.026957933 -0.035477486
0.0022669488 -0.0059325863 0.0011809235 -0.037516445 0.053911503 0.051584087 0.010763691 -0.02358231
-0.024423348 -0.04945785 -0.0049976367 -0.05373821 -0.015720544 0.011474992 -0.052565373 0.02910083
0.0069763297 -0.01585393 0.012346499 0.030318728 -0.05372899 -0.010158018 0.012592691 0.03700939
0.045044344 -0.051006757 -0.027052939 -0.047377422 -0.008320807 0.010569799 -0.03784935 -0.03946454
-0.043241415 0.011989033 0.019121403 0.009564708 0.019607693 -0.039741434 -0.03349004 -0.019683225
-0.0013609062 -0.0327821 -0.057169132 -0.002343651 0.0025505202 0.026593413 -0.0145379985 -0.03179802
0.056963302 0.011510035 0.052394815 0.025940781 0.003549427 0.045295976 -0.007779496 -0.003988142
0.0014958811 0.04636972 -0.00015997165 0.056980513 -0.014569576 -0.02820466 -0.0055741346 -0.016071368
-0.057078365 -0.04298897 -0.04087142 -0.016428765 0.036391567 0.008586277 0.023066763 0.05107897
-0.03258366 -0.0039036947 0.02723332 -0.047804166 0.016075764 0.012823893 -0.053134304 -0.03173614
0.030470686 0.0017397731 -0.022182465 0.024500536 -0.040465385 -0.04325438 0.04987457 -0.044896767
-0.027444093 -0.03756287 0.038809735 -0.020822736 -0.022957683 0.005548323 -0.013564479 -0.023958383
0.03319889 0.040879514 0.056392964 -0.0054105744 -0.0030690944 0.04816872 -0.016906817 0.049450945
0.003734375 -0.018643009 0.017349895 0.024157308 0.0167627 -0.027843669 0.04885925 0.048879053
0.0024496708 -0.018936256 0.011378916 -0.012357887 0.029940551 -0.023907205 -0.016641531 0.053172812
0.02082766 0.040102173 0.048274472 -0.05213989 0.050737284 -0.026657343 0.0240992 0.04542562
-0.04765998 -0.03905948 0.027081436 -0.042072017 0.05667524 -0.0036282863 -0.055068694 0.016668472
-0.049701888 -0.05528837 0.026154382 -0.018498493 0.0070330272 0.030208837 0.015223324 0.020860896
-0.0065554273 0.001981446 0.008543872 -0.04977848 0.030367741 0.03213649 -0.039648365 0.0072453343
-0.055161 -0.0051628747 -0.05416171 0.015739083 0.048450846 -0.057003044 0.009404907 -0.037133325
-0.018433755 0.052017126 -0.046566263 0.014497319 -0.03424864 -0.029046912 -0.03017163 -0.01330665
0.037874416 0.015508382 -0.039891038 -0.03669865 -0.047288187 -0.057304826 -0.0144069 0.014026012
0.047225285 0.034436893
00000000: 9a61 453d 8ac7 12bd 3af7 33bc 5d69 0ebd
00000010: 8a74 163d f3c4 5abd 50b2 b83c 99ad 4fbc
00000020: 0646 92bc e8c5 56bd 3551 8bbc 6c77 b1ba
00000030: 99b4 f93c ec3e efbc fbc3 2d3d d569 39bd
00000040: 288d ea3c 0e65 8b3b bb65 133d 3909 5cbd
00000050: 887b 1e3d 7ecb bc3c d424 7b3c 50e3 c33b
00000060: 8caa 843c b8cc 723c d645 56bd 63d0 acbc
00000070: 4313 39bd d8cb b43b 7dba a7bc 3c67 57bd
00000080: 1d63 ef3c e033 0abd 5764 e1bc 4b5c 113d
00000090: 6123 64bd 0b2a cfbc 5fc4 073c 0fc1 a03c
000000a0: 5b8a 58bd 8a22 9f3c e2e0 4dbd f207 173d
000000b0: 4759 343d 2d8a 483d 77e0 193d 0cd5 dd3c
000000c0: 72f1 9a3c 094c 683d 7b6b 2a3c a76f 03bd
000000d0: 7733 edbc 0957 a5bc c689 f4bc 9f53 a6bb
000000e0: 4c65 1cbc 7840 ebbc 904d c1bc 76dd 36bd
000000f0: fddd 1e3d f656 dd3c 7d55 063d ec01 113d
00000100: 1d52 393d 4c54 643d 7dcd 0b3d ba22 dabc
00000110: c286 1d3d 7a52 dcb9 e2d6 dc3c d750 11bd
00000120: 1791 143b 2466 c2bb 38c9 9a3a d8aa 19bd
00000130: 4fd2 5c3d d649 533d 315a 303c b02f c1bc
00000140: 7913 c8bc 5194 4abd 37c3 a3bb 991c 5cbd
00000150: 5fc8 80bc 9b01 3c3c ca4e 57bd dd64 ee3c
00000160: b299 e43b 1ae0 81bc f848 4a3c fb5e f83c
00000170: ee12 5cbd d16d 26bc 9351 4e3c 2897 173d
00000180: 6b80 383d 76ec 50bd 209e ddbc d40e 42bd
00000190: fe53 08bc f32c 2d3c ec07 1bbd 92a5 21bd
000001a0: e91d 31bd a66d 443c 7da4 9c3c 4bb5 1c3c
000001b0: 50a0 a03c eac7 22bd da2c 09bd b73e a1bc
000001c0: 6f60 b2ba 8646 06bd 2e2a 6abd f097 19bb
000001d0: a126 273b 6eda d93c c930 6ebc a43e 02bd
000001e0: 5a52 693d 9694 3c3c f29b 563d c381 d43c
000001f0: 819d 683b 4688 393d 24eb febb f6ae 82bb
00000200: 7111 c43a 2dee 3d3d 10be 27b9 6664 693d
00000210: 3bb5 6ebc 760d e7bc 3ba7 b6bb 1aa8 83bc
00000220: 01cb 69bd 3415 30bd ca68 27bd 9e95 86bc
00000230: 530f 153d 75ad 0c3c 82f6 bc3c 2f38 513d
00000240: 7276 05bd 21d5 7fbb 6918 df3c 4dce 43bd
00000250: 52b1 833c 4e1b 523c 5ba3 59bd c1fd 01bd
00000260: a99d f93c 1909 e43a 00b8 b5bc 59b5 c83c
00000270: 08bf 25bd 812b 31bd 4749 4c3d ace5 37bd
00000280: 6fd2 e0bc 86db 19bd f5f6 1e3d 7194 aabc
00000290: c011 bcbc b5ce b53b 8c3d 5ebc 5f44 c4bc
000002a0: 8ffb 073d 4771 273d 4ffc 663d 304b b1bb
000002b0: dc22 49bb 904c 453d 2a80 8abc 138d 4a3d
000002c0: 6abc 743b 39b9 98bc 5e21 8e3c 8ce5 c53c
000002d0: ee51 893c 6818 e4bc a320 483d 6735 483d
000002e0: a88a 203b 3520 9bbc a26e 3a3c bc78 4abc
000002f0: e345 f53c 0bd9 c3bc d253 88bc bccb 593d
00000300: c59e aa3c 2d42 243d 74bb 453d a390 55bd
00000310: e6d1 4f3d 8060 dabc af6b c53c 3710 3a3d
00000320: 1c37 43bd d5fc 1fbd e3d9 dd3c b553 2cbd
00000330: 4c24 683d 8bc8 6dbb b68f 61bd 528c 883c
00000340: 3594 4bbd 0f76 62bd b741 d63c 278a 97bc
00000350: 4f75 e63b 8678 f73c 406b 793c 78e4 aa3c
00000360: e9ce d6bb 26db 013b 99fb 0b3c 85e4 4bbd
00000370: c5c5 f83c 8da1 033d 5366 22bd 456a ed3b
00000380: 80f0 61bd 552d a9bb abd8 5dbd 40ef 803c
00000390: 6574 463d 067c 69bd 0a17 1a3c 1d19 18bd
000003a0: 6302 97bc e90f 553d 44bc 3ebd 2a86 6d3c
000003b0: 4d48 0cbd caf3 edbc 7f2a f7bc 2304 5abc
000003c0: 3422 1b3d de16 7e3c c964 23bd 5351 16bd
000003d0: 42b1 41bd 77b8 6abd eb0a 6cbc 5ccd 653c
000003e0: 4d6f 413d b30d 0d3d

encoder.1.weight f4 [250]
1.0 1.0 1.0 1.0 1.0 1.0 1.0 1.0
1.0 1.0 1.0 1.0 1.0 1.0 1.0 1.0
1.0 1.0 1.0 1.0 1.0 1.0 1.0 1.0
1.0 1.0 1.0 1.0 1.0 1.0 1.0 1.0
1.0 1.0 1.0 1.0 1.0 1.0 1.0 1.0
1.0 1.0 1.0 1.0 1.0 1.0 1.0 1.0
1.0 1.0 1.0 1.0 1.0 1.0 1.0 1.0
1.0 1.0 1.0 1.0 1.0 1.0 1.0 1.0
1.0 1.0 1.0 1.0 1.0 1.0 1.0 1.0
1.0 1.0 1.0 1.0 1.0 1.0 1.0 1.0
1.0 1.0 1.0 1.0 1.0 1.0 1.0 1.0
1.0 1.0 1.0 1.0 1.0 1.0 1.0 1.0
1.0 1.0 1.0 1.0 1.0 1.0 1.0 1.0
1.0 1.0 1.0 1.0 1.0 1.0 1.0 1.0
1.0 1.0 1.0 1.0 1.0 1.0 1.0 1.0
1.0 1.0 1.0 1.0 1.0 1.0 1.0 1.0
1.0 1.0 1.0 1.0 1.0 1.0 1.0 1.0
1.0 1.0 1.0 1.0 1.0 1.0 1.0 1.0
1.0 1.0 1.0 1.0 1.0 1.0 1.0 1.0
1.0 1.0 1.0 1.0 1.0 1.0 1.0 1.0
1.0 1.0 1.0 1.0 1.0 1.0 1.0 1.0
1.0 1.0 1.0 1.0 1.0 1.0 1.0 1.0
1.0 1.0 1.0 1.0 1.0 1.0 1.0 1.0
1.0 1.0 1.0 1.0 1.0 1.0 1.0 1.0
1.0 1.0 1.0 1.0 1.0 1.0 1.0 1.0
1.0 1.0 1.0 1.0 1.0 1.0 1.0 1.0
1.0 1.0 1.0 1.0 1.0 1.0 1.0 1.0
1.0 1.0 1.0 1.0 1.0 1.0 1.0 1.0
1.0 1.0 1.0 1.0 1.0 1.0 1.0 1.0
1.0 1.0 1.0 1.0 1.0 1.0 1.0 1.0
1.0 1.0 1.0 1.0 1.0 1.0 1.0 1.0
1.0 1.0
00000000: 0000 803f 0000 803f 0000 803f 0000 803f
00000010: 0000 803f 0000 803f 0000 803f 0000 803f
00000020: 0000 803f 0000 803f 0000 803f 0000 803f
00000030: 0000 803f 0000 803f 0000 803f 0000 803f
00000040: 0000 803f 0000 803f 0000 803f 0000 803f
00000050: 0000 803f 0000 803f 0000 803f 0000 803f
00000060: 0000 803f 0000 803f 0000 803f 0000 803f
00000070: 0000 803f 0000 803f 0000 803f 0000 803f
00000080: 0000 803f 0000 803f 0000 803f 0000 803f
00000090: 0000 803f 0000 803f 0000 803f 0000 803f
000000a0: 0000 803f 0000 803f 0000 803f 0000 803f
000000b0: 0000 803f 0000 803f 0000 803f 0000 803f
000000c0: 0000 803f 0000 803f 0000 803f 0000 803f
000000d0: 0000 803f 0000 803f 0000 803f 0000 803f
000000e0: 0000 803f 0000 803f 0000 803f 0000 803f
000000f0: 0000 803f 0000 803f 0000 803f 0000 803f
00000100: 0000 803f 0000 803f 0000 803f 0000 803f
00000110: 0000 803f 0000 803f 0000 803f 0000 803f
00000120: 0000 803f 0000 803f 0000 803f 0000 803f
00000130: 0000 803f 0000 803f 0000 803f 0000 803f
00000140: 0000 803f 0000 803f 0000 803f 0000 803f
00000150: 0000 803f 0000 803f 0000 803f 0000 803f
00000160: 0000 803f 0000 803f 0000 803f 0000 803f
00000170: 0000 803f 0000 803f 0000 803f 0000 803f
00000180: 0000 803f 0000 803f 0000 803f 0000 803f
00000190: 0000 803f 0000 803f 0000 803f 0000 803f
000001a0: 0000 803f 0000 803f 0000 803f 0000 803f
000001b0: 0000 803f 0000 803f 0000 803f 0000 803f
000001c0: 0000 803f 0000 803f 0000 803f 0000 803f
000001d0: 0000 803f 0000 803f 0000 803f 0000 803f
000001e0: 0000 803f 0000 803f 0000 803f 0000 803f
000001f0: 0000 803f 0000 803f 0000 803f 0000 803f
00000200: 0000 803f 0000 803f 0000 803f 0000 803f
00000210: 0000 803f 0000 803f 0000 803f 0000 803f
00000220: 0000 803f 0000 803f 0000 803f 0000 803f
00000230: 0000 803f 0000 803f 0000 803f 0000 803f
00000240: 0000 803f 0000 803f 0000 803f 0000 803f
00000250: 0000 803f 0000 803f 0000 803f 0000 803f
00000260: 0000 803f 0000 803f 0000 803f 0000 803f
00000270: 0000 803f 0000 803f 0000 803f 0000 803f
00000280: 0000 803f 0000 803f 0000 803f 0000 803f
00000290: 0000 803f 0000 803f 0000 803f 0000 803f
000002a0: 0000 803f 0000 803f 0000 803f 0000 803f
000002b0: 0000 803f 0000 803f 0000 803f 0000 803f
000002c0: 0000 803f 0000 803f 0000 803f 0000 803f
000002d0: 0000 803f 0000 803f 0000 803f 0000 803f
000002e0: 0000 803f 0000 803f 0000 803f 0000 803f
000002f0: 0000 803f 0000 803f 0000 803f 0000 803f
00000300: 0000 803f 0000 803f 0000 803f 0000 803f
00000310: 0000 803f 0000 803f 0000 803f 0000 803f
00000320: 0000 803f 0000 803f 0000 803f 0000 803f
00000330: 0000 803f 0000 803f 0000 803f 0000 803f
00000340: 0000 803f 0000 803f 0000 803f 0000 803f
00000350: 0000 803f 0000 803f 0000 803f 0000 803f
00000360: 0000 803f 0000 803f 0000 803f 0000 803f
00000370: 0000 803f 0000 803f 0000 803f 0000 803f
00000380: 0000 803f 0000 803f 0000 803f 0000 803f
00000390: 0000 803f 0000 803f 0000 803f 0000 803f
000003a0: 0000 803f 0000 803f 0000 803f 0000 803f
000003b0: 0000 803f 0000 803f 0000 803f 0000 803f
000003c0: 0000 803f 0000 803f 0000 803f 0000 803f
000003d0: 0000 803f 0000 803f 0000 803f 0000 803f
000003e0: 0000 803f 0000 803f

encoder.1.bias f4 [250]
0.0 0.0 0.0 0.0 0.0 0.0 0.0 0.0
0.0 0.0 0.0 0.0 0.0 0.0 0.0 0.0
0.0 0.0 0.0 0.0 0.0 0.0 0.0 0.0
0.0 0.0 0.0 0.0 0.0 0.0 0.0 0.0
0.0 0.0 0.0 0.0 0.0 0.0 0.0 0.0
0.0 0.0 0.0 0.0 0.0 0.0 0.0 0.0
0.0 0.0 0.0 0.0 0.0 0.0 0.0 0.0
0.0 0.0 0.0 0.0 0.0 0.0 0.0 0.0
0.0 0.0 0.0 0.0 0.0 0.0 0.0 0.0
0.0 0.0 0.0 0.0 0.0 0.0 0.0 0.0
0.0 0.0 0.0 0.0 0.0 0.0 0.0 0.0
0.0 0.0 0.0 0.0 0.0 0.0 0.0 0.0
0.0 0.0 0.0 0.0 0.0 0.0 0.0 0.0
0.0 0.0 0.0 0.0 0.0 0.0 0.0 0.0
0.0 0.0 0.0 0.0 0.0 0.0 0.0 0.0
0.0 0.0 0.0 0.0 0.0 0.0 0.0 0.0
0.0 0.0 0.0 0.0 0.0 0.0 0.0 0.0
0.0 0.0 0.0 0.0 0.0 0.0 0.0 0.0
0.0 0.0 0.0 0.0 0.0 0.0 0.0 0.0
0.0 0.0 0.0 0.0 0.0 0.0 0.0 0.0
0.0 0.0 0.0 0.0 0.0 0.0 0.0 0.0
0.0 0.0 0.0 0.0 0.0 0.0 0.0 0.0
0.0 0.0 0.0 0.0 0.0 0.0 0.0 0.0
0.0 0.0 0.0 0.0 0.0 0.0 0.0 0.0
0.0 0.0 0.0 0.0 0.0 0.0 0.0 0.0
0.0 0.0 0.0 0.0 0.0 0.0 0.0 0.0
0.0 0.0 0.0 0.0 0.0 0.0 0.0 0.0
0.0 0.0 0.0 0.0 0.0 0.0 0.0 0.0
0.0 0.0 0.0 0.0 0.0 0.0 0.0 0.0
0.0 0.0 0.0 0.0 0.0 0.0 0.0 0.0
0.0 0.0 0.0 0.0 0.0 0.0 0.0 0.0
0.0 0.0
00000000: 0000 0000 0000 0000 0000 0000 0000 0000
00000010: 0000 0000 0000 0000 0000 0000 0000 0000
00000020: 0000 0000 0000 0000 0000 0000 0000 0000
00000030: 0000 0000 0000 0000 0000 0000 0000 0000
00000040: 0000 0000 0000 0000 0000 0000 0000 0000
00000050: 0000 0000 0000 0000 0000 0000 0000 0000
00000060: 0000 0000 0000 0000 0000 0000 0000 0000
00000070: 0000 0000 0000 0000 0000 0000 0000 0000
00000080: 0000 0000 0000 0000 0000 0000 0000 0000
00000090: 0000 0000 0000 0000 0000 0000 0000 0000
000000a0: 0000 0000 0000 0000 0000 0000 0000 0000
000000b0: 0000 0000 0000 0000 0000 0000 0000 0000
000000c0: 0000 0000 0000 0000 0000 0000 0000 0000
000000d0: 0000 0000 0000 0000 0000 0000 0000 0000
000000e0: 0000 0000 0000 0000 0000 0000 0000 0000
000000f0: 0000 0000 0000 0000 0000 0000 0000 0000
00000100: 0000 0000 0000 0000 0000 0000 0000 0000
00000110: 0000 0000 0000 0000 0000 0000 0000 0000
00000120: 0000 0000 0000 0000 0000 0000 0000 0000
00000130: 0000 0000 0000 0000 0000 0000 0000 0000
00000140: 0000 0000 0000 0000 0000 0000 0000 0000
00000150: 0000 0000 0000 0000 0000 0000 0000 0000
00000160: 0000 0000 0000 0000 0000 0000 0000 0000
00000170: 0000 0000 0000 0000 0000 0000 0000 0000
00000180: 0000 0000 0000 0000 0000 0000 0000 0000
00000190: 0000 0000 0000 0000 0000 0000 0000 0000
000001a0: 0000 0000 0000 0000 0000 0000 0000 0000
000001b0: 0000 0000 0000 0000 0000 0000 0000 0000
000001c0: 0000 0000 0000 0000 0000 0000 0000 0000
000001d0: 0000 0000 0000 0000 0000 0000 0000 0000
000001e0: 0000 0000 0000 0000 0000 0000 0000 0000
000001f0: 0000 0000 0000 0000 0000 0000 0000 0000
00000200: 0000 0000 0000 0000 0000 0000 0000 0000
00000210: 0000 0000 0000 0000 0000 0000 0000 0000
00000220: 0000 0000 0000 0000 0000 0000 0000 0000
00000230: 0000 0000 0000 0000 0000 0000 0000 0000
00000240: 0000 0000 0000 0000 0000 0000 0000 0000
00000250: 0000 0000 0000 0000 0000 0000 0000 0000
00000260: 0000 0000 0000 0000 0000 0000 0000 0000
00000270: 0000 0000 0000 0000 0000 0000 0000 0000
00000280: 0000 0000 0000 0000 0000 0000 0000 0000
00000290: 0000 0000 0000 0000 0000 0000 0000 0000
000002a0: 0000 0000 0000 0000 0000 0000 0000 0000
000002b0: 0000 0000 0000 0000 0000 0000 0000 0000
000002c0: 0000 0000 0000 0000 0000 0000 0000 0000
000002d0: 0000 0000 0000 0000 0000 0000 0000 0000
000002e0: 0000 0000 0000 0000 0000 0000 0000 0000
000002f0: 0000 0000 0000 0000 0000 0000 0000 0000
00000300: 0000 0000 0000 0000 0000 0000 0000 0000
00000310: 0000 0000 0000 0000 0000 0000 0000 0000
00000320: 0000 0000 0000 0000 0000 0000 0000 0000
00000330: 0000 0000 0000 0000 0000 0000 0000 0000
00000340: 0000 0000 0000 0000 0000 0000 0000 0000
00000350: 0000 0000 0000 0000 0000 0000 0000 0000
00000360: 0000 0000 0000 0000 0000 0000 0000 0000
00000370: 0000 0000 0000 0000 0000 0000 0000 0000
00000380: 0000 0000 0000 0000 0000 0000 0000 0000
00000390: 0000 0000 0000 0000 0000 0000 0000 0000
000003a0: 0000 0000 0000 0000 0000 0000 0000 0000
000003b0: 0000 0000 0000 0000 0000 0000 0000 0000
000003c0: 0000 0000 0000 0000 0000 0000 0000 0000
000003d0: 0000 0000 0000 0000 0000 0000 0000 0000
000003e0: 0000 0000 0000 0000

encoder.1.running_mean f4 [250]
0.15719679 -0.36957884 0.11304243 0.12344127 0.29912233 -0.38510326 -0.013751818 -0.090857625
-0.19606915 0.6370114 0.028230682 0.9802293 0.34134084 0.11667519 0.12241952 0.2611172
0.3806706 0.030386731 -0.1071993 -0.32721296 -0.29653087 -0.027478745 -0.11816376 -0.46997106
0.0029747894 -0.26122135 -0.22437832 0.51807946 0.033196133 -0.4916823 0.15461208 -0.144022
-0.2894963 -0.049728584 0.22562046 0.60779345 -0.25481278 0.18754366 0.16820504 -0.23836634
0.3171783 0.11562677 0.38677812 0.511985 -0.30109575 -0.5361373 0.2085941 0.088782184
0.4089841 0.17662099 -0.32322103 -0.1016329 -0.57029593 0.5744287 0.17023914 0.1333705
0.065717794 0.35025755 -0.5000418 0.13493964 0.23268858 -0.13490853 -0.03411485 0.17910084
-0.4891933 -0.06988419 0.12530267 -0.17900029 0.09763685 0.11094791 -0.20717084 0.5829889
-0.25394416 -0.0140990345 0.0748162 -0.36115417 0.097092696 0.34075505 0.20285998 0.03586102
0.093889065 -0.32363805 0.08707204 -0.34887713 -0.21929045 0.59419876 -0.23843277 -0.019733697
0.3501149 0.051741626 -0.28508946 0.09145658 0.13975264 -0.24024858 -0.3846675 -0.2817307
0.13906738 0.13592237 0.23442785 -0.021020584 0.36810943 -0.40541837 -0.37186924 -0.2399451
-0.1103352 0.041133415 0.5041511 -0.114166275 0.044362955 -0.112050235 -0.14089912 0.24546655
-0.06232277 0.2704167 -0.35434595 0.54801524 -0.20479207 0.16835192 -0.32225186 -0.1529739
0.24010144 0.36069316 -0.35428643 -0.07038257 0.2827497 0.14373125 -0.009743554 0.40591374
0.07910409 0.097917005 -0.071294606 0.58594924 0.319065 -0.22574049 -0.50386363 0.1701908
-0.08403038 -0.10261407 -0.39895824 -0.18855998 0.079194576 -0.059930883 0.28308734 0.26549026
-0.48245937 -0.24304488 0.15164064 -0.013061239 -0.037564073 0.09524738 -0.7402936 -0.0047377334
-0.22116807 -0.15766603 0.12435264 0.011735593 -0.2704173 -0.35623267 0.25888756 0.18874224
0.00954408 0.030851811 0.020835334 -0.045940842 -0.06638019 -0.23171824 -0.6979816 -0.3431608
0.0037745205 0.19743016 -0.008240841 -0.14788125 0.020648593 0.068041235 -0.25795642 0.07627483
-0.09686179 0.22767062 0.023036093 0.11613378 -0.2639849 -0.22593087 0.3758299 -0.12787654
0.16181105 0.31610456 -0.00936977 0.0054233936 -0.39513138 -0.07155426 -0.20630042 0.19280891
-0.101472996 -0.056483686 -0.078393 0.19064802 -0.061483975 0.5201909 0.17507336 -0.3825581
-0.2983722 0.36519843 0.18586424 0.3419924 0.1508159 -0.3645676 -0.48227054 0.22737537
-0.02296444 -0.7637983 0.3755079 -0.21825431 0.64995956 0.38935927 -0.24658154 0.06899644
0.030732937 0.52061623 -0.093161695 0.06715146 -0.27811196 0.25947434 0.42597076 -0.44889504
-0.017688682 0.26345167 0.21863452 -0.16837597 0.5896137 0.022569457 0.24932812 0.016186124
0.011930844 0.51107836 -0.24810188 -0.5030234 -0.14741555 0.059854984 0.30521625 0.49971873
-0.035388697 0.3581327 -0.17414604 0.4058648 -0.42871445 -0.55351746 -0.370653 -0.014318505
0.07907985 -0.09453519
00000000: 32f8 203e 7039 bdbe ca82 e73d c7ce fc3d
00000010: 9026 993e 412c c5be 4e4f 61bc 9013 babd
00000020: 5ac6 48be 2e13 233f 0844 e73c 4ff0 7a3f
00000030: 3ac4 ae3e 67f3 ee3d 16b7 fa3d 27b1 853e
00000040: 42e7 c23e 98ed f83c 4e8b dbbd 7588 a7be
00000050: e5d2 97be 1b1b e1bc d7ff f1bd 0ca0 f0be
00000060: aff4 423b cebe 85be 6ec3 65be dba0 043f
00000070: abf8 073d c8bd fbbe a152 1e3e 817a 13be
00000080: dc38 94be 33b0 4bbd 0d09 673e 5a98 1b3f
00000090: d276 82be 720b 403e f13d 2c3e 4e16 74be
000000a0: 3265 a23e bacd ec3d c807 c63e 7311 033f
000000b0: 3929 9abe 4b40 09bf b199 553e 6fd3 b53d
000000c0: 5d66 d13e 22dc 343e 3a7d a5be e924 d0bd
000000d0: eafe 11bf c20d 133f 2b53 2e3e 4792 083e
000000e0: 0d97 863d f554 b33e bd02 00bf 9e2d 0a3e
000000f0: ea45 6e3e 7625 0abe 03bc 0bbd 3666 373e
00000100: 8b77 fabe 711f 8fbd 584f 003e da4b 37be
00000110: d4f5 c73d a838 e33d 9824 54be c33e 153f
00000120: f804 82be a3ff 66bc 3c39 993d 33e9 b8be
00000130: 89d8 c63d 7277 ae3e 87ba 4f3e 01e3 123d
00000140: e948 c03d e3b3 a5be d352 b23d 06a0 b2be
00000150: ad8d 60be 691d 183f b827 74be 90a8 a1bc
00000160: 4342 b33e 07ef 533d 3ff7 91be 964d bb3d
00000170: 511b 0f3e b903 76be 23f3 c4be 023f 90be
00000180: ae67 0e3e 3c2f 0b3e db0d 703e 5c33 acbc
00000190: d778 bc3e ff92 cfbe a565 bebe 2bb4 75be
000001a0: 6cf7 e1bd 837b 283d 0c10 013f 02d0 e9bd
000001b0: eeb5 353d 987a e5bd dc47 10be 955b 7b3e
000001c0: 2946 7fbd 0f74 8a3e d56c b5be ba4a 0c3f
000001d0: 03b5 51be 7264 2c3e 32fe a4be 31a5 1cbe
000001e0: 27dd 753e c6ac b83e 0865 b5be bd24 90bd
000001f0: 92c4 903e 492e 133e 6da3 1fbc edd3 cf3e
00000200: 5301 a23d b688 c83d e802 92bd c500 163f
00000210: 7d5c a33e 8428 67be 35fd 00bf 7f46 2e3e
00000220: 1f18 acbd 5327 d2bd 4144 ccbe de15 41be
00000230: c430 a23d 167a 75bd d3f0 903e 57ee 873e
00000240: ea04 f7be c2e0 78be af47 1b3e cffe 55bc
00000250: c9dc 19bd 0f11 c33d e283 3dbf fd3e 9bbb
00000260: e279 62be 3473 21be 99ac fe3d a546 403c
00000270: 2374 8abe 2164 b6be e98c 843e a545 413e
00000280: c65e 1c3c f0bc fc3c ddae aa3c 772c 3cbd
00000290: 56f2 87bd 8c47 6dbe ecae 32bf c6b2 afbe
000002a0: f25d 773b 222b 4a3e 9804 07bc 2f6e 17be
000002b0: 3d27 a93c 3459 8b3d dd12 84be fa35 9c3d
000002c0: 795f c6bd 7d22 693e 30b6 bc3c 8cd7 ed3d
000002d0: 0729 87be 6c5a 67be c76c c03e 11f2 02be
000002e0: ccb1 253e 75d8 a13e aa83 19bc b9b6 b13b
000002f0: a94e cabe 0a8b 92bd 6b40 53be b36f 453e
00000300: 13d1 cfbd 705b 67bd 828c a0bd 3c39 433e
00000310: 9fd6 7bbd 3b2b 053f 6e46 333e a8de c3be
00000320: 3ec4 98be 4afb ba3e 3253 3e3e a119 af3e
00000330: 7c6f 1a3e 9ba8 babe 2aec f6be 17d5 683e
00000340: ec1f bcbc 4988 43bf 9242 c03e 0f7e 5fbe
00000350: c063 263f 195a c73e df7f 7cbe 014e 8d3d
00000360: a4c3 fb3c 1b47 053f 8fcb bebd b486 893d
00000370: b164 8ebe d2d9 843e d718 da3e 92d5 e5be
00000380: dbe7 90bc 23e3 863e bae1 5f3e c06a 2cbe
00000390: ecf0 163f 95e3 b83c df4f 7f3e c398 843c
000003a0: 9679 433c 08d6 023f 6b0e 7ebe 24c6 00bf
000003b0: 1af4 16be 802a 753d 4e45 9c3e 22db ff3e
000003c0: bdf3 10bd 2b5d b73e 5753 32be 83cd cf3e
000003d0: 7680 dbbe 52b3 0dbf 3bc6 bdbe 2a98 6abc
000003e0: 9ef4 a13d aa9b c1bd

encoder.1.running_var f4 [250]
0.04121192 0.037955154 0.027689844 0.021468027 0.04307731 0.037548773 0.13232768 0.028824553
0.031509154 0.060019124 0.051729925 0.15680674 0.015877472 0.025319535 0.02867619 0.010820901
0.015611104 0.15457727 0.039760757 0.032500386 0.036607534 0.021332204 0.021792075 0.04066412
0.026815452 0.050506156 0.014231709 0.027131435 0.037576783 0.025266733 0.027793791 0.013771017
0.11516352 0.040397916 0.019301785 0.11479014 0.017088825 0.02597618 0.016822701 0.039507788
0.027616717 0.0106273675 0.10277197 0.016273756 0.03264135 0.05710477 0.12712967 0.025315337
0.04252361 0.0754467 0.025738304 0.13061376 0.034401864 0.11065363 0.06088658 0.030669902
0.040337034 0.01602518 0.11120909 0.022525879 0.021312354 0.04317199 0.017053973 0.11116534
0.039460987 0.023473894 0.029864186 0.02686457 0.028957048 0.048772547 0.027392494 0.017271953
0.068510145 0.014083425 0.045848712 0.052788313 0.01605893 0.18767503 0.042392384 0.08896508
0.049042765 0.09164306 0.09357378 0.10743025 0.029803215 0.22590028 0.031600725 0.07738259
0.045456007 0.0054950807 0.03977468 0.039193586 0.015945267 0.017145947 0.0521673 0.06278487
0.024023278 0.029277079 0.04128166 0.018938478 0.028660437 0.06704184 0.02759955 0.021235239
0.023814978 0.08493272 0.023386732 0.054876965 0.020612746 0.016931836 0.02411086 0.03180582
0.08479103 0.04395545 0.02264093 0.088996984 0.035248563 0.015851837 0.04160705 0.24521376
0.094732374 0.10690578 0.09600959 0.044248864 0.011079335 0.020631105 0.06701148 0.01838383
0.04539929 0.074494965 0.064442486 0.048348427 0.02414185 0.012536808 0.024175093 0.061133675
0.037304252 0.041326128 0.015063955 0.03618816 0.024956917 0.023871236 0.034639988 0.044676125
0.021634348 0.18372557 0.027435767 0.015006781 0.024245776 0.07891102 0.0720021 0.009026016
0.05404087 0.037505668 0.034159977 0.030161805 0.014035711 0.04481102 0.02811529 0.029056856
0.1610091 0.097374216 0.027963907 0.08892608 0.026480453 0.045666836 0.08292394 0.026047584
0.03470651 0.0504672 0.040442787 0.04436506 0.06467851 0.0613916 0.1770006 0.07018146
0.033384267 0.0156207075 0.046150383 0.104532585 0.041024342 0.055622164 0.028872257 0.03106578
0.067012414 0.021394745 0.09434014 0.031568654 0.0133634955 0.015491063 0.16294791 0.017213285
0.008355238 0.01937503 0.040422 0.071711235 0.16870345 0.040519014 0.01790714 0.08864566
0.010140955 0.093937546 0.03193962 0.0146034155 0.022203656 0.0946701 0.086948484 0.011564921
0.013735211 0.118917644 0.026982212 0.08948687 0.18813123 0.031413 0.012601885 0.027038492
0.018752802 0.0253564 0.09659753 0.04762282 0.045475874 0.060589466 0.03410361 0.11211162
0.026201002 0.020414641 0.08798932 0.039643254 0.038637616 0.0862906 0.027478669 0.030171147
0.106711484 0.06656616 0.05755697 0.021288114 0.02665213 0.03523127 0.027547222 0.027727922
0.1743206 0.041949015 0.16260287 0.10728935 0.09669986 0.015281637 0.03033138 0.09009009
0.08217858 0.029461019
00000000: d5cd 283d dd76 1b3d d0d5 e23c b7dd af3c
00000010: d571 303d becc 193d e880 073e 7821 ec3c
00000020: be0f 013d 9dd6 753d c2e2 533d f291 203e
00000030: 7911 823c ea6a cf3c 54ea ea3c 264a 313c
00000040: b7c5 7f3c 8149 1e3e 2ddc 223d 201f 053d
00000050: c8f1 153d e0c0 ae3c 4b85 b23c 6c8f 263d
00000060: 14ac db3c 8bdf 4e3d 1d2c 693c be42 de3c
00000070: 1dea 193d 2efc ce3c ceaf e33c d59f 613c
00000080: dada eb3d 4978 253d c71e 9e3c 1817 eb3d
00000090: ddfd 8b3c ffcb d43c c3cf 893c ebd2 213d
000000a0: 743c e23c 691e 2e3c 1c7a d23d 8a50 853c
000000b0: f0b2 053d b1e6 693d 482e 023e 1c62 cf3c
000000c0: 3d2d 2e3d cd83 9a3d 23d9 d23c 9dbf 053e
000000d0: f8e8 0c3d 5f9e e23d 3564 793d 723f fb3c
000000e0: 7238 253d 3d47 833c 97c1 e33d 3188 b83c
000000f0: 3f97 ae3c 1dd5 303d c6b4 8b3c a7aa e33d
00000100: d8a1 213d 534c c03c bda5 f43c 1613 dc3c
00000110: 5537 ed3c b9c5 473d 3966 e03c e97d 8d3c
00000120: 0c4f 8c3d 2abe 663c dccb 3b3d 8f38 583d
00000130: 048e 833c e22d 403e a3a3 2d3d 5333 b63d
00000140: 11e1 483d 5baf bb3d 9ca3 bf3d 6404 dc3d
00000150: df25 f43c 6752 673e c36f 013d c37a 9e3d
00000160: 1430 3a3d 1410 b43b c6ea 223d 7489 203d
00000170: a69f 823c a875 8c3c 61ad 553d 5b95 803d
00000180: 77cc c43c 7cd6 ef3c f516 293d de24 9b3c
00000190: 4bc9 ea3c 3b4d 893d 7418 e23c 86f5 ad3c
000001a0: a117 c33c 35f1 ad3d 8895 bf3c abc6 603d
000001b0: 10dc a83c a2b4 8a3c 2384 c53c d246 023d
000001c0: eba6 ad3d a10a 343d 7979 b93c 0d44 b63d
000001d0: cc60 103d b6db 813c 276c 2a3d 5119 7b3e
000001e0: 0c03 c23d 6bf1 da3d ada0 c43d 4c3e 353d
000001f0: 1986 353c 9002 a93c 513d 893d b099 963c
00000200: 9bf4 393d d190 983d 6cfa 833d 0009 463d
00000210: 21c5 c53c 2f67 4d3c d80a c63c 4e67 7a3d
00000220: 58cc 183d 9645 293d cfce 763c 093a 143d
00000230: 7372 cc3c 9c8d c33c a9e2 0d3d 50fe 363d
00000240: 843a b13c 8e22 3c3e f9c0 e03c 00df 753c
00000250: 149f c63c 1a9c a13d d675 933d dbe1 133c
00000260: f659 5d3d 8b9f 193d 55eb 0b3d e415 f73c
00000270: 0af6 653c c38b 373d 0952 e63c a508 ee3c
00000280: 92df 243e 226c c73d 9014 e53c e01e b63d
00000290: 89ed d83c 260d 3b3d 07d4 a93d be61 d53c
000002a0: 6a28 0e3d b2b6 4e3d 56a7 253d 23b8 353d
000002b0: 2b76 843d c275 7b3d a53f 353e 4cbb 8f3d
000002c0: f1bd 083d ffed 7f3c 2f08 3d3d 2e15 d63d
000002d0: 2409 283d 11d4 633d 8385 ec3c aa7d fe3c
000002e0: ce3d 893d 0844 af3c 6735 c13d 224e 013d
000002f0: 90f2 5a3c 3ace 7d3c d1db 263e e002 8d3c
00000300: 68e4 083c 62b8 9e3c 8a91 253d 57dd 923d
00000310: 99c0 2c3e 44f7 253d ffb1 923c db8b b53d
00000320: 4026 263c 5462 c03d 1ed3 023d 2a43 6f3c
00000330: 71e4 b53c 66e2 c13d 0c12 b23d cb7a 3d3c
00000340: a709 613c 188b f33d cd09 dd3c e444 b73d
00000350: 79a5 403e ebaa 003d 2378 4e3c d47f dd3c
00000360: 7a9f 993c 3ab8 cf3c edd4 c53d 2510 433d
00000370: e944 3a3d a92c 783d 3ab0 0b3d c79a e53d
00000380: 7ca3 d63c 9b3c a73c bf33 b43d f760 223d
00000390: 7a42 1e3d 20b9 b03d f21a e13c 7b29 f73c
000003a0: 8d8b da3d d753 883d dbc0 6b3d 6964 ae3c
000003b0: 9155 da3c aa4e 103d b6aa e13c ab25 e33c
000003c0: 1981 323e bbd2 2b3d 5e81 263e 85ba db3d
000003d0: 940a c63d d55f 7a3c 8479 f83c 2781 b83d
000003e0: 3e4d a83d 3c58 f13c

encoder.4.weight f4 [150, 250]
0.02372576 0.04398639 0.061600372 -0.048700225 0.051454954 0.027975578 -0.007930559 0.0028291135
0.05471441 0.05559407 0.028730836 0.041215 0.05438968 -0.015821196 -0.0027921626 -0.023597542
0.04286636 -0.055906747 -0.05080892 -0.014719101 -0.027560946 -0.020061063 0.009209296 0.022226892
0.056275893 -0.058122225 0.048313126 0.041100617 0.03383232 -0.046958618 -0.04231429 0.046294972
-0.053288512 -0.05642746 -0.050643824 -0.014658469 -0.052542754 0.03247265 0.012950955 -0.01884439
-0.0420801 -0.015819749 0.058056872 -0.010058593 -0.053506613 0.051797885 -0.004788151 -0.04860836
0.014163157 -0.053595096 -0.061235026 -0.0017698875 0.055221297 0.015113331 -0.02545424 -0.00513186
0.0076462687 0.06013202 0.03179977 0.015169644 -0.018956728 0.050351765 -0.041855898 0.00044212883
0.041458048 -0.062123775 -0.054029167 -0.01653758 -0.005754724 0.04324718 0.017853292 0.0542186
-0.02853229 0.039696373 0.011140453 0.0013102823 0.016818115 0.042772636 -0.0110280095 -0.020246254
-0.040057875 0.043434344 0.042177938 0.001628176 0.0063221515 -0.05463172 0.060813177 0.051523753
-0.040805556 -0.06191375 0.044047173 0.06313154 -0.039402727 -0.010047774 0.061082058 0.019322226
-0.03808964 -0.008057546 -0.05294261 -0.045438588 -0.02109402 0.0013765239 0.059955865 -0.014159704
-0.017712183 -0.014869868 -0.040709063 0.05324385 0.05066724 0.05102555 0.018463805 -0.053268608
0.023744887 -0.04748788 -0.0017836847 0.02842361 0.05379946 -0.002269746 -0.03911624 -0.03791235
0.053057376 -0.05664704 0.043226242 -0.035603624 -0.027045615 0.02981639 -0.06163325 -0.0058006095
0.0028691178 0.046933264 -0.02390094 0.04646246 0.04019267 -0.013567253 0.0015100176 -0.027315166
0.04394983 -0.04771475 -0.03840549 -0.05647458 0.058739662 0.062055446 -0.0058116172 0.018225001
-0.06125331 -0.05536601 0.055979744 -0.046182267 0.041147415 -0.0040883985 0.010833363 -0.026257178
-0.022249775 0.061556213 0.02905896 -0.014740905 0.06273989 0.055091303 -0.03328089 -0.053699292
-0.046789035 0.02249176 0.050022796 0.06315712 -0.042248826 -0.011282511 0.032725293 -0.008976885
0.04529978 -0.023647688 -0.020921148 0.01251436 0.045803964 0.060615107 0.0062078685 0.045069616
0.010672207 0.050403774 -0.01682383 0.053704932 0.036602836 0.061441153 -0.045078706 0.056543212
0.04981373 0.056076568 -0.02156694 -0.03242517 0.03634998 0.02147263 -0.041240957 -0.060768943
-0.021210672 0.05457954 0.0343012 -0.057908174 -0.04471584 -0.05998058 -0.025505463 -0.00081092137
0.014372353 -0.054018613 -0.026242642 0.045705274 -0.008198768 -0.026579821 0.0497359 0.029637093
0.01982139 0.034121267 -0.0088217 -0.042154305 -0.0507818 0.024255512 0.050911058 -0.05907353
-0.017421076 0.005049031 -0.036743734 0.016818019 -0.03444743 0.018936643 -0.006471312 0.061862648
0.030694026 0.015928203 -0.06242807 -0.025248412 -0.00882734 -0.024136765 0.017426746 -0.002052263
-0.0117194075 -0.062250342 -0.0073148943 0.03659118 -0.048803013 -0.029544545 0.052509025 -0.031278446
-0.019704295 -0.057284508 -0.04887373 -0.04905823 0.012660618 0.0014075564 -0.058137454 -0.033193562
-0.05844297 -0.060610246 -0.022062223 0.047437027 -0.0035652812 -0.0047838986 -0.027081888 0.05730947
00000000: 865c c23c 132b 343d ac50 7c3d e379 47bd
00000010: 6ec2 523d 0a2d e53c 2def 01bc a668 393b
00000020: 381c 603d 9cb6 633d ee5c eb3c 0fd1 283d
00000030: b7c7 5e3d 749b 81bc b7fc 36bb a24f c1bc
00000040: a394 2f3d 79fe 64bd 041d 50bd 6228 71bc
00000050: 7ec7 e1bc 1957 a4bc 96e2 163c 2c15 b63c
00000060: 8d81 663d 9211 6ebd fce3 453d 1f59 283d
00000070: c293 0a3d ae57 40bd c051 2dbd cc9f 3d3d
00000080: 0e45 5abd 7b20 67bd e66f 4fbd 132a 70bc
00000090: 1237 57bd 0b02 053d 3e30 543c 8d5f 9abc
000000a0: 2f5c 2cbd 6b98 81bc 0bcd 6d3d cccc 24bc
000000b0: c029 5bbd 052a 543d ece5 9cbb 8f19 47bd
000000c0: 960c 683c 8886 5bbd 94d1 7abd 92fb e7ba
000000d0: ba2f 623d e89d 773c 6985 d0bc 2929 a8bb
000000e0: 8d8d fa3b fe4c 763d 7a40 023d 198a 783c
000000f0: 244b 9bbc a73d 4e3d 1771 2bbd 87cd e739
00000100: eacf 293d 8075 7ebd b04d 5dbd d279 87bc
00000110: 2092 bcbb f423 313d 1141 923c 5314 5e3d
00000120: 8dbc e9bc aa98 223d 7286 363c c7bd ab3a
00000130: 25c6 893c 5c32 2f3d d3ae 34bc 79db a5bc
00000140: ba13 24bd 36e8 313d c6c2 2c3d 8568 d53a
00000150: 0d2a cf3b 83c5 5fbd 3d17 793d 920a 533d
00000160: ba23 27bd 4699 7dbd cf6a 343d 1c4b 813d
00000170: c164 21bd 6b9f 24bc 2e31 7a3d a549 9e3c
00000180: e203 1cbd cc03 04bc 5ada 58bd d01d 3abd
00000190: 5ecd acbc 7a6c b43a 4894 753d 1afe 67bc
000001a0: 2419 91bc bfa0 73bc 8cbe 26bd 3916 5a3d
000001b0: 7488 4f3d 2b00 513d 6841 973c 2f30 5abd
000001c0: a384 c23c a782 42bd 87ca e9ba a1d8 e83c
000001d0: d35c 5c3d 05c0 14bb 5a38 20bd fb49 1bbd
000001e0: b152 593d ba06 68bd 000e 313d 1bd5 11bd
000001f0: c48e ddbc 8041 f43c 2673 7cbd 0a13 bebb
00000200: cf07 3c3b 183d 403d e7cb c3bc 6c4f 3e3d
00000210: 12a1 243d 2f49 5ebc c8eb c53a 0ec4 dfbc
00000220: bd04 343d 8b70 43bd 134f 1dbd e451 67bd
00000230: 0099 703d da2d 7e3d 616f bebb 994c 953c
00000240: c0e4 7abd 78c7 62bd 044b 653d 9e29 3dbd
00000250: 318a 283d f9f7 85bb 6b7e 313c 4b19 d7bc
00000260: 2945 b6bc 5e22 7c3d 0e0d ee3c d683 71bc
00000270: c57d 803d 6ba7 613d 8b51 08bd caf3 5bbd
00000280: dca5 3fbd a440 b83c b4e4 4c3d 8558 813d
00000290: 1b0d 2dbd 48da 38bc f50a 063d c913 13bc
000002a0: 438c 393d ccb8 c1bc d462 abbc 0809 4d3c
000002b0: f09c 3b3d 8c47 783d 606b cb3b eb9a 383d
000002c0: 7bda 2e3c 3074 4e3d 21d2 89bc b4f9 5b3d
000002d0: dbec 153d b8a9 7b3d 73a4 38bd db99 673d
000002e0: 7b09 4c3d 8bb0 653d 27ad b0bc 41d0 04bd
000002f0: b7e3 143d 5ee7 af3c 47ec 28bd dbe8 78bd
00000300: 01c2 adbc cc8e 5f3d 6a7f 0c3d 1f31 6dbd
00000310: f527 37bd 32ae 75bd d5f0 d0bc 0394 54ba
00000320: 057a 6b3c 9f42 5dbd cffa d6bc 7435 3b3d
00000330: 2054 06bc edbd d9bc dfb7 4b3d 7dc9 f23c
00000340: 7860 a23c bec2 0b3d e488 10bc fea9 2cbd
00000350: 9400 50bd 7fb3 c63c 1d88 503d 16f7 71bd
00000360: a5b6 8ebc 5872 a53b 9980 16bd f1c5 893c
00000370: c018 0dbd 0521 9b3c 4d0d d4bb b063 7d3d
00000380: 0a72 fb3c dd7b 823c 93b4 7fbd c2d5 cebc
00000390: 8ca0 10bc 77ba c5bc 89c2 8e3c 427f 06bb
000003a0: c202 40bc 37fa 7ebd c8b1 efbb a2e0 153d
000003b0: abe5 47bd 6707 f2bc b413 573d d41d 00bd
000003c0: e76a a1bc 29a3 6abd d22f 48bd 48f1 48bd
000003d0: 7b6e 4f3c c17d b83a 8a21 6ebd f9f5 07bd
000003e0: e561 6fbd 7342 78bd d6bb b4bc 544d 423d
000003f0: 7ea7 69bb 40c2 9cbb d6da ddbc 56bd 6a3d

encoder.4.bias f4 [150]
0.029074784 -0.01722511 -0.015323011 -0.0031755213 0.040928207 -0.05827306 0.0403666 0.029947862
-0.05142599 0.016704142 -0.03643939 -0.0016465873 0.014245427 -0.035495907 0.052362405 -0.05698098
-0.03478319 0.026673121 0.026785776 0.032461155 0.0058854735 -0.014509534 0.038640555 0.03627375
0.05882019 -0.029205972 0.036334295 -0.037150834 -0.026361147 0.007242508 -0.040196367 0.027418707
-0.0036963394 -0.019864041 0.04520688 0.023705222 -0.018368546 0.016661001 -0.015432862 0.04003424
0.032229587 0.0282712 -0.048902735 -0.01578319 -0.01689296 0.037230194 0.053648513 -0.04770746
-0.014823696 0.044170838 0.0055001774 -0.020206597 -0.0057114856 -0.037954945 0.048094228 0.036747217
0.014847589 0.0529493 -0.005533871 -0.04172957 0.061883222 -0.05508671 0.031158669 -0.017085284
0.017911864 0.024062984 -0.020300794 0.05346961 0.0042051924 -0.04176368 -0.033402033 -0.050667007
0.033586357 0.020661777 0.05703573 0.06085152 -0.016093869 0.05053594 -0.04266519 0.047498807
-0.016090695 -0.034021188 0.0052614026 -0.058105692 -0.023189953 0.019091737 0.034588963 -0.011429998
-0.061701372 -0.03922386 -0.048697412 0.014202422 -0.009471593 0.02281521 -0.02123991 -0.017338421
-0.03971298 -0.022124408 -0.06324173 0.04958412 0.01975328 0.062375173 0.036349464 0.06115899
0.048988994 0.016387893 0.020810492 -0.061743125 0.037609965 -0.050558545 -0.05430285 -0.0054911827
-0.036955547 0.028084885 0.004228241 0.042102303 0.051098663 -0.03778898 0.019558331 0.025936736
-0.029610163 -0.029593462 0.042689182 0.0470624 -0.039889835 0.007330456 -0.016939577 -0.018081352
0.044632122 -0.061480403 0.046270348 -0.05527593 0.011347697 0.021713652 -0.056798786 -0.04661469
-0.006155816 0.042720772 0.051734388 0.045506842 -0.055355236 0.021726348 -0.06224685 0.025253305
-0.035932865 -0.021029182 -0.0043709627 -0.011683535 0.051974077 0.0066381
00000000: 3e2e ee3c ad1b 8dbc 5e0d 7bbc 681c 50bb
00000010: 56a4 273d bbaf 6ebd 7357 253d 3855 f53c
00000020: 0fa4 52bd 20d7 883c 7841 15bd 4dd2 d7ba
00000030: a765 693c 2864 11bd f679 563d e364 69bd
00000040: d178 0ebd 9781 da3c d86d db3c fdf5 043d
00000050: eeda c03b 66b9 6dbc 8f45 1e3d c993 143d
00000060: 71ed 703d 5d41 efbc 45d3 143d 792b 18bd
00000070: 55f3 d7bc 9052 ed3b f2a4 24bd 329d e03c
00000080: 493e 72bb eab9 a2bc d92a 393d 7431 c23c
00000090: a279 96bc a77c 883c 1dda 7cbc f1fa 233d
000000a0: 2c03 043d 0199 e73c 3c4e 48bd c04b 81bc
000000b0: 1b63 8abc b07e 183d 8bbe 5b3d e668 43bd
000000c0: 16df 72bc 7bec 343d d53a b43b 4e88 a5bc
000000d0: 6a27 bbbb a576 1bbd 74fe 443d 4084 163d
000000e0: 4d43 733c 5de1 583d 7955 b5bb a0ec 2abd
000000f0: 4379 7d3d 9aa2 61bd 7740 ff3c 70f6 8bbc
00000100: e7bb 923c bc1f c53c da4d a6bc f302 5b3d
00000110: b6cb 893b 6410 2bbd 92d0 08bd 3588 4fbd
00000120: d991 093d e342 a93c 4c9e 693d 723f 793d
00000130: 4ad7 83bc c6fe 4e3d b2c1 2ebd 1c8e 423d
00000140: a2d0 83bc cd59 0bbd d867 ac3b 3c00 6ebd
00000150: dbf8 bdbc 4666 9c3c 28ad 0d3d e344 3bbc
00000160: 94ba 7cbd 33a9 20bd f076 47bd 47b1 683c
00000170: be2e 1bbc f7e6 ba3c 52ff adbc 4e09 8ebc
00000180: 14aa 22bd 3f3e b5bc e184 81bd b818 4b3d
00000190: a1d1 a13c 1c7d 7f3d 2de3 143d d981 7a3d
000001a0: afa8 483d e73f 863c c47a aa3c 5ce6 7cbd
000001b0: e80c 1a3d 7a16 4fbd aa6c 5ebd 61ef b3bb
000001c0: b35e 17bd 4612 e63c 0e8d 8a3b 7773 2c3d
000001d0: d54c 513d 9ec8 1abd cb38 a03c 4779 d43c
000001e0: 0391 f2bc fd6d f2bc dada 2e3d 81c4 403d
000001f0: 8663 23bd 5234 f03b dec4 8abc 581f 94bc
00000200: 2cd0 363d e0d2 7bbd fa85 3d3d 0369 62bd
00000210: b1eb 393c d4e0 b13c d8a5 68bd 0cef 3ebd
00000220: bab6 c9bb fafb 2e3d 70e7 533d 6265 3a3d
00000230: 2cbc 62bd 74fb b13c 8ef6 7ebd 05e0 ce3c
00000240: 572e 13bd 6445 acbc 4b3a 8fbb 4c6c 3fbc
00000250: c5e2 543d 6b84 d93b

encoder.5.weight f4 [150]
1.0 1.0 1.0 1.0 1.0 1.0 1.0 1.0
1.0 1.0 1.0 1.0 1.0 1.0 1.0 1.0
1.0 1.0 1.0 1.0 1.0 1.0 1.0 1.0
1.0 1.0 1.0 1.0 1.0 1.0 1.0 1.0
1.0 1.0 1.0 1.0 1.0 1.0 1.0 1.0
1.0 1.0 1.0 1.0 1.0 1.0 1.0 1.0
1.0 1.0 1.0 1.0 1.0 1.0 1.0 1.0
1.0 1.0 1.0 1.0 1.0 1.0 1.0 1.0
1.0 1.0 1.0 1.0 1.0 1.0 1.0 1.0
1.0 1.0 1.0 1.0 1.0 1.0 1.0 1.0
1.0 1.0 1.0 1.0 1.0 1.0 1.0 1.0
1.0 1.0 1.0 1.0 1.0 1.0 1.0 1.0
1.0 1.0 1.0 1.0 1.0 1.0 1.0 1.0
1.0 1.0 1.0 1.0 1.0 1.0 1.0 1.0
1.0 1.0 1.0 1.0 1.0 1.0 1.0 1.0
1.0 1.0 1.0 1.0 1.0 1.0 1.0 1.0
1.0 1.0 1.0 1.0 1.0 1.0 1.0 1.0
1.0 1.0 1.0 1.0 1.0 1.0 1.0 1.0
1.0 1.0 1.0 1.0 1.0 1.0
00000000: 0000 803f 0000 803f 0000 803f 0000 803f
00000010: 0000 803f 0000 803f 0000 803f 0000 803f
00000020: 0000 803f 0000 803f 0000 803f 0000 803f
00000030: 0000 803f 0000 803f 0000 803f 0000 803f
00000040: 0000 803f 0000 803f 0000 803f 0000 803f
00000050: 0000 803f 0000 803f 0000 803f 0000 803f
00000060: 0000 803f 0000 803f 0000 803f 0000 803f
00000070: 0000 803f 0000 803f 0000 803f 0000 803f
00000080: 0000 803f 0000 803f 0000 803f 0000 803f
00000090: 0000 803f 0000 803f 0000 803f 0000 803f
000000a0: 0000 803f 0000 803f 0000 803f 0000 803f
000000b0: 0000 803f 0000 803f 0000 803f 0000 803f
000000c0: 0000 803f 0000 803f 0000 803f 0000 803f
000000d0: 0000 803f 0000 803f 0000 803f 0000 803f
000000e0: 0000 803f 0000 803f 0000 803f 0000 803f
000000f0: 0000 803f 0000 803f 0000 803f 0000 803f
00000100: 0000 803f 0000 803f 0000 803f 0000 803f
00000110: 0000 803f 0000 803f 0000 803f 0000 803f
00000120: 0000 803f 0000 803f 0000 803f 0000 803f
00000130: 0000 803f 0000 803f 0000 803f 0000 803f
00000140: 0000 803f 0000 803f 0000 803f 0000 803f
00000150: 0000 803f 0000 803f 0000 803f 0000 803f
00000160: 0000 803f 0000 803f 0000 803f 0000 803f
00000170: 0000 803f 0000 803f 0000 803f 0000 803f
00000180: 0000 803f 0000 803f 0000 803f 0000 803f
00000190: 0000 803f 0000 803f 0000 803f 0000 803f
000001a0: 0000 803f 0000 803f 0000 803f 0000 803f
000001b0: 0000 803f 0000 803f 0000 803f 0000 803f
000001c0: 0000 803f 0000 803f 0000 803f 0000 803f
000001d0: 0000 803f 0000 803f 0000 803f 0000 803f
000001e0: 0000 803f 0000 803f 0000 803f 0000 803f
000001f0: 0000 803f 0000 803f 0000 803f 0000 803f
00000200: 0000 803f 0000 803f 0000 803f 0000 803f
00000210: 0000 803f 0000 803f 0000 803f 0000 803f
00000220: 0000 803f 0000 803f 0000 803f 0000 803f
00000230: 0000 803f 0000 803f 0000 803f 0000 803f
00000240: 0000 803f 0000 803f 0000 803f 0000 803f
00000250: 0000 803f 0000 803f

encoder.5.bias f4 [150]
0.0 0.0 0.0 0.0 0.0 0.0 0.0 0.0
0.0 0.0 0.0 0.0 0.0 0.0 0.0 0.0
0.0 0.0 0.0 0.0 0.0 0.0 0.0 0.0
0.0 0.0 0.0 0.0 0.0 0.0 0.0 0.0
0.0 0.0 0.0 0.0 0.0 0.0 0.0 0.0
0.0 0.0 0.0 0.0 0.0 0.0 0.0 0.0
0.0 0.0 0.0 0.0 0.0 0.0 0.0 0.0
0.0 0.0 0.0 0.0 0.0 0.0 0.0 0.0
0.0 0.0 0.0 0.0 0.0 0.0 0.0 0.0
0.0 0.0 0.0 0.0 0.0 0.0 0.0 0.0
0.0 0.0 0.0 0.0 0.0 0.0 0.0 0.0
0.0 0.0 0.0 0.0 0.0 0.0 0.0 0.0
0.0 0.0 0.0 0.0 0.0 0.0 0.0 0.0
0.0 0.0 0.0 0.0 0.0 0.0 0.0 0.0
0.0 0.0 0.0 0.0 0.0 0.0 0.0 0.0
0.0 0.0 0.0 0.0 0.0 0.0 0.0 0.0
0.0 0.0 0.0 0.0 0.0 0.0 0.0 0.0
0.0 0.0 0.0 0.0 0.0 0.0 0.0 0.0
0.0 0.0 0.0 0.0 0.0 0.0
00000000: 0000 0000 0000 0000 0000 0000 0000 0000
00000010: 0000 0000 0000 0000 0000 0000 0000 0000
00000020: 0000 0000 0000 0000 0000 0000 0000 0000
00000030: 0000 0000 0000 0000 0000 0000 0000 0000
00000040: 0000 0000 0000 0000 0000 0000 0000 0000
00000050: 0000 0000 0000 0000 0000 0000 0000 0000
00000060: 0000 0000 0000 0000 0000 0000 0000 0000
00000070: 0000 0000 0000 0000 0000 0000 0000 0000
00000080: 0000 0000 0000 0000 0000 0000 0000 0000
00000090: 0000 0000 0000 0000 0000 0000 0000 0000
000000a0: 0000 0000 0000 0000 0000 0000 0000 0000
000000b0: 0000 0000 0000 0000 0000 0000 0000 0000
000000c0: 0000 0000 0000 0000 0000 0000 0000 0000
000000d0: 0000 0000 0000 0000 0000 0000 0000 0000
000000e0: 0000 0000 0000 0000 0000 0000 0000 0000
000000f0: 0000 0000 0000 0000 0000 0000 0000 0000
00000100: 0000 0000 0000 0000 0000 0000 0000 0000
00000110: 0000 0000 0000 0000 0000 0000 0000 0000
00000120: 0000 0000 0000 0000 0000 0000 0000 0000
00000130: 0000 0000 0000 0000 0000 0000 0000 0000
00000140: 0000 0000 0000 0000 0000 0000 0000 0000
00000150: 0000 0000 0000 0000 0000 0000 0000 0000
00000160: 0000 0000 0000 0000 0000 0000 0000 0000
00000170: 0000 0000 0000 0000 0000 0000 0000 0000
00000180: 0000 0000 0000 0000 0000 0000 0000 0000
00000190: 0000 0000 0000 0000 0000 0000 0000 0000
000001a0: 0000 0000 0000 0000 0000 0000 0000 0000
000001b0: 0000 0000 0000 0000 0000 0000 0000 0000
000001c0: 0000 0000 0000 0000 0000 0000 0000 0000
000001d0: 0000 0000 0000 0000 0000 0000 0000 0000
000001e0: 0000 0000 0000 0000 0000 0000 0000 0000
000001f0: 0000 0000 0000 0000 0000 0000 0000 0000
00000200: 0000 0000 0000 0000 0000 0000 0000 0000
00000210: 0000 0000 0000 0000 0000 0000 0000 0000
00000220: 0000 0000 0000 0000 0000 0000 0000 0000
00000230: 0000 0000 0000 0000 0000 0000 0000 0000
00000240: 0000 0000 0000 0000 0000 0000 0000 0000
00000250: 0000 0000 0000 0000
