neural_network/best_checkpoint.pth (torch, 404155 bytes, 12 tensors)

encoder.0.weight f4 [200, 328]
000000 6a e7 a3 bc 57 b4 34 bd 15 96 0c 3d f2 00 05 bd
       -0.020007808 -0.044117298 0.034322817 -0.032471605
000010 ea 27 42 bd 20 ec a7 ba e0 61 95 bb 3c ff 39 bd
       -0.047401346 -0.001281146 -0.0045587867 -0.045409426
000020 e5 de c6 bc 4b d5 5b bd ce 69 98 bc 72 8a f9 3c
       -0.024276206 -0.05367021 -0.01860514 0.030461524
000030 17 66 54 bd 2a 18 b4 3c 11 bc 23 bd 46 d9 86 3c
       -0.051855173 0.021984179 -0.039974276 0.016461026
000040 88 93 e6 bc fa 3c ae bc ad b0 21 3d 52 a6 82 3c
       -0.02814652 -0.02126931 0.03947513 0.015948448
000050 14 c3 70 3c c1 48 49 bd 0e 50 d6 bc be 13 91 bc
       0.014694948 -0.04914165 -0.02616122 -0.01770961
000060 3d 74 14 3d 46 24 d4 3c 5e 7b 30 bd 9c 65 33 bc
       0.036243666 0.025896203 -0.043086402 -0.0109495185
000070 dd 1c 61 3d 78 b9 d8 bb b9 59 cc bc e0 e6 83 ba
       0.054959167 -0.0066139065 -0.024945127 -0.0010063313
000080 60 f5 d5 bb 10 d4 5d 3b d4 a5 4e 3c d9 cb 1c 3d
       -0.006529495 0.0033848323 0.012612779 0.03828034
000090 08 c0 f6 3b 18 f2 4b bd 12 b2 85 3c 02 f9 8e 3c
       0.007530216 -0.049791425 0.016320262 0.01745272
0000a0 ea 10 bf 3c 1b 08 2e 3d ac 45 26 3c 9a a7 d9 3c
       0.023323495 0.0424882 0.010148447 0.026569176
0000b0 db 92 0f 3d 05 07 4e 3d 50 35 52 bc a7 b8 3a 3d
       0.03505216 0.050299663 -0.0128300935 0.045586254
0000c0 9f 5d 42 3d d4 9c 45 bd d1 29 39 3d 0e 4c e9 3c
       0.047452565 -0.048245266 0.045205895 0.028478649
0000d0 90 03 8e bb dd 4f 5e bd 21 44 44 bd 0d 65 45 3d
       -0.004333921 -0.054275382 -0.047916535 0.048192073
0000e0 f3 f8 46 3d 20 3b 03 3b 4a ec 25 bd ac 19 c2 bc
       0.04857726 0.0020024255 -0.040508546 -0.023693882
0000f0 16 0a fb bc ae 88 cc 3c af 56 15 3d a8 3d 8d bc
       -0.030644458 0.024967518 0.03645962 -0.017241314
000100 50 3d 88 3b 0b 6e 27 3d c4 fe 7f bc 60 d8 00 bc
       0.0041576996 0.04087643 -0.015624706 -0.007864088
000110 99 4b 51 bd 5c bf 48 3c b0 26 3c bb 69 27 36 bd
       -0.051097486 0.012252655 -0.0028709583 -0.04447118
000120 d8 c1 1f bc 83 0e 12 3d da c3 b4 bc b3 44 55 bd
       -0.009750806 0.03565837 -0.022066046 -0.05206747
000130 ce 55 3b bd 0d 7c 3c 3d 74 fd a1 bc fd 24 39 3d
       -0.045736127 0.04601674 -0.019774176 0.04520129
000140 24 c6 7e 3c 0e 7c 90 3c 1b eb 39 bd 75 36 3c bd
       0.01555017 0.017637279 -0.04539023 -0.04595037
000150 dc 98 03 3c 5a be eb 3c d3 45 2a 3d a6 39 9a 3c
       0.00803205 0.02877729 0.041570496 0.018826317
000160 ea e7 9e 3c fe e7 b2 3c 5a f1 cd bc 08 2d 15 bd
       0.019397695 0.021839138 -0.0251395 -0.0364199
000170 9a e4 00 bd 49 15 26 3d 6c 4a 00 bd 67 f5 24 3d
       -0.03146801 0.040547643 -0.031320974 0.040273096
000180 74 1e 17 3c 74 fb 4c 3c e8 e7 e8 bb 06 9f ac bc
       0.009223569 0.012511123 -0.0071077235 -0.021071922
000190 f5 d0 3d 3d 40 67 a6 3b 47 03 06 3d f6 4e 83 bc
       0.046341855 0.0050782263 0.03271797 -0.016028862
0001a0 28 79 8e 3b e0 30 5e bc 00 ff b0 ba 10 6d bd bc
       0.004347939 -0.013561457 -0.001350373 -0.023123294
0001b0 b7 91 40 3d 0f b3 08 3d 70 c3 a5 bc 05 04 3b 3d
       0.047013965 0.03337389 -0.020234793 0.04565813
0001c0 35 93 db bc 62 18 b0 bc e2 f3 38 bd 6a ac 13 bd
       -0.026803592 -0.021496002 -0.04515446 -0.0360531
0001d0 70 20 b7 3b 61 08 0d 3d ba 83 af 3c 29 12 44 bd
       0.0055885836 0.03443182 0.021425117 -0.04786888
0001e0 55 3b 33 3d eb cc 26 3d 50 ad e2 bc ab 08 40 3d
       0.043757755 0.04072277 -0.027670532 0.046883266
0001f0 cc 33 3a bd b0 bc 0b bd 38 6e 49 bd 80 a2 0f bb
       -0.045459554 -0.034115493 -0.04917738 -0.0021916926
000200 5e c6 f1 3c 20 51 3c bb a4 d8 4f bc 0c 2b 48 3c
       0.029513534 -0.0028734878 -0.0126859285 0.012217294
000210 00 91 29 bc 25 e6 4e 3d 88 73 1c bc 6f ec 2b 3d
       -0.010349512 0.05051245 -0.009549029 0.041973528
000220 c0 aa 0f 3b da 07 be bc 51 84 1f 3d 53 54 00 3d
       0.0021921843 -0.023197103 0.038944546 0.031330418
000230 5b 67 0a 3d 64 9f 60 3c 0d 5a 57 3d 88 a5 74 bc
       0.033789974 0.013709877 0.052576113 -0.014932044
000240 68 9e 09 bd 44 6f 0d bd 8d 86 e4 bc 0e b6 22 bd
       -0.033598334 -0.03452994 -0.02789619 -0.039724402
000250 b1 0f d3 bc fe 9c fc bc 8b 41 5a 3d df 59 05 bd
       -0.025764318 -0.030836578 0.053285163 -0.03255641
000260 b8 24 1d bc 8c f4 01 bd e4 ae 53 bd bc 4b 1d 3c
       -0.009591274 -0.03172736 -0.05168046 0.009600576
000270 40 f1 ea bc 20 93 bf ba 1a b3 8e 3c 25 d9 0f 3d
       -0.02867949 -0.001461599 0.017419387 0.035119195
000280 0d 31 25 3d e9 75 38 bd 8b 74 e8 bc dc 99 38 3c
       0.04032998 -0.045034323 -0.028375885 0.011267152
000290 02 72 50 bd f0 33 64 bc 62 59 b0 3c e4 d8 8c bc
       -0.050889976 -0.0139283985 0.021526996 -0.017193265
0002a0 e6 94 8c 3c f1 7e 0f 3d c0 30 1a bb 7a a7 8b bc
       0.017160844 0.03503317 -0.0023527592 -0.017047632
0002b0 05 6a 4f 3d a7 05 21 3d da 2e f7 3c 67 f9 60 bd
       0.050638217 0.03931203 0.030173708 -0.05492535
0002c0 6b 7e 34 3d 42 10 83 bc 73 83 4b bd d4 57 9b bc
       0.044065874 -0.015998963 -0.049685907 -0.018962778
0002d0 42 e1 96 3c 92 4b 89 bc 10 9e de 3b 49 93 e8 bc
       0.018417958 -0.016759668 0.006793745 -0.028390544
0002e0 22 55 cb 3c 37 e4 61 bd fa 46 f5 3c d3 b4 58 bd
       0.024820868 -0.055149283 0.02994107 -0.052906822
0002f0 f9 77 50 3d ee e2 0a bd 8b a9 03 3d f8 6e 4a bd
       0.050895665 -0.033907823 0.03214411 -0.049422234
000300 46 7b 2d bd 80 69 73 bb 52 0b 49 bd 98 74 1c bd
       -0.04235389 -0.003714174 -0.04908306 -0.03819713
000310 95 e8 1a 3d 26 ea 95 bc 98 58 d2 bc b8 84 c0 bb
       0.037819464 -0.018300127 -0.02567701 -0.0058751963
000320 20 6d 00 bc 80 d8 67 bc 63 22 02 3d 63 08 09 3d
       -0.007838517 -0.014150739 0.031771075 0.033455264
000330 f9 ba 1d 3d ba 01 e0 bc ca 10 d6 3c 69 13 31 3d
       0.03850839 -0.027344573 0.026131053 0.0432314
000340 89 66 f3 bc 23 48 44 3d 78 e7 10 bd fa 5e 8a 3c
       -0.029711979 0.047920357 -0.035376996 0.016890991
000350 00 99 4e 3b f0 88 4b bc ff e8 5a 3d d6 36 b7 bc
       0.00315243 -0.012422785 0.05344486 -0.022365015
000360 42 22 a5 3c 8c 27 a2 bc c2 5e f0 3c be 05 f9 3c
       0.020157937 -0.019794248 0.029342059 0.030398246
000370 80 74 7d 3b 67 4a 3c 3d ac 6f 22 3c 50 43 8e bb
       0.0038674176 0.045969393 0.00991432 -0.0043415204
000380 a5 a3 53 3d c2 1c 2d bd ab fc 37 3d b8 c6 ec 3b
       0.051669735 -0.042263754 0.044918697 0.0072258376
000390 eb 44 32 3d 00 8b 46 bc b8 95 9e bb 57 ab 5b 3d
       0.043522757 -0.012118101 -0.004839625 0.0536302
0003a0 dc ad 5c 3c c8 d3 85 bb 50 68 ed bb 40 72 f6 ba
       0.013469186 -0.004084084 -0.007245101 -0.001880236
0003b0 10 31 04 bb ba 60 c4 3c f0 34 15 bc 30 79 04 bc
       -0.0020170845 0.023971904 -0.00910686 -0.008085534
0003c0 c7 e5 43 3d e7 78 20 bd cd c1 da bc ec cd 78 bc
       0.047826555 -0.0391778 -0.02670374 -0.015185814
0003d0 48 5b 34 bc 73 d5 44 3d ec 95 02 bd 3e a4 cd bc
       -0.011008091 0.048055124 -0.031881258 -0.02510273
0003e0 c3 0c 12 3d 22 95 81 3c 34 bd 4e 3c 92 45 94 bc
       0.0356567 0.015818182 0.012618352 -0.01809958
0003f0 25 74 08 3d 74 08 38 3c 5a 4f b3 3c 56 12 82 bc
       0.03331389 0.011232484 0.021888424 -0.015877884

encoder.0.bias f4 [200]
000000 24 7c 38 bd 64 c0 6b 3c 2e 30 c4 bc 04 3d 60 bd
       -0.045040265 0.014389131 -0.023948755 -0.05474569
000010 30 a3 e2 bb 50 10 6e bc 78 18 3d bd 73 5c 61 3d
       -0.006916426 -0.014530256 -0.046165913 0.055019807
000020 7a 2b ed bc 16 93 ba 3c 28 42 ca bc 77 3a 4a 3d
       -0.028951395 0.022775214 -0.024689749 0.049372163
000030 8d 83 f3 bc 7f ab 37 3d cc 59 0a 3c 33 5d 24 3d
       -0.029725814 0.044841286 0.008444261 0.040127944
000040 1d f9 14 3d 4b 26 c9 bc ce 52 01 bd 3c 47 6d 3c
       0.036370385 -0.024554392 -0.03157311 0.014482316
000050 48 28 db bc 8e b9 fe bc 12 99 b2 3c ae 52 98 3c
       -0.026752606 -0.031094339 0.021801505 0.018594112
000060 e4 75 10 bc 40 fb 1c bc fe 98 93 3c ac 07 1b bd
       -0.00881717 -0.009581387 0.018017288 -0.037849113
000070 f5 6a 43 3d ed 09 4e 3d 30 64 2e bc 53 74 32 bd
       0.047709424 0.050302435 -0.010644004 -0.043567967
000080 34 5b 30 bd d6 38 ae 3c e1 4c 48 3d 49 73 28 bd
       -0.043055728 0.021267336 0.048901442 -0.04112557
000090 80 98 2c ba 30 59 24 bb c1 a4 1d bd 3d f0 2b 3d
       -0.00065840036 -0.0025077574 -0.0384872 0.041977156
0000a0 ff 49 58 3d c2 2d be bc 10 d4 38 bb 7e 28 d9 3c
       0.052804943 -0.023215178 -0.002820257 0.026508566
0000b0 6e f4 84 bc 7c 91 42 bd 9c 8d ba bc d0 45 12 3b
       -0.016229834 -0.047502026 -0.022772603 0.0022319444
0000c0 10 86 9a 3b 02 b0 a4 bc 84 fc 02 3c c8 07 06 bd
       0.0047156885 -0.020103458 0.007994775 -0.032722265
0000d0 5c 3f 9f bc 11 9f 58 3d aa cc 88 bc 9e 8a 11 bd
       -0.019439392 0.052886073 -0.016699154 -0.035532586
0000e0 5a 2b cd 3c 0e 70 93 3c ad 1b 07 3d 6b 8b 5e bd
       0.025045086 0.017997768 0.032985378 -0.054332178
0000f0 5c 19 2f 3c 1d 7d 60 3d 21 c3 49 3d 00 9e df 3b
       0.0106871985 0.054806817 0.049258355 0.006824255
000100 5b 2a 5c 3d e7 50 15 3d 37 b2 33 3d 3a 95 f3 3c
       0.05375133 0.036454108 0.04387113 0.029734243
000110 f2 e2 0f bd f6 d2 1d bd 41 59 15 3d d4 40 05 bc
       -0.03512854 -0.038531266 0.036462072 -0.008133132
000120 40 db 8c 3a a8 e2 a7 bc f5 9a 5a 3d f6 15 e6 3c
       0.0010746494 -0.02049382 0.053370435 0.028086644
000130 2a 66 ec bc 33 29 e1 bc 6e 08 80 3c 68 80 e7 bb
       -0.02885731 -0.027485466 0.01562902 -0.0070648678
000140 cf c2 57 bd 6c 30 27 bc 0e 29 9e bc 2e 34 c0 3c
       -0.05267602 -0.010204416 -0.019306686 0.023462381
000150 50 93 70 3b 67 09 46 bd 1a 23 86 bc da 98 88 bc
       0.00367089 -0.04834881 -0.01637416 -0.016674448
000160 1c 0a 8d bc 7d ed 22 3d cc 5d 28 3c 50 92 9a bb
       -0.017216735 0.039777268 0.010276269 -0.004717149
000170 2c f1 71 3c 61 c5 21 3d e4 3f 57 3c e6 fe dc 3c
       0.0147669725 0.039494876 0.013137791 0.026977014
000180 68 0d ca bb 40 cf 61 bb 12 8a cc 3c 72 f8 b1 3c
       -0.006166149 -0.0034455806 0.02496818 0.021724913
000190 5e 07 f8 bc f9 03 3a 3d 07 6c 05 3d 19 f9 3e 3d
       -0.03027695 0.045413945 0.032573726 0.046624277
0001a0 66 db a9 3c f0 84 36 bd 9d c4 10 3d d0 bf d8 bb
       0.0207345 -0.044560373 0.035343755 -0.0066146627
0001b0 5c 14 1e bc 93 a0 1e 3d 07 26 08 bd 08 52 1b bd
       -0.009648409 0.038727354 -0.03323939 -0.037920028
0001c0 c4 5a 5d 3c fe 6c 82 3c 42 f3 ba 3c 51 c3 04 3d
       0.01351041 0.015921112 0.022821072 0.03241283
0001d0 a5 68 3a 3d 69 4e 04 3d bc 48 3c bc d4 42 5d 3c
       0.045509953 0.03230134 -0.011491951 0.013504703
0001e0 7f d0 5d 3d a4 5b 36 3c a0 80 d3 3a 8a 0e 94 3c
       0.054153915 0.011130247 0.0016136356 0.018073339
0001f0 96 0c f9 3c 9d 02 49 bd 8e 98 a1 3c 51 32 60 bd
       0.03040151 -0.049074758 0.019726064 -0.054735485
000200 81 8d 58 3d 98 97 bd 3b c2 44 ed 3c 35 e9 cf bc
       0.052869324 0.0057858936 0.02896345 -0.025379756
000210 c8 39 a9 bb 79 a7 08 bd f0 73 76 bb f0 ee 41 bb
       -0.0051643588 -0.03336284 -0.0037605725 -0.002959188
000220 fb 08 43 3d 03 85 19 3d 15 db 31 3d 4f e4 4e 3d
       0.047615986 0.037480365 0.043421824 0.0505107
000230 10 d6 fa bb 39 a0 5c 3d a3 1e fb bc 84 46 a7 bc
       -0.007654913 0.053863738 -0.030654257 -0.020419367
000240 f0 10 5d bb e2 03 5a bd c4 0e 1d bd e0 6e bf bc
       -0.003373202 -0.05322636 -0.03834416 -0.023368299
000250 90 34 9f bc 00 b1 e8 3a 8b 3b 07 3d 2e 69 9b bc
       -0.019434243 0.0017752945 0.03301577 -0.018971052
000260 aa 06 a9 3c f0 70 14 3b 7c 67 23 bd f5 e0 44 bd
       0.02063306 0.0022650324 -0.039893612 -0.0480661
000270 b2 5c 9b 3c 74 4a 5e 3c ec 53 63 3c 6a e2 83 3c
       0.018965099 0.013567556 0.013874989 0.016099174
000280 e0 ed b6 3b 52 76 00 bd a9 4d f1 bc 03 13 3f bd
       0.005582556 -0.03136284 -0.029455977 -0.04664899
000290 24 99 78 3c 88 7d ea bb b6 80 ae 3c 82 35 b2 3c
       0.01517323 -0.007156078 0.021301609 0.02175403
0002a0 22 a1 86 3c 5f f1 31 bd e4 e5 39 bc 40 32 54 3a
       0.016434256 -0.04344308 -0.011346314 0.0008094646
0002b0 2c 04 38 bd 7c a7 27 bc 54 b0 4b 3c 8b db 4f bd
       -0.044925854 -0.0102328025 0.012432177 -0.050746482
0002c0 54 4a 26 bd f8 08 3c bc 28 37 25 bd 30 2f 33 3b
       -0.04059823 -0.011476748 -0.040335804 0.0027341358
0002d0 92 22 20 bd 47 d7 f9 bc 47 ae db bc 50 9c d8 3b
       -0.03909547 -0.03049816 -0.0268165 0.006610431
0002e0 2f 8a 2d bd bc 35 ae bc 14 e2 e8 bc f6 c5 0c bd
       -0.04236811 -0.021265857 -0.028428115 -0.034368478
0002f0 83 55 c5 bc 5f 53 1c bd 3c 48 35 bd cd 05 0f bd
       -0.024088627 -0.038165446 -0.04425834 -0.03491764
000300 fe 93 fa 3c db a5 1f 3d 5f ec 17 3d 2f 1c ff bc
       0.030588146 0.03897653 0.037090655 -0.031141369
000310 7d 06 5e bd 4d 0e 4d 3d b2 c2 32 bd 10 02 0c bd
       -0.054205406 0.050062466 -0.043642707 -0.034181654

encoder.1.weight f4 [200]
000000 00 00 80 3f 00 00 80 3f 00 00 80 3f 00 00 80 3f
       1.0 1.0 1.0 1.0
000010 00 00 80 3f 00 00 80 3f 00 00 80 3f 00 00 80 3f
       1.0 1.0 1.0 1.0
000020 00 00 80 3f 00 00 80 3f 00 00 80 3f 00 00 80 3f
       1.0 1.0 1.0 1.0
000030 00 00 80 3f 00 00 80 3f 00 00 80 3f 00 00 80 3f
       1.0 1.0 1.0 1.0
000040 00 00 80 3f 00 00 80 3f 00 00 80 3f 00 00 80 3f
       1.0 1.0 1.0 1.0
000050 00 00 80 3f 00 00 80 3f 00 00 80 3f 00 00 80 3f
       1.0 1.0 1.0 1.0
000060 00 00 80 3f 00 00 80 3f 00 00 80 3f 00 00 80 3f
       1.0 1.0 1.0 1.0
000070 00 00 80 3f 00 00 80 3f 00 00 80 3f 00 00 80 3f
       1.0 1.0 1.0 1.0
000080 00 00 80 3f 00 00 80 3f 00 00 80 3f 00 00 80 3f
       1.0 1.0 1.0 1.0
000090 00 00 80 3f 00 00 80 3f 00 00 80 3f 00 00 80 3f
       1.0 1.0 1.0 1.0
0000a0 00 00 80 3f 00 00 80 3f 00 00 80 3f 00 00 80 3f
       1.0 1.0 1.0 1.0
0000b0 00 00 80 3f 00 00 80 3f 00 00 80 3f 00 00 80 3f
       1.0 1.0 1.0 1.0
0000c0 00 00 80 3f 00 00 80 3f 00 00 80 3f 00 00 80 3f
       1.0 1.0 1.0 1.0
0000d0 00 00 80 3f 00 00 80 3f 00 00 80 3f 00 00 80 3f
       1.0 1.0 1.0 1.0
0000e0 00 00 80 3f 00 00 80 3f 00 00 80 3f 00 00 80 3f
       1.0 1.0 1.0 1.0
0000f0 00 00 80 3f 00 00 80 3f 00 00 80 3f 00 00 80 3f
       1.0 1.0 1.0 1.0
000100 00 00 80 3f 00 00 80 3f 00 00 80 3f 00 00 80 3f
       1.0 1.0 1.0 1.0
000110 00 00 80 3f 00 00 80 3f 00 00 80 3f 00 00 80 3f
       1.0 1.0 1.0 1.0
000120 00 00 80 3f 00 00 80 3f 00 00 80 3f 00 00 80 3f
       1.0 1.0 1.0 1.0
000130 00 00 80 3f 00 00 80 3f 00 00 80 3f 00 00 80 3f
       1.0 1.0 1.0 1.0
000140 00 00 80 3f 00 00 80 3f 00 00 80 3f 00 00 80 3f
       1.0 1.0 1.0 1.0
000150 00 00 80 3f 00 00 80 3f 00 00 80 3f 00 00 80 3f
       1.0 1.0 1.0 1.0
000160 00 00 80 3f 00 00 80 3f 00 00 80 3f 00 00 80 3f
       1.0 1.0 1.0 1.0
000170 00 00 80 3f 00 00 80 3f 00 00 80 3f 00 00 80 3f
       1.0 1.0 1.0 1.0
000180 00 00 80 3f 00 00 80 3f 00 00 80 3f 00 00 80 3f
       1.0 1.0 1.0 1.0
000190 00 00 80 3f 00 00 80 3f 00 00 80 3f 00 00 80 3f
       1.0 1.0 1.0 1.0
0001a0 00 00 80 3f 00 00 80 3f 00 00 80 3f 00 00 80 3f
       1.0 1.0 1.0 1.0
0001b0 00 00 80 3f 00 00 80 3f 00 00 80 3f 00 00 80 3f
       1.0 1.0 1.0 1.0
0001c0 00 00 80 3f 00 00 80 3f 00 00 80 3f 00 00 80 3f
       1.0 1.0 1.0 1.0
0001d0 00 00 80 3f 00 00 80 3f 00 00 80 3f 00 00 80 3f
       1.0 1.0 1.0 1.0
0001e0 00 00 80 3f 00 00 80 3f 00 00 80 3f 00 00 80 3f
       1.0 1.0 1.0 1.0
0001f0 00 00 80 3f 00 00 80 3f 00 00 80 3f 00 00 80 3f
       1.0 1.0 1.0 1.0
000200 00 00 80 3f 00 00 80 3f 00 00 80 3f 00 00 80 3f
       1.0 1.0 1.0 1.0
000210 00 00 80 3f 00 00 80 3f 00 00 80 3f 00 00 80 3f
       1.0 1.0 1.0 1.0
000220 00 00 80 3f 00 00 80 3f 00 00 80 3f 00 00 80 3f
       1.0 1.0 1.0 1.0
000230 00 00 80 3f 00 00 80 3f 00 00 80 3f 00 00 80 3f
       1.0 1.0 1.0 1.0
000240 00 00 80 3f 00 00 80 3f 00 00 80 3f 00 00 80 3f
       1.0 1.0 1.0 1.0
000250 00 00 80 3f 00 00 80 3f 00 00 80 3f 00 00 80 3f
       1.0 1.0 1.0 1.0
000260 00 00 80 3f 00 00 80 3f 00 00 80 3f 00 00 80 3f
       1.0 1.0 1.0 1.0
000270 00 00 80 3f 00 00 80 3f 00 00 80 3f 00 00 80 3f
       1.0 1.0 1.0 1.0
000280 00 00 80 3f 00 00 80 3f 00 00 80 3f 00 00 80 3f
       1.0 1.0 1.0 1.0
000290 00 00 80 3f 00 00 80 3f 00 00 80 3f 00 00 80 3f
       1.0 1.0 1.0 1.0
0002a0 00 00 80 3f 00 00 80 3f 00 00 80 3f 00 00 80 3f
       1.0 1.0 1.0 1.0
0002b0 00 00 80 3f 00 00 80 3f 00 00 80 3f 00 00 80 3f
       1.0 1.0 1.0 1.0
0002c0 00 00 80 3f 00 00 80 3f 00 00 80 3f 00 00 80 3f
       1.0 1.0 1.0 1.0
0002d0 00 00 80 3f 00 00 80 3f 00 00 80 3f 00 00 80 3f
       1.0 1.0 1.0 1.0
0002e0 00 00 80 3f 00 00 80 3f 00 00 80 3f 00 00 80 3f
       1.0 1.0 1.0 1.0
0002f0 00 00 80 3f 00 00 80 3f 00 00 80 3f 00 00 80 3f
       1.0 1.0 1.0 1.0
000300 00 00 80 3f 00 00 80 3f 00 00 80 3f 00 00 80 3f
       1.0 1.0 1.0 1.0
000310 00 00 80 3f 00 00 80 3f 00 00 80 3f 00 00 80 3f
       1.0 1.0 1.0 1.0

encoder.1.bias f4 [200]
000000 00 00 00 00 00 00 00 00 00 00 00 00 00 00 00 00
       0.0 0.0 0.0 0.0
000010 00 00 00 00 00 00 00 00 00 00 00 00 00 00 00 00
       0.0 0.0 0.0 0.0
000020 00 00 00 00 00 00 00 00 00 00 00 00 00 00 00 00
       0.0 0.0 0.0 0.0
000030 00 00 00 00 00 00 00 00 00 00 00 00 00 00 00 00
       0.0 0.0 0.0 0.0
000040 00 00 00 00 00 00 00 00 00 00 00 00 00 00 00 00
       0.0 0.0 0.0 0.0
000050 00 00 00 00 00 00 00 00 00 00 00 00 00 00 00 00
       0.0 0.0 0.0 0.0
000060 00 00 00 00 00 00 00 00 00 00 00 00 00 00 00 00
       0.0 0.0 0.0 0.0
000070 00 00 00 00 00 00 00 00 00 00 00 00 00 00 00 00
       0.0 0.0 0.0 0.0
000080 00 00 00 00 00 00 00 00 00 00 00 00 00 00 00 00
       0.0 0.0 0.0 0.0
000090 00 00 00 00 00 00 00 00 00 00 00 00 00 00 00 00
       0.0 0.0 0.0 0.0
0000a0 00 00 00 00 00 00 00 00 00 00 00 00 00 00 00 00
       0.0 0.0 0.0 0.0
0000b0 00 00 00 00 00 00 00 00 00 00 00 00 00 00 00 00
       0.0 0.0 0.0 0.0
0000c0 00 00 00 00 00 00 00 00 00 00 00 00 00 00 00 00
       0.0 0.0 0.0 0.0
0000d0 00 00 00 00 00 00 00 00 00 00 00 00 00 00 00 00
       0.0 0.0 0.0 0.0
0000e0 00 00 00 00 00 00 00 00 00 00 00 00 00 00 00 00
       0.0 0.0 0.0 0.0
0000f0 00 00 00 00 00 00 00 00 00 00 00 00 00 00 00 00
       0.0 0.0 0.0 0.0
000100 00 00 00 00 00 00 00 00 00 00 00 00 00 00 00 00
       0.0 0.0 0.0 0.0
000110 00 00 00 00 00 00 00 00 00 00 00 00 00 00 00 00
       0.0 0.0 0.0 0.0
000120 00 00 00 00 00 00 00 00 00 00 00 00 00 00 00 00
       0.0 0.0 0.0 0.0
000130 00 00 00 00 00 00 00 00 00 00 00 00 00 00 00 00
       0.0 0.0 0.0 0.0
000140 00 00 00 00 00 00 00 00 00 00 00 00 00 00 00 00
       0.0 0.0 0.0 0.0
000150 00 00 00 00 00 00 00 00 00 00 00 00 00 00 00 00
       0.0 0.0 0.0 0.0
000160 00 00 00 00 00 00 00 00 00 00 00 00 00 00 00 00
       0.0 0.0 0.0 0.0
000170 00 00 00 00 00 00 00 00 00 00 00 00 00 00 00 00
       0.0 0.0 0.0 0.0
000180 00 00 00 00 00 00 00 00 00 00 00 00 00 00 00 00
       0.0 0.0 0.0 0.0
000190 00 00 00 00 00 00 00 00 00 00 00 00 00 00 00 00
       0.0 0.0 0.0 0.0
0001a0 00 00 00 00 00 00 00 00 00 00 00 00 00 00 00 00
       0.0 0.0 0.0 0.0
0001b0 00 00 00 00 00 00 00 00 00 00 00 00 00 00 00 00
       0.0 0.0 0.0 0.0
0001c0 00 00 00 00 00 00 00 00 00 00 00 00 00 00 00 00
       0.0 0.0 0.0 0.0
0001d0 00 00 00 00 00 00 00 00 00 00 00 00 00 00 00 00
       0.0 0.0 0.0 0.0
0001e0 00 00 00 00 00 00 00 00 00 00 00 00 00 00 00 00
       0.0 0.0 0.0 0.0
0001f0 00 00 00 00 00 00 00 00 00 00 00 00 00 00 00 00
       0.0 0.0 0.0 0.0
000200 00 00 00 00 00 00 00 00 00 00 00 00 00 00 00 00
       0.0 0.0 0.0 0.0
000210 00 00 00 00 00 00 00 00 00 00 00 00 00 00 00 00
       0.0 0.0 0.0 0.0
000220 00 00 00 00 00 00 00 00 00 00 00 00 00 00 00 00
       0.0 0.0 0.0 0.0
000230 00 00 00 00 00 00 00 00 00 00 00 00 00 00 00 00
       0.0 0.0 0.0 0.0
000240 00 00 00 00 00 00 00 00 00 00 00 00 00 00 00 00
       0.0 0.0 0.0 0.0
000250 00 00 00 00 00 00 00 00 00 00 00 00 00 00 00 00
       0.0 0.0 0.0 0.0
000260 00 00 00 00 00 00 00 00 00 00 00 00 00 00 00 00
       0.0 0.0 0.0 0.0
000270 00 00 00 00 00 00 00 00 00 00 00 00 00 00 00 00
       0.0 0.0 0.0 0.0
000280 00 00 00 00 00 00 00 00 00 00 00 00 00 00 00 00
       0.0 0.0 0.0 0.0
000290 00 00 00 00 00 00 00 00 00 00 00 00 00 00 00 00
       0.0 0.0 0.0 0.0
0002a0 00 00 00 00 00 00 00 00 00 00 00 00 00 00 00 00
       0.0 0.0 0.0 0.0
0002b0 00 00 00 00 00 00 00 00 00 00 00 00 00 00 00 00
       0.0 0.0 0.0 0.0
0002c0 00 00 00 00 00 00 00 00 00 00 00 00 00 00 00 00
       0.0 0.0 0.0 0.0
0002d0 00 00 00 00 00 00 00 00 00 00 00 00 00 00 00 00
       0.0 0.0 0.0 0.0
0002e0 00 00 00 00 00 00 00 00 00 00 00 00 00 00 00 00
       0.0 0.0 0.0 0.0
0002f0 00 00 00 00 00 00 00 00 00 00 00 00 00 00 00 00
       0.0 0.0 0.0 0.0
000300 00 00 00 00 00 00 00 00 00 00 00 00 00 00 00 00
       0.0 0.0 0.0 0.0
000310 00 00 00 00 00 00 00 00 00 00 00 00 00 00 00 00
       0.0 0.0 0.0 0.0

encoder.1.running_mean f4 [200]
000000 da 84 89 be 44 a4 1f 3e 4c 40 0f 3e da e4 74 bd
       -0.2685917 0.15590006 0.13989371 -0.059788562
000010 e4 52 42 3e 44 ba 1e 3d 65 c5 bf be e8 d9 da 3c
       0.18976933 0.038751855 -0.37455288 0.026715234
000020 19 56 d3 3d 90 87 35 be 89 6b 72 3e 81 e2 f5 3d
       0.10319156 -0.17727494 0.23673834 0.12006093
000030 78 e6 89 3e a3 19 94 bd cb 83 d6 3b 7a d1 92 3d
       0.26933646 -0.07231452 0.0065464727 0.07168861
000040 e1 a2 ec 3d 79 69 f7 bd c7 40 d7 be fa 26 87 3e
       0.11554504 -0.12080664 -0.4204161 0.26396924
000050 d0 a3 56 3e 80 26 5d 3e 44 71 ee be 6b 17 27 bd
       0.20960927 0.21596718 -0.4657079 -0.040793817
000060 7e ac 6f 3d b0 d7 ba 3d f1 74 c0 3d c2 29 1e 3d
       0.05851411 0.091231704 0.09397305 0.038614042
000070 36 30 e8 be 8b 23 9e 3d 2d 01 c7 be 30 ab 8a be
       -0.45349282 0.07721623 -0.38868085 -0.2708373
000080 67 cf 0b be 00 43 91 be 86 0b 31 3e 84 04 c6 3d
       -0.13653336 -0.2837143 0.17289552 0.0966883
000090 fb b7 89 3e 57 34 7b 3e eb a1 e8 3e e5 31 a2 be
       0.26898178 0.24531685 0.45436034 -0.31678692
0000a0 0c b9 9d be 56 51 40 3e 41 80 65 3e 7c c0 08 3d
       -0.30805242 0.18781027 0.22412206 0.033386692
0000b0 65 7d 29 3e f4 ad 49 be 7f 20 6b bd 08 2c 04 3e
       0.1655174 -0.19695264 -0.057404038 0.12907422
0000c0 ab d5 52 be 03 ef 0b bf 9d c9 08 3e ff 84 9d 3c
       -0.2058932 -0.5466158 0.1335816 0.019228457
0000d0 34 51 f8 be 26 cf 2b 3e 9c 99 01 bd f6 0f 97 bd
       -0.48499453 0.1677824 -0.031640634 -0.07376091
0000e0 ce 64 60 be ef 8c 1e 3e 4f 3e 4d bd d3 7e 1d 3d
       -0.21913454 0.1548345 -0.05010825 0.038451027
0000f0 45 81 db be 96 3c b9 3d cc fc f3 3d a3 8b 74 3d
       -0.42872062 0.09044759 0.119134516 0.05970348
000100 a9 b6 89 3e b9 f9 8a 3e 0f be 99 be 89 55 12 3e
       0.2689717 0.27143648 -0.30027816 0.14290442
000110 b4 c6 c3 3e c7 b0 b2 bd 81 05 98 be 2c 38 65 bd
       0.38237536 -0.08725124 -0.296917 -0.055961773
000120 ab 73 a8 bd 1f 8c 01 3d 00 5a 93 be 92 a0 bd 3c
       -0.08225187 0.03162777 -0.28779602 0.023147855
000130 cc ec d5 be 01 f5 08 be 6a f7 50 be a7 06 05 bf
       -0.41782224 -0.13374712 -0.20406881 -0.51963276
000140 a2 28 81 3e 2d 87 6d 3d bf ec f5 bb 7e 8f 00 be
       0.25226313 0.05799024 -0.007505029 -0.12554738
000150 2c 46 93 be f4 13 78 3e 23 cc 18 3d 34 ad 8d be
       -0.28764474 0.24226362 0.037304055 -0.27671206
000160 b8 b0 e3 bd 99 b5 04 3e 36 2c 69 3c 2a 79 97 bd
       -0.11117691 0.12959899 0.014231732 -0.07396157
000170 7c 96 62 bd fe a7 3d be 7a a8 95 bd 9b 75 b2 3c
       -0.055319294 -0.18521115 -0.07307525 0.021784594
000180 b1 8a 0f 3e a4 5b dd be 1b 78 5e 3e a7 7d 27 3e
       0.1401775 -0.4323398 0.21725504 0.16356526
000190 fb 78 4d 3e ae 0e f8 bd 36 2a ff 3d 62 2c 42 3e
       0.20065682 -0.12112175 0.12459223 0.18962243
0001a0 b3 c9 28 3b b0 d7 75 3d 0e f5 dd be 5e 6e a9 bd
       0.0025754988 0.06002015 -0.43351024 -0.08273004
0001b0 78 11 d0 3d 89 67 51 3e d4 94 53 3d 6b 32 a1 bd
       0.10159582 0.20449652 0.051655605 -0.078709446
0001c0 a3 ed 4b be bf 0c 1e 3e 36 64 9c 3e fb 3d df 3d
       -0.1991487 0.1543455 0.30545205 0.10900494
0001d0 8c 62 ce bd 56 d5 38 3c 76 c7 3c 3e f7 0d 7c bd
       -0.1007739 0.011281332 0.18435463 -0.061536755
0001e0 ed 56 10 3f 04 be 1a 3e ad 3f 26 be d1 a7 8d bd
       0.5638264 0.15111548 -0.16235228 -0.06916774
0001f0 4d 45 aa bd 97 27 c3 bd ad dc 73 be dd 34 0e be
       -0.08313999 -0.095290355 -0.2381465 -0.13887353
000200 a0 68 9c 3e 6e 8e e1 3e 9f 56 a8 3d 6d f6 47 be
       0.30548573 0.44053978 0.08219647 -0.19527598
000210 fb e7 ac 3d c7 3b cf be 13 5f fb 3d 14 a0 72 3e
       0.08442684 -0.40475294 0.12273993 0.23693877
000220 d1 48 41 be 73 7b e1 3e 4c 2b d8 3c ea 91 96 be
       -0.18875434 0.44039497 0.026387833 -0.294082
000230 a7 30 f3 bd 9d 83 04 3e 5d 10 48 be 0c 92 c0 bd
       -0.11874514 0.12940831 -0.19537492 -0.09402856
000240 18 70 ce 3e e0 d5 39 be 1e 10 2a bd 5f 0a b2 be
       0.40319896 -0.18147993 -0.041519277 -0.34773538
000250 09 fb a8 3e 77 f1 8b 3d 26 6b 60 3e 6d b5 d1 3e
       0.33004025 0.06833165 0.21915874 0.4095873
000260 61 e8 8b bd f0 01 22 3e ff bb 25 be 65 14 f8 be
       -0.06831432 0.15821052 -0.16184996 -0.4845306
000270 33 1e 51 be 15 32 08 3e 86 65 a3 3e f4 ec 07 be
       -0.20421676 0.13300355 0.31913394 -0.13273984
000280 c4 a1 fd bd ab a6 7a 3b 3b 5a b1 be f6 47 98 bd
       -0.1238437 0.0038246315 -0.34639153 -0.074356005
000290 4e 76 eb 3c 35 18 2f 3e 9a 76 49 3e 5d 3d 9d 3e
       0.028742936 0.17099078 0.19674149 0.3071088
0002a0 fd fd 11 3f 1a 73 16 be d4 4d 87 be 31 a4 26 be
       0.5702818 -0.14692345 -0.26426566 -0.16273572
0002b0 e9 8f ae be dc 28 37 be dc bf b5 ba 97 ad f6 3d
       -0.3409417 -0.1788668 -0.0013866383 0.120448284
0002c0 5a 46 9e be 43 2a 2e be a7 51 af be bc 60 90 3e
       -0.3091305 -0.17008309 -0.34241983 0.28198802
0002d0 37 e1 23 be 03 ea 3a bc bc bb a1 be f6 2c e5 be
       -0.16003881 -0.011408332 -0.31588542 -0.44760865
0002e0 2e fa 3e be cf e1 c6 bc 0f e8 e8 bd 12 94 80 3e
       -0.18650123 -0.024277596 -0.11372387 0.2511297
0002f0 ca 0f d1 bd 6f b4 f4 bd a5 24 cb bd fb 55 da bd
       -0.1020809 -0.119484775 -0.09919099 -0.10660931
000300 00 ec 09 3e c9 df 19 bd 2c 37 21 3e 98 bf 1a be
       0.13468933 -0.037566934 0.15743703 -0.1511215
000310 7a 4e 83 be 61 47 f0 3d 8b 4b df be bb 8e 09 3f
       -0.2564581 0.117323644 -0.43612322 0.53733414

encoder.1.running_var f4 [200]
000000 c5 16 3e 3e c0 dc 87 3d 90 a5 86 3c 46 02 68 3d
       0.18563373 0.066339016 0.016436368 0.056642793
000010 54 90 9b 3c 14 60 d9 3c 85 18 e2 3d cd b2 01 3d
       0.01898972 0.026535071 0.11039833 0.03166466
000020 4e 1a 2c 3d 52 79 ec 3c a7 95 06 3d 56 a4 0f 3d
       0.042017274 0.028866444 0.032857563 0.035068832
000030 3c 4c 0c 3d 0a 02 30 3d 14 78 ba 3c 39 b1 4d 3e
       0.03425239 0.042970695 0.022762336 0.20087136
000040 d2 87 47 3e cf bd fb 3c a8 05 31 3e 24 e3 e8 3d
       0.19485405 0.030730156 0.17287314 0.11371449
000050 fb 16 87 3d 02 c6 aa 3c 3e 49 84 3d 99 b2 f5 3c
       0.0659618 0.02084637 0.06459282 0.029992389
000060 06 e9 27 3e 08 d4 8b 3d e3 ad a4 3c 7d 98 7a 3d
       0.16397485 0.06827551 0.020102447 0.06118058
000070 b7 a2 21 3d a6 3f 34 3d 35 61 d9 3d ce a4 13 3d
       0.039461818 0.044006012 0.10614244 0.036045842
000080 81 e4 93 3d 0c 55 dc 3c f7 a7 18 3d f6 1a 7e 3d
       0.07221318 0.026896022 0.03726956 0.06203743
000090 69 db ac 3c 94 ad 58 3d 95 77 06 3e 4d c8 f4 3d
       0.021100717 0.052899912 0.13131554 0.11952267
0000a0 11 1e 0b 3e 4a 89 62 3c 68 56 34 3c f8 fd 1c 3d
       0.13585688 0.013826678 0.011006929 0.03832814
0000b0 67 69 19 3e 60 14 1a 3d e1 40 a3 3c 4a 4d 0d 3d
       0.14981614 0.037617087 0.019928398 0.034497537
0000c0 31 32 20 3e 6d 71 41 3e 87 00 ba 3c 6e 58 35 3d
       0.15644147 0.18890925 0.02270533 0.044273786
0000d0 fa e9 04 3d d6 84 d0 3c a8 68 ad 3c 11 b0 d7 3c
       0.0324497 0.025453966 0.021168068 0.026329072
0000e0 b6 65 52 3c ba 57 9c 3c f2 88 08 3d ea 3b 1d 3d
       0.012841633 0.0190848 0.033333726 0.038387217
0000f0 8c 13 55 3d 30 89 a9 3d 00 60 2a 3d 8a 0c d2 3d
       0.052020594 0.082781196 0.04159546 0.10256298
000100 3e 3f 8a 3c 3f 0d a0 3d 8a f8 11 3e b6 17 2e 3e
       0.01687586 0.078150265 0.14254966 0.17001233
000110 3c ea bb 3c 1e eb b1 3c a6 f4 3d 3d bc 28 85 3c
       0.02293884 0.021718558 0.046375893 0.016254775
000120 88 30 cc 3d 6a c4 07 3d 64 2d ec 3c a5 0b 4f 3c
       0.09970194 0.0331463 0.028830238 0.012637054
000130 4e d3 0c 3d 9a 1a 79 3c 01 03 c4 3d be 18 c1 3c
       0.034381203 0.015204096 0.095708854 0.023571368
000140 cf 2e b1 3d 43 43 3c 3d 08 35 b4 3c f9 b8 00 3d
       0.08651506 0.045962583 0.021997944 0.031426404
000150 39 7c a5 3d b5 72 b4 3c 35 36 58 3d 68 68 a7 3c
       0.08080334 0.022027353 0.05278607 0.020435527
000160 88 38 8c 3d 34 c4 20 3d 47 50 e8 3c bd bb 5b 3c
       0.0684672 0.039249614 0.028358592 0.0134114595
000170 ae b3 35 3c 9e 93 2c 3d d5 e4 b5 3d 4b 42 d3 3d
       0.011090202 0.042132966 0.08881537 0.10315379
000180 37 3d 83 3d 59 0a 13 3d 07 14 95 3d 0b cc 03 3d
       0.0640816 0.03589854 0.072792105 0.032177012
000190 76 a5 58 3d 61 8b 8a 3e bd d5 86 3d 9a a0 6f 3d
       0.05289217 0.27059463 0.06583736 0.05850277
0001a0 c1 55 68 3d 78 f2 08 3d 0a bf 5f 3e 92 8f 09 3d
       0.056722406 0.03343436 0.2185022 0.033584185
0001b0 d9 04 e2 3c 15 74 7e 3d 87 48 5e 3e 58 7c 31 3e
       0.027590202 0.062122423 0.21707354 0.1733259
0001c0 cd 98 d9 3c 14 c6 90 3d bb 90 b1 3c 96 1b 87 3d
       0.026562119 0.070690304 0.021675458 0.065970585
0001d0 b6 43 14 3e 17 54 a8 3c 6b bf 20 3d 90 99 08 3e
       0.14478955 0.02054791 0.03924505 0.1333983
0001e0 69 9d 55 3d 07 b5 02 3d 2a 06 82 3c 3d 1b 97 3c
       0.05215207 0.031910922 0.01587208 0.018445605
0001f0 c9 0c 27 3d 00 ff 48 3e 56 3c cb 3d cc ae 71 3d
       0.040783677 0.19628525 0.099236175 0.05900459
000200 3d 57 f5 3c 71 68 17 3e 8e 7c 25 3e 27 6d 14 3d
       0.029948825 0.14785935 0.16160795 0.03623691
000210 ce b8 be 3d 49 0c bf 3c e2 c4 fc 3c 32 c7 a0 3c
       0.093125924 0.023321288 0.0308556 0.019626234
000220 40 85 09 3d 6e 57 93 3d f4 b6 31 3e 7f 3a 2d 3d
       0.033574343 0.0719441 0.17354947 0.042292114
000230 92 1a c1 3c d6 6e 0d 3d b9 ea a4 3d cc 8b b5 3d
       0.02357224 0.03452953 0.08052582 0.08864555
000240 9c 1d 14 3d 20 db 3e 3d 65 da 0e 3d 28 95 76 3d
       0.03616105 0.046595693 0.034876246 0.06020084
000250 d5 6d 99 3c 3c 13 a8 3d 4f 56 d9 3c cd 70 97 3d
       0.01872913 0.08206794 0.026530413 0.07394562
000260 59 0b 8d 3d 5d ad a3 3c da 03 06 3d 2a a6 89 3d
       0.0688693 0.019980127 0.032718517 0.067211464
000270 e3 b5 bf 3c 52 21 6d 3d 16 80 c1 3c 0b 9f fe 3c
       0.02340216 0.057893105 0.023620646 0.031081697
000280 bf 88 29 3e 7f 9c 01 3e 0d 95 79 3d 71 b7 81 3d
       0.1655607 0.12657355 0.06093316 0.06333817
000290 14 94 3d 3d 90 bb 36 3d 2a 19 8c 3d 63 c8 a9 3d
       0.046283796 0.044612467 0.06840737 0.08290174
0002a0 25 e7 10 3d 1a 64 20 3d 75 a3 6d 3d 8d 02 1d 3d
       0.035376687 0.039157964 0.058017213 0.03833251
0002b0 5e d9 07 3d 60 13 ea 3c 7a 28 63 3e 3a e3 a6 3d
       0.033166282 0.028573692 0.2218341 0.08148809
0002c0 e0 1b f1 3d 05 c7 b4 3d 6f 71 1d 3d 19 e7 27 3d
       0.11772895 0.088270225 0.038438257 0.040991876
0002d0 ad db cf 3c 0e 17 68 3e 98 65 ec 3c ca ea bc 3c
       0.025373304 0.22665045 0.028857037 0.023061175
0002e0 73 0f 37 3e 0b 24 75 3d bd af 13 3e b6 b2 95 3d
       0.17876987 0.059848826 0.14422508 0.07309477
0002f0 78 c2 16 3d 30 f4 36 3d 29 51 f3 3c 47 89 06 3d
       0.036806554 0.04466647 0.029701786 0.03284576
000300 03 75 5a 3d a1 3a 40 3d 0a e0 92 3c fd 6a 24 3d
       0.053334247 0.046930913 0.017929096 0.040141094
000310 7c ca 91 3c aa 61 db 3c f5 ce 17 3d 0f 02 20 3d
       0.017796747 0.026779968 0.037062604 0.039064463

encoder.4.weight f4 [150, 200]
000000 74 89 8e 3c 2c 82 55 3d 42 fe 57 bd c6 27 b9 bc
       0.017399527 0.052126095 -0.052732714 -0.022601973
000010 bc ea 93 bc 2c 1c 69 bc c2 c1 a2 bc 6c 6a 99 3c
       -0.018056266 -0.014227908 -0.019867782 0.018727504
000020 e4 21 32 3d a0 14 8d 3b 80 f1 60 3c bc da 33 bc
       0.043489352 0.004305437 0.013729453 -0.010977443
000030 38 88 3d 3c e4 f2 92 3c d4 bc 54 bd 90 4a b4 bc
       0.011568122 0.017938085 -0.051937893 -0.02200821
000040 6c 4d 28 3d 30 23 9c bb bf 77 50 bd 98 b1 39 bc
       0.04108946 -0.004764937 -0.05089545 -0.011333846
000050 26 78 7d 3d ec 75 89 bd 64 c6 fa bc e0 68 e9 bc
       0.06188216 -0.06711945 -0.030612178 -0.028492391
000060 ad 68 30 bd e9 e1 39 bd d4 f4 15 3d 4c cd 71 bd
       -0.043068577 -0.04538146 0.03661044 -0.059033677
000070 6c 7a 13 bd 50 5e fb bb 60 83 86 3c 94 e0 50 bc
       -0.036005422 -0.007671155 0.016420066 -0.012748856
000080 4d ce 2b bd ea af 80 bc 7c 7c 8f bc 04 3b 83 3c
       -0.04194479 -0.015708882 -0.017515413 0.016019352
000090 40 10 1d 3b 80 a0 02 3c 96 3d 50 3d 7a 4f 71 3d
       0.0023965985 0.0079728365 0.050839983 0.058913685
0000a0 de 60 c8 bc 56 f5 d0 bc 24 49 31 bd 14 92 f9 3c
       -0.024460252 -0.02550761 -0.043282643 0.030465163
0000b0 84 3e e9 3c d4 b3 54 3d a0 ca 3c 3d 00 59 ed bb
       0.028472193 0.05192931 0.046091676 -0.0072432756
0000c0 d0 6c 32 bd 1a 90 6b 3d b0 39 32 3d f6 53 7c 3d
       -0.043560803 0.057510473 0.043512046 0.06160351
0000d0 df 91 7f bd f6 1d 39 bd 82 04 68 3d e4 43 ff 3c
       -0.062394973 -0.04519459 0.056644924 0.031160302
0000e0 ec a1 de bc 1b ff 1b bd 18 5f c9 3c b2 8b c5 bc
       -0.02717682 -0.038085084 0.024581477 -0.024114463
0000f0 68 23 17 3c e8 22 32 3c 0c d1 24 3d 29 0e 8e 3d
       0.00922475 0.01087258 0.040238425 0.069362946
000100 5e 79 bd bc 92 fb 6e 3d f2 17 6c bd fa 2f c8 bc
       -0.023129161 0.058345385 -0.057640024 -0.02443694
000110 5c 7a 14 3d 14 71 53 bd d5 b3 30 bd 5f 54 8b 3d
       0.036249503 -0.05162151 -0.04314025 0.06803202
000120 80 0c 22 bd 5f a9 84 3d 68 13 4a bd 8c 56 30 bd
       -0.039562702 0.064776175 -0.049334913 -0.043051288
000130 36 25 56 3d f7 be 41 bd d5 d8 7c bd 8c f0 75 bc
       0.05228158 -0.04730126 -0.061730225 -0.015010964
000140 ff 0d 08 bd a0 ba 7f 3b 8c 58 c0 3c aa 5f ba bc
       -0.033216473 0.003902115 0.023479722 -0.022750694
000150 90 67 28 bc 4e 47 36 bd 8c 02 be bc 8c eb 15 bd
       -0.0102785975 -0.044501595 -0.023194574 -0.036601588
000160 ec a4 2d 3d 8c 03 bd bc 44 55 92 bc 68 42 6d bd
       0.04239361 -0.02307298 -0.017862923 -0.057924658
000170 5c 14 b4 bc 5b 9b 1f bd a0 1a 6a bd 70 ef 98 bb
       -0.021982364 -0.038966518 -0.057154298 -0.004667215
000180 79 80 8e 3d 6c 98 31 bd 40 80 38 3c e0 34 cd 3b
       0.06958098 -0.04335825 0.011261046 0.0062624067
000190 40 88 37 bb f4 01 e8 3c a6 47 09 3d 70 62 4c 3d
       -0.0028004795 0.028321244 0.033515595 0.049898565
0001a0 40 fa 2f 3b 5c 52 fe 3c 2b e0 81 3d 3c 7c 53 bd
       0.0026852041 0.031045131 0.06341585 -0.05163215
0001b0 64 8b 70 bc 24 37 96 bc 30 f8 0a bd d4 f0 30 3d
       -0.014681671 -0.01833684 -0.033928096 0.04319842
0001c0 54 df c4 3c 17 47 83 3d ea 52 55 3d 20 ed ae bc
       0.024032272 0.06410044 0.052081026 -0.021353304
0001d0 38 be 55 3c 40 81 12 bb 18 a5 59 3d 50 3a b8 bc
       0.01304584 -0.002235487 0.05313596 -0.022488743
0001e0 64 59 2a 3d 80 7d 43 3b d8 94 ca bc 3a fa cb bc
       0.041589156 0.0029829443 -0.024729177 -0.02489959
0001f0 62 00 f8 bc 3c 21 f4 3c b3 d8 7b bd 2d 86 55 bd
       -0.03027362 0.029801004 -0.061485957 -0.052129913
000200 57 97 83 3d 28 8c 03 3d f0 e3 7c bc e6 c8 30 bd
       0.0642535 0.032116085 -0.015435204 -0.04316034
000210 00 56 af 3b 68 3d e1 3c 27 6f 8a 3d 12 87 3e 3d
       0.005350828 0.027495101 0.06759482 0.04651553
000220 8a 6e 50 3d 56 80 6a bd 97 96 29 bd 88 12 6e bc
       0.05088667 -0.057251297 -0.04140338 -0.014530785
000230 f5 97 0b bd 7e 51 2d bd 40 6d d6 3a e0 f9 b2 3c
       -0.034080464 -0.042314045 0.0016359463 0.021847665
000240 c6 bd 1f bd 00 18 80 bb 0f f5 8b bd ad be 09 bd
       -0.03899934 -0.003909111 -0.068338506 -0.03362911
000250 f8 bb 88 3c d0 ba 96 3c f4 29 29 3d 88 c6 be 3c
       0.016691193 0.018399626 0.041299775 0.023288026
000260 18 28 ea bc 80 bf 73 ba 10 ee d5 3c b0 1e 15 3d
       -0.028583571 -0.000929825 0.026114494 0.03640622
000270 80 b6 84 3b ba fe 38 bd 6f 8e 8b 3d cc 24 d0 3c
       0.004050076 -0.0451648 0.068142764 0.025408171
000280 75 0e 8c 3d 92 e5 8f bd 74 af df 3c a1 da 83 3d
       0.06838695 -0.07026209 0.027305342 0.064381845
000290 00 17 56 3b 4c 72 9c 3c 28 76 6d bc 80 28 f8 bb
       0.0032667518 0.01909747 -0.014493503 -0.0075731874
0002a0 2c 18 34 bc bd f7 89 3d 46 b4 82 bd 76 79 b4 bc
       -0.010992091 0.067367055 -0.06382041 -0.022030573
0002b0 f8 e5 2a bd c4 e3 11 bd e1 9e 8e 3d b0 97 a9 3c
       -0.04172322 -0.035617605 0.069638975 0.020702213
0002c0 15 a5 90 3d 2e c0 b8 bc fd 97 3e bd c5 e7 8c 3d
       0.07062737 -0.022552576 -0.046531666 0.06880144
0002d0 40 31 ff 3b 32 65 17 bd 14 00 e8 3c b0 e7 18 3c
       0.0077878535 -0.03696174 0.02832035 0.009332582
0002e0 44 6c 28 bc 6c ab 18 bd 72 66 8e bd 78 95 37 bc
       -0.010279719 -0.037272856 -0.06953134 -0.01120507
0002f0 d4 ff 42 3d 93 d2 50 bd 12 11 53 bd c0 b7 a6 3a
       0.047607258 -0.05098207 -0.05152995 0.0012719557
000300 2f 6c 8f bd 54 b9 95 bc cf d4 5d bd 4c d1 33 3d
       -0.07003056 -0.018276848 -0.05415803 0.043900773
000310 b8 1a 81 bd ba 5e c3 bc 2c 51 1b bd 1c 50 54 3d
       -0.06303924 -0.02384888 -0.03791921 0.05183421
000320 6c 57 27 bd a7 40 89 3d 38 cb 07 3d 30 f0 4a bd
       -0.040854856 0.067017846 0.03315279 -0.049545467
000330 ba c1 78 3d 4a f3 34 3d cb 1b 13 bd a0 02 f9 bb
       0.060731627 0.04417733 -0.035915177 -0.00759919
000340 02 92 30 3d 48 f3 c6 bc 48 48 f7 3c 44 d8 cc 3c
       0.043107994 -0.024285927 0.030185834 0.025005467
000350 e8 4e 89 bd b8 62 5d 3d b3 04 84 3d 48 81 02 3c
       -0.06704503 0.054049224 0.06446209 0.007965393
000360 94 95 89 bd 6b 5c 70 bd 78 1f 6d bd 0a 28 5b 3d
       -0.06717983 -0.058681887 -0.05789134 0.05350498
000370 44 2f 2a bd a8 73 b0 3c c2 d4 69 3d 14 47 d6 3c
       -0.041548982 0.021539524 0.057087667 0.02615694
000380 ce 0f 40 bd b4 4c d3 3c 40 19 4d bb b3 a2 88 3d
       -0.046890073 0.02579341 -0.0031295568 0.066716574
000390 e5 ac 7b bd 7c a0 fa bc 1e ca 97 bc bb cc 8a bd
       -0.061444182 -0.030594103 -0.018528994 -0.067773305
0003a0 80 16 28 3a 44 07 25 3d 54 f5 87 3c 92 35 4e bd
       0.0006412044 0.040290132 0.016596474 -0.050344057
0003b0 24 58 3c 3d ac 0f fc 3c 29 76 8f 3d c5 0f 61 bd
       0.045982495 0.030769192 0.07004959 -0.05494668
0003c0 40 ec 7c bc 2e 4b f2 bc dc 96 cf 3c 90 7e 79 bd
       -0.015437186 -0.029576864 0.02534049 -0.060911715
0003d0 10 3e 85 bb a0 ba 14 bc 82 c2 68 3d e6 8a 63 3d
       -0.0040662363 -0.009077698 0.056826122 0.055552386
0003e0 78 55 80 3c 04 2f 8e 3c 1e 7d dc bc 8e 84 65 bd
       0.015665755 0.017356403 -0.02691513 -0.056034617
0003f0 60 e2 2c 3b 42 45 7e 3d d4 69 ea 3c 94 10 ce 3c
       0.0026380047 0.06207777 0.028614916 0.02515439

encoder.4.bias f4 [150]
000000 50 67 87 3c cc d2 c9 3c ea 4a 34 3d 8c 54 4d 3d
       0.016528755 0.024636649 0.044016756 0.05012946
000010 74 ad f9 bc 9e 1f 20 3d ec a0 56 bd 48 80 a5 bc
       -0.030478217 0.039092652 -0.05239956 -0.02020277
000020 c0 7f dd 3b 74 0f ee 3c 9c 88 9f 3c 10 96 21 bc
       0.0067596138 0.029060103 0.01947432 -0.009862438
000030 ac 13 93 3c 4d 58 90 bd 0e 1e 22 3d 84 76 90 bd
       0.017953716 -0.07048092 0.039579444 -0.07053855
000040 fd 38 5e bd 3c 7e a9 bc ae 16 52 3d b6 72 6f 3d
       -0.054253567 -0.020690076 0.05129116 0.058459006
000050 72 81 59 bd ce 1a 70 3d bc ce 4d 3d 5c 7a ec 3c
       -0.053101964 0.058619313 0.050245985 0.02886694
000060 00 74 96 b9 7e 18 7a 3d a4 aa 47 bd 48 b6 de 3c
       -0.00028696656 0.061058514 -0.04874672 0.027186528
000070 b2 25 7a bd 70 c0 c2 3c 86 b6 02 bd 8f 81 81 3d
       -0.061071105 0.023773402 -0.03191235 0.063235395
000080 6c a1 06 3d 41 68 18 bd da 7e 5d bd 38 a4 5c 3c
       0.032868788 -0.0372088 -0.054076053 0.013466887
000090 70 9e b6 bc ec b7 29 3d 40 2f 70 3c 00 ed dc ba
       -0.022292346 0.041435167 0.014659703 -0.00168553
0000a0 e0 0a 42 3d 46 3a 5a 3d 80 7b dc 3c ec e5 42 3d
       0.047373652 0.05327823 0.026914358 0.04758255
0000b0 5b 32 03 bd 40 44 48 bd 20 af 13 bc c6 d5 32 bd
       -0.032030445 -0.048893213 -0.009013921 -0.0436609
0000c0 48 be 91 bc 6e af 68 bd 68 a2 df bc 30 5c 3b bd
       -0.017790928 -0.056807928 -0.027299121 -0.045742214
0000d0 d0 73 8d 3b 60 48 8d bc ac 91 07 3d b8 44 06 bd
       0.0043167844 -0.017246425 0.033097908 -0.03278038
0000e0 f5 08 83 3d bc c8 8a 3c 00 ae c9 bb 78 ec 32 bd
       0.06398193 0.01694142 -0.0061547756 -0.043682545
0000f0 80 28 73 bb cc f4 da 3c a9 61 21 bd aa 24 76 3d
       -0.0037102997 0.026728056 -0.039399777 0.06009356
000100 c1 db 83 bd 06 70 c0 bc fc 52 ad 3c 46 5e 26 bd
       -0.06438399 -0.023490917 0.021157734 -0.04061725
000110 b8 5c f5 bc d7 67 16 bd 00 3a 66 39 ac fc 2f bd
       -0.029951438 -0.036720123 0.00021956116 -0.042965576
000120 40 fe 14 bb a0 3a c7 3b 2a 0a 89 bd 4c 94 b7 bc
       -0.0022734553 0.0060799867 -0.06691392 -0.02240958
000130 1b 85 0b bd bc bb 5c 3d b2 57 32 bd a7 17 8e 3d
       -0.034062486 0.053889975 -0.043540664 0.06938105
000140 18 05 23 bc 4c b2 46 3d 46 86 53 bd c2 4a 65 bd
       -0.009949945 0.04850988 -0.051641725 -0.055979498
000150 71 8a 0d bd b4 ea 1d 3d 3c f4 d3 3c c0 f1 1c bb
       -0.034555856 0.03855391 0.025873296 -0.0023947805
000160 b8 8a 5e 3c ce bb c4 bc ec f8 21 bc 58 84 fc bc
       0.013582878 -0.024015334 -0.009886008 -0.030824825
000170 6f 4b 40 bd 40 8c d8 3c ba 72 3e 3d 60 ff 89 3c
       -0.04694694 0.026434064 0.04649613 0.016845405
000180 18 55 b6 bc d0 3f 10 bc 68 a3 38 bc ae f6 3a bd
       -0.022257373 -0.008804277 -0.011269428 -0.04564541
000190 24 41 f9 bc a8 23 2d 3d 78 a8 59 3c e6 33 51 bd
       -0.03042657 0.042270333 0.013284795 -0.051074885
0001a0 52 c6 62 bd f8 95 58 3d 5b a6 7a bd f3 a3 82 3d
       -0.055364914 0.052877396 -0.061193805 0.06378927
0001b0 28 63 96 3c fa d6 7c bd 79 17 8d 3d 16 34 37 bd
       0.018357828 -0.061728455 0.06889243 -0.044727407
0001c0 0c e8 08 3d 7c 3d bc 3c 6d b6 00 bd 50 c2 8c 3b
       0.033424422 0.022978537 -0.031423975 0.004295625
0001d0 f6 39 8c bd 1c 84 49 bd 82 6f 7a 3d bc f2 43 3d
       -0.06846993 -0.049198255 0.0611415 0.04783891
0001e0 93 06 90 3d 1d 2f 75 bd 4e c2 08 3d 60 eb c4 bc
       0.07032504 -0.059859384 0.03338843 -0.024038017
0001f0 d6 c4 67 bd 50 a4 87 3b 5c 3c f8 bc 4a 9e 78 3d
       -0.0565842 0.0041394606 -0.03030222 0.06069783
000200 c0 23 90 bc dc e4 f3 3c c8 df 3e 3c 3e a0 31 3d
       -0.017595172 0.029772215 0.011650033 0.04336571
000210 4c 2d 57 3d 78 f7 7c bd 10 62 34 3d 40 c1 65 bb
       0.052533433 -0.061759442 0.044038832 -0.0035057813
000220 8e c8 2b bd 75 bc 28 bd 60 00 07 3b 02 91 37 bd
       -0.04193931 -0.04119535 0.0020599589 -0.044816025
000230 40 8c 53 bd 3b 0b 0f bd eb 87 80 3d 48 76 38 bd
       -0.051647425 -0.03492282 0.06275924 -0.045034677
000240 f2 24 66 3d a9 fa 84 3d 5c 25 02 3d 10 bf bc 3b
       0.056187578 0.06493122 0.03177391 0.005760081
000250 bb 4d 76 bd c9 36 8f 3d
       -0.060132723 0.06992871

encoder.5.weight f4 [150]
000000 00 00 80 3f 00 00 80 3f 00 00 80 3f 00 00 80 3f
       1.0 1.0 1.0 1.0
000010 00 00 80 3f 00 00 80 3f 00 00 80 3f 00 00 80 3f
       1.0 1.0 1.0 1.0
000020 00 00 80 3f 00 00 80 3f 00 00 80 3f 00 00 80 3f
       1.0 1.0 1.0 1.0
000030 00 00 80 3f 00 00 80 3f 00 00 80 3f 00 00 80 3f
       1.0 1.0 1.0 1.0
000040 00 00 80 3f 00 00 80 3f 00 00 80 3f 00 00 80 3f
       1.0 1.0 1.0 1.0
000050 00 00 80 3f 00 00 80 3f 00 00 80 3f 00 00 80 3f
       1.0 1.0 1.0 1.0
000060 00 00 80 3f 00 00 80 3f 00 00 80 3f 00 00 80 3f
       1.0 1.0 1.0 1.0
000070 00 00 80 3f 00 00 80 3f 00 00 80 3f 00 00 80 3f
       1.0 1.0 1.0 1.0
000080 00 00 80 3f 00 00 80 3f 00 00 80 3f 00 00 80 3f
       1.0 1.0 1.0 1.0
000090 00 00 80 3f 00 00 80 3f 00 00 80 3f 00 00 80 3f
       1.0 1.0 1.0 1.0
0000a0 00 00 80 3f 00 00 80 3f 00 00 80 3f 00 00 80 3f
       1.0 1.0 1.0 1.0
0000b0 00 00 80 3f 00 00 80 3f 00 00 80 3f 00 00 80 3f
       1.0 1.0 1.0 1.0
0000c0 00 00 80 3f 00 00 80 3f 00 00 80 3f 00 00 80 3f
       1.0 1.0 1.0 1.0
0000d0 00 00 80 3f 00 00 80 3f 00 00 80 3f 00 00 80 3f
       1.0 1.0 1.0 1.0
0000e0 00 00 80 3f 00 00 80 3f 00 00 80 3f 00 00 80 3f
       1.0 1.0 1.0 1.0
0000f0 00 00 80 3f 00 00 80 3f 00 00 80 3f 00 00 80 3f
       1.0 1.0 1.0 1.0
000100 00 00 80 3f 00 00 80 3f 00 00 80 3f 00 00 80 3f
       1.0 1.0 1.0 1.0
000110 00 00 80 3f 00 00 80 3f 00 00 80 3f 00 00 80 3f
       1.0 1.0 1.0 1.0
000120 00 00 80 3f 00 00 80 3f 00 00 80 3f 00 00 80 3f
       1.0 1.0 1.0 1.0
000130 00 00 80 3f 00 00 80 3f 00 00 80 3f 00 00 80 3f
       1.0 1.0 1.0 1.0
000140 00 00 80 3f 00 00 80 3f 00 00 80 3f 00 00 80 3f
       1.0 1.0 1.0 1.0
000150 00 00 80 3f 00 00 80 3f 00 00 80 3f 00 00 80 3f
       1.0 1.0 1.0 1.0
000160 00 00 80 3f 00 00 80 3f 00 00 80 3f 00 00 80 3f
       1.0 1.0 1.0 1.0
000170 00 00 80 3f 00 00 80 3f 00 00 80 3f 00 00 80 3f
       1.0 1.0 1.0 1.0
000180 00 00 80 3f 00 00 80 3f 00 00 80 3f 00 00 80 3f
       1.0 1.0 1.0 1.0
000190 00 00 80 3f 00 00 80 3f 00 00 80 3f 00 00 80 3f
       1.0 1.0 1.0 1.0
0001a0 00 00 80 3f 00 00 80 3f 00 00 80 3f 00 00 80 3f
       1.0 1.0 1.0 1.0
0001b0 00 00 80 3f 00 00 80 3f 00 00 80 3f 00 00 80 3f
       1.0 1.0 1.0 1.0
0001c0 00 00 80 3f 00 00 80 3f 00 00 80 3f 00 00 80 3f
       1.0 1.0 1.0 1.0
0001d0 00 00 80 3f 00 00 80 3f 00 00 80 3f 00 00 80 3f
       1.0 1.0 1.0 1.0
0001e0 00 00 80 3f 00 00 80 3f 00 00 80 3f 00 00 80 3f
       1.0 1.0 1.0 1.0
0001f0 00 00 80 3f 00 00 80 3f 00 00 80 3f 00 00 80 3f
       1.0 1.0 1.0 1.0
000200 00 00 80 3f 00 00 80 3f 00 00 80 3f 00 00 80 3f
       1.0 1.0 1.0 1.0
000210 00 00 80 3f 00 00 80 3f 00 00 80 3f 00 00 80 3f
       1.0 1.0 1.0 1.0
000220 00 00 80 3f 00 00 80 3f 00 00 80 3f 00 00 80 3f
       1.0 1.0 1.0 1.0
000230 00 00 80 3f 00 00 80 3f 00 00 80 3f 00 00 80 3f
       1.0 1.0 1.0 1.0
000240 00 00 80 3f 00 00 80 3f 00 00 80 3f 00 00 80 3f
       1.0 1.0 1.0 1.0
000250 00 00 80 3f 00 00 80 3f
       1.0 1.0

encoder.5.bias f4 [150]
000000 00 00 00 00 00 00 00 00 00 00 00 00 00 00 00 00
       0.0 0.0 0.0 0.0
000010 00 00 00 00 00 00 00 00 00 00 00 00 00 00 00 00
       0.0 0.0 0.0 0.0
000020 00 00 00 00 00 00 00 00 00 00 00 00 00 00 00 00
       0.0 0.0 0.0 0.0
000030 00 00 00 00 00 00 00 00 00 00 00 00 00 00 00 00
       0.0 0.0 0.0 0.0
000040 00 00 00 00 00 00 00 00 00 00 00 00 00 00 00 00
       0.0 0.0 0.0 0.0
000050 00 00 00 00 00 00 00 00 00 00 00 00 00 00 00 00
       0.0 0.0 0.0 0.0
000060 00 00 00 00 00 00 00 00 00 00 00 00 00 00 00 00
       0.0 0.0 0.0 0.0
000070 00 00 00 00 00 00 00 00 00 00 00 00 00 00 00 00
       0.0 0.0 0.0 0.0
000080 00 00 00 00 00 00 00 00 00 00 00 00 00 00 00 00
       0.0 0.0 0.0 0.0
000090 00 00 00 00 00 00 00 00 00 00 00 00 00 00 00 00
       0.0 0.0 0.0 0.0
0000a0 00 00 00 00 00 00 00 00 00 00 00 00 00 00 00 00
       0.0 0.0 0.0 0.0
0000b0 00 00 00 00 00 00 00 00 00 00 00 00 00 00 00 00
       0.0 0.0 0.0 0.0
0000c0 00 00 00 00 00 00 00 00 00 00 00 00 00 00 00 00
       0.0 0.0 0.0 0.0
0000d0 00 00 00 00 00 00 00 00 00 00 00 00 00 00 00 00
       0.0 0.0 0.0 0.0
0000e0 00 00 00 00 00 00 00 00 00 00 00 00 00 00 00 00
       0.0 0.0 0.0 0.0
0000f0 00 00 00 00 00 00 00 00 00 00 00 00 00 00 00 00
       0.0 0.0 0.0 0.0
000100 00 00 00 00 00 00 00 00 00 00 00 00 00 00 00 00
       0.0 0.0 0.0 0.0
000110 00 00 00 00 00 00 00 00 00 00 00 00 00 00 00 00
       0.0 0.0 0.0 0.0
000120 00 00 00 00 00 00 00 00 00 00 00 00 00 00 00 00
       0.0 0.0 0.0 0.0
000130 00 00 00 00 00 00 00 00 00 00 00 00 00 00 00 00
       0.0 0.0 0.0 0.0
000140 00 00 00 00 00 00 00 00 00 00 00 00 00 00 00 00
       0.0 0.0 0.0 0.0
000150 00 00 00 00 00 00 00 00 00 00 00 00 00 00 00 00
       0.0 0.0 0.0 0.0
000160 00 00 00 00 00 00 00 00 00 00 00 00 00 00 00 00
       0.0 0.0 0.0 0.0
000170 00 00 00 00 00 00 00 00 00 00 00 00 00 00 00 00
       0.0 0.0 0.0 0.0
000180 00 00 00 00 00 00 00 00 00 00 00 00 00 00 00 00
       0.0 0.0 0.0 0.0
000190 00 00 00 00 00 00 00 00 00 00 00 00 00 00 00 00
       0.0 0.0 0.0 0.0
0001a0 00 00 00 00 00 00 00 00 00 00 00 00 00 00 00 00
       0.0 0.0 0.0 0.0
0001b0 00 00 00 00 00 00 00 00 00 00 00 00 00 00 00 00
       0.0 0.0 0.0 0.0
0001c0 00 00 00 00 00 00 00 00 00 00 00 00 00 00 00 00
       0.0 0.0 0.0 0.0
0001d0 00 00 00 00 00 00 00 00 00 00 00 00 00 00 00 00
       0.0 0.0 0.0 0.0
0001e0 00 00 00 00 00 00 00 00 00 00 00 00 00 00 00 00
       0.0 0.0 0.0 0.0
0001f0 00 00 00 00 00 00 00 00 00 00 00 00 00 00 00 00
       0.0 0.0 0.0 0.0
000200 00 00 00 00 00 00 00 00 00 00 00 00 00 00 00 00
       0.0 0.0 0.0 0.0
000210 00 00 00 00 00 00 00 00 00 00 00 00 00 00 00 00
       0.0 0.0 0.0 0.0
000220 00 00 00 00 00 00 00 00 00 00 00 00 00 00 00 00
       0.0 0.0 0.0 0.0
000230 00 00 00 00 00 00 00 00 00 00 00 00 00 00 00 00
       0.0 0.0 0.0 0.0
000240 00 00 00 00 00 00 00 00 00 00 00 00 00 00 00 00
       0.0 0.0 0.0 0.0
000250 00 00 00 00 00 00 00 00
       0.0 0.0
