neural_network/best_checkpoint.pth (torch, 246843 bytes, 12 tensors)

encoder.0.weight f4 [150, 330]
000000 48 4f 8e bb a8 7f f0 bc 2a 77 51 bd 80 e7 6e bc
       -0.004342947 -0.029357746 -0.051139034 -0.014581561
000010 5a 54 1e bd 40 06 1e 3c 06 e1 44 bd b0 ea 92 3b
       -0.038654663 0.009645045 -0.04806616 0.0044835433
000020 c0 d9 90 3a 80 60 cc b9 fc 83 ec bc 10 85 f7 bc
       0.0011051223 -0.0003898181 -0.028871529 -0.030214816
000030 58 4b 4a 3c 9a 4c 1b 3d 20 37 a1 3c 58 fc 9e 3c
       0.012347065 0.03791485 0.019679606 0.019407436
000040 0c d1 22 bd 2c 39 35 3d 50 de a5 bb 40 a3 8e 3c
       -0.039750144 0.044243976 -0.005061902 0.017411828
000050 68 14 ee 3b 38 8f 4a 3d e0 46 60 3c 00 c7 50 3d
       0.007265616 0.04945299 0.013688773 0.05097103
000060 64 26 51 3d 80 6a 2f 3d 7b 62 48 bd e4 f6 b5 3c
       0.051062003 0.042826176 -0.048922043 0.022212453
000070 00 45 cd 3c 00 48 02 3c 90 07 e4 3b c0 a9 a1 bc
       0.025057316 0.007951736 0.0069589093 -0.019734263
000080 c8 b8 91 3c fe 67 2e 3d b6 19 00 3d f0 f3 79 3c
       0.017788306 0.042579643 0.03127452 0.015255913
000090 5e 4d cb bc 24 c7 08 bc 60 a4 ed 3a cc c4 b9 3c
       -0.024817165 -0.00834826 0.0018130653 0.022676848
0000a0 4e fb af bc 12 ce 0d 3d cc d6 a2 bc 8c 4c cf bc
       -0.021482136 0.034620352 -0.019877814 -0.025305055
0000b0 40 02 36 3c 15 79 4b bd 70 7c 50 bb c0 57 25 3c
       0.011108935 -0.04967602 -0.0031812452 0.010091722
0000c0 ec 0e 60 bc 98 71 1a bc 86 0b 44 3d 3e 85 2b 3d
       -0.013675433 -0.009426497 0.047862552 0.041875117
0000d0 7e ab 5c bd c0 d2 d1 bb e6 ac 5e bd 50 50 47 3c
       -0.053874485 -0.006403297 -0.054364108 0.012165144
0000e0 20 05 20 3b f1 b2 46 bd 12 ab 41 bd 50 19 05 bc
       0.0024417117 -0.048510496 -0.047282286 -0.008123711
0000f0 58 71 4b 3d 00 f5 07 39 74 77 11 bd 02 c2 9d bc
       0.04966864 0.00012965873 -0.03551431 -0.01925755
000100 b6 12 17 3d 7c bb d9 bc c2 ef 00 bd 8c eb 0a 3d
       0.03688308 -0.026578657 -0.03147865 0.03391604
000110 7e 6e 1b 3d c0 a7 fd 3b 48 fb 89 bb a2 79 38 3d
       0.03794717 0.0077409446 -0.0042108633 0.045037873
000120 88 ec 1c 3c 7e 5d 01 3d b0 c1 f8 bc 12 97 5f 3d
       0.009577878 0.0315833 -0.030365795 0.05458743
000130 1c 5c b8 3c 56 55 9a bc e4 5e ef 3c 00 84 3d 3c
       0.022504859 -0.01883952 0.029220052 0.011567116
000140 b0 bc 12 bd c8 fa 80 bb b4 0a 0d 3d fc c6 43 bd
       -0.035824478 -0.0039361455 0.034434035 -0.04779719
000150 48 13 97 3c 78 0d 54 bc 2a b3 30 bd eb f2 2d bd
       0.018441811 -0.012942664 -0.043139614 -0.042467993
000160 f2 cf 5c 3d 66 8d 0b 3d 18 eb be bb e0 34 4e 3c
       0.05390925 0.034070395 -0.005826365 0.012585849
000170 00 cd 1a 3d ac f9 32 3d 80 8a 27 3d c0 a0 62 3c
       0.03779316 0.043695137 0.04090357 0.013832271
000180 98 0e dc 3c a6 49 1b 3d 68 d7 57 3c 98 e0 1c bd
       0.026862428 0.037912033 0.013173915 -0.038300127
000190 98 d5 d4 3c 2e 1b 4e bd b9 c9 59 bd 80 0b 06 3d
       0.025980756 -0.05031889 -0.053170893 0.03272581
0001a0 64 89 4c bc 58 d9 94 bb 44 eb 66 bc 98 ab 11 bc
       -0.012483928 -0.004542511 -0.014094178 -0.008891009
0001b0 30 5e ae 3c d8 17 3f 3d 7a c3 21 3d 28 80 47 3c
       0.021285146 0.0466536 0.03949306 0.012176551
0001c0 80 04 cc 3c a0 1a 59 3d e0 9a 1c bc e8 1f c4 3c
       0.02490449 0.053003907 -0.009558409 0.023940995
0001d0 80 67 4b 3c 5a d4 1a 3d cd 29 11 bd 7c fe a8 3c
       0.012414813 0.03780017 -0.035440255 0.02062916
0001e0 70 25 a6 3b 60 da 33 3c bb 02 38 bd a8 eb df bb
       0.005070381 0.010977358 -0.04492448 -0.0068335123
0001f0 e8 0b 0e 3c 98 1a 39 3c 93 16 3b bd d0 df 54 bb
       0.008669831 0.011297844 -0.045675825 -0.0032482035
000200 f8 65 d8 3b 48 9b 97 3b 84 2c 8d bc 88 4b 9b 3c
       0.0066039525 0.0046266653 -0.01723314 0.018956915
000210 20 82 af bb e4 3e 83 3c c0 f6 35 3c 86 b0 4a 3d
       -0.0053560883 0.0160212 0.011106193 0.049484752
000220 9b f8 4f bd 70 29 29 3c a2 2b 2e 3d 9a 78 02 3d
       -0.050774198 0.010324821 0.04252208 0.031853296
000230 8c da ea 3c 76 aa 0f 3d c6 bc 1d bd 7c 41 1c 3d
       0.028668664 0.035074674 -0.038510107 0.03814839
000240 1a 80 44 3d f8 a2 27 3c 58 dd 39 bd 0e c7 bc bc
       0.04797373 0.010231726 -0.045377105 -0.023044135
000250 7c 1f 90 bc 50 ed 2c 3c 40 c6 4e bc b0 74 ef 3b
       -0.017593138 0.010554627 -0.012620509 0.0073076114
000260 10 e3 1e 3c c8 dd 2a bc 8c fe 34 3d 30 04 7f bc
       0.009697691 -0.010428853 0.044188067 -0.015564963
000270 a0 cd eb 3c 84 48 5a 3d 80 d2 d6 b9 48 09 2f 3c
       0.028784573 0.053291813 -0.00040974095 0.010683365
000280 c0 c7 40 3d 3e 91 5f 3d e4 d7 f3 bc 99 34 04 bd
       0.047065496 0.054581873 -0.02976603 -0.032276724
000290 e4 91 8c 3c eb 79 4e bd 48 9b c4 bb f6 65 3e 3d
       0.01715941 -0.05040924 -0.0059999563 0.046483956
0002a0 88 04 ba 3b d8 e2 b0 bc 70 30 ee 3b 50 3b 10 3c
       0.0056768097 -0.021592543 0.007268958 0.008803204
0002b0 3d 80 60 bd 10 82 f9 bb 5e db 37 bd c8 69 de 3b
       -0.054809798 -0.0076143816 -0.04488694 0.0067875125
0002c0 e0 8b a0 ba b0 68 c6 bb 90 af f7 3b a8 3f e7 bb
       -0.0012248717 -0.00605496 0.0075587705 -0.007057149
0002d0 92 28 25 3d 80 13 aa 3b 46 b9 45 3d 76 2c 02 bd
       0.040321894 0.005190313 0.048272394 -0.031780683
0002e0 11 e0 d9 bc 6e 57 b3 bc c4 0a 93 bc d8 dd 5c 3c
       -0.026596101 -0.021892276 -0.01794947 0.013480626
0002f0 4c 57 1b 3d 28 7f 60 3d 74 18 29 bd ec 01 e9 3c
       0.03792505 0.054808766 -0.041283086 0.0284433
000300 49 78 d8 bc d6 d5 bd bc 70 9c 5a bc 4e 43 fe bc
       -0.026424544 -0.023173254 -0.013342962 -0.031037953
000310 70 0b e4 bb e0 93 d9 3c 60 bb dc ba ac 28 da 3c
       -0.0069593713 0.02655977 -0.001684051 0.026630722
000320 ce 1a 46 3d 80 b7 ba 3a 13 00 38 bd 50 0b 7c bc
       0.048365407 0.0014245361 -0.044921946 -0.0153835565
000330 08 ee c7 3c 98 7b 5c 3c 28 84 8b 3c c4 fa 83 3c
       0.024405494 0.013457201 0.01703079 0.016110785
000340 d0 61 6a 3c 20 7b cb 3c 4c 7b 23 bc a8 6a f0 bc
       0.014305547 0.024838984 -0.009978127 -0.029347733
000350 8c da 62 bc 92 89 5b 3d f0 06 10 3d d8 5d c5 bc
       -0.013846051 0.053597994 0.035162866 -0.0240926
000360 e5 59 cf bc 62 b8 15 bd 34 76 a5 3c e4 2b 59 3d
       -0.02531142 -0.036552794 0.020197965 0.053020373
000370 70 27 d4 3b 80 c6 29 bd 28 86 21 bc 1c 56 99 bc
       0.006474428 -0.04144907 -0.0098586455 -0.018717818
000380 2a c4 a1 bc aa f9 42 3d 34 a7 13 3d f9 84 2d bd
       -0.019746859 0.04760138 0.03604813 -0.04236314
000390 48 9f 5f 3d d8 1c 44 3c 58 89 27 3d f0 50 1d 3b
       0.05459526 0.0119697675 0.040902466 0.0024004541
0003a0 c4 73 8a 3c 00 52 6f bc 8c c5 21 bc c2 35 12 3d
       0.016900904 -0.014606953 -0.009873759 0.0356958
0003b0 36 9d 94 bc 86 6b a4 bc a2 70 3d 3d 98 20 db 3c
       -0.01814137 -0.020070802 0.046249993 0.02674894
0003c0 48 70 88 3b cc b0 ea 3c 36 73 58 bd b0 5a 40 3c
       0.0041637756 0.028648756 -0.05284425 0.011740372
0003d0 8c be 4c bc ac 0a 88 3c 50 5f 9c 3c 80 2c 15 3b
       -0.012496602 0.016606651 0.019088417 0.002276212
0003e0 e8 f4 ea 3b 1a 46 51 bd 40 78 b1 3b b8 b1 4f bc
       0.0071703084 -0.051092245 0.0054159462 -0.012676649
0003f0 0c 2c 36 3d 80 bc ba ba fc 11 37 bd 66 7c 83 bc
       0.0444756 -0.0014246851 -0.044694886 -0.016050529

encoder.0.bias f4 [150]
000000 42 31 1a 3d 02 07 4d 3d f8 ba b1 bc 84 1d 94 3c
       0.037644632 0.05005551 -0.021695599 0.01808048
000010 fd 16 4c bd bc fe 8f 3c 9c 20 15 bd b3 13 44 bd
       -0.04982661 0.017577522 -0.03640805 -0.04787035
000020 2c 23 16 bd 58 0c 6d 3c 0e 03 9a bc 38 7c 3a 3d
       -0.036654636 0.014468275 -0.018800285 0.04552862
000030 29 d3 1b bd bc ed 1f bd 1e a4 60 3d 6e 94 b8 bc
       -0.038043175 -0.03904508 0.054844014 -0.022531714
000040 e1 c4 19 bd ec 52 08 3d 48 7f 2a 3c 76 ce 3d 3d
       -0.037541274 0.033282205 0.010406323 0.046339475
000050 50 bc 3b bd 9d a9 5c bd e0 f5 f5 bb fc 6a 2e bc
       -0.045833886 -0.053872693 -0.007506117 -0.010645624
000060 a4 88 59 bc 48 76 45 3d ab 7a 3c bd 44 cf a0 bc
       -0.013277207 0.048208505 -0.046015423 -0.019630082
000070 40 c7 4a 3c d4 c6 39 3d eb b6 00 bd 20 a2 ee bb
       0.012376606 0.045355633 -0.031424444 -0.0072825104
000080 ae c4 5c 3d 60 6d db ba 6c 77 11 3d 48 f0 fa 3c
       0.053898506 -0.001674097 0.03551428 0.030632153
000090 90 a4 06 3d 00 51 d6 bb b0 e1 3f 3c 07 ab 3c bd
       0.032871783 -0.0065404177 0.011711523 -0.046061542
0000a0 cb cb 59 bd e0 ff 3a 3d 98 1c 49 3c 82 a0 5a bd
       -0.053172868 0.045654178 0.012274884 -0.05337573
0000b0 70 14 b5 bc e7 50 3d bd 00 55 14 3b ce 11 c3 bc
       -0.022104472 -0.046219733 0.0022633672 -0.0238122
0000c0 68 d0 64 3c 92 02 5a 3d 28 00 7f bc b2 cb 1b 3d
       0.013965704 0.053225107 -0.015564002 0.038036056
0000d0 54 bb b6 3c de ca 56 3d 02 4f 28 bd 20 39 8f bb
       0.022306122 0.052439563 -0.041090973 -0.0043708235
0000e0 14 70 b9 3c 60 ac 02 bb e0 3a 2b 3c fc 9a 4b 3d
       0.02263645 -0.001993917 0.010451049 0.04970835
0000f0 40 95 33 3c dc 90 80 3c 98 4d e4 3c db fc 48 bd
       0.010960877 0.015694074 0.02786903 -0.049069267
000100 e8 3c 14 bd e2 73 c2 bc b2 09 e4 bc 1c 5d c0 3c
       -0.036190897 -0.023736898 -0.027836654 0.023481898
000110 30 97 bf 3c 06 bb 99 bc ac 02 0c bc 1c c2 9e bc
       0.023387522 -0.018765938 -0.008545559 -0.019379668
000120 9e 78 30 3d ee f6 54 bd d1 d0 48 bd 1e ca 03 3d
       0.04308378 -0.051993303 -0.049027268 0.032175176
000130 00 90 3c bc 3d ae 3b bd e6 22 09 3d 58 53 c6 bc
       -0.011508942 -0.045820463 0.033480547 -0.024209663
000140 b8 1d 47 3d 00 8d 7a b9 98 09 23 bd 94 00 fc 3c
       0.048612326 -0.00023894385 -0.03980407 0.030761994
000150 0a 63 1f 3d a8 0e 28 3d 2c 7e 0d bc e0 6c 4a bd
       0.03891281 0.041029602 -0.008636039 -0.049420238
000160 e8 21 5b 3c 18 09 df 3b 18 68 2f bd f4 9b 82 3c
       0.013374783 0.006806504 -0.04282388 0.015943505
000170 80 23 c6 3c 68 63 46 bd af d7 40 bd 08 8f 64 bc
       0.02418685 -0.048434645 -0.047080692 -0.013950117
000180 30 4f 9e bb 38 c9 57 bc 20 ad 50 bc 9c 27 df bc
       -0.004831217 -0.013170533 -0.012736589 -0.027240567
000190 80 a4 4f 3c f4 f6 1f bd d8 21 1f 3c c0 e0 78 3c
       0.012673497 -0.039053872 0.009712659 0.015190303
0001a0 30 a2 4c 3c 58 4d 8a 3c d4 ad 2f 3d a0 ab 32 3d
       0.01248984 0.016882583 0.042890385 0.043620706
0001b0 de c7 59 3d 68 85 a9 3b 14 5e 35 3d 38 cb 9a 3b
       0.053169124 0.005173374 0.044279173 0.0047239326
0001c0 30 1e 98 3c 1c 05 87 3c 2a 08 3b bd 22 ee b1 bc
       0.018569082 0.016481929 -0.045662083 -0.021719996
0001d0 48 f1 41 3d 46 53 28 3d c8 81 fd 3c 40 2a b3 bb
       0.047349244 0.04109504 0.030945674 -0.005467683
0001e0 ec 50 27 bd ec d3 8b 3c 2a e2 34 3d 10 2c 6a 3c
       -0.040848657 0.017068826 0.044161 0.014292732
0001f0 d6 dc 4e 3d f6 3c 25 bd 28 72 a0 3b 40 c1 eb ba
       0.050503574 -0.04034134 0.004896421 -0.001798667
000200 fc 8c 86 3c 88 3c b3 bb ac de d0 3c 20 f9 b7 3c
       0.016424648 -0.0054698624 0.025496803 0.02245766
000210 a0 5e 00 3d 43 d3 05 bd d6 41 03 bd c0 48 83 3b
       0.03134024 -0.032672178 -0.032045208 0.004006475
000220 bc c7 2c bd 90 4d a9 3c 14 17 d1 3c 80 c2 3e 3c
       -0.04218267 0.020666867 0.0255237 0.011643052
000230 c3 2d 25 bd 6c 5f 4e bd e4 df 64 bc ea 47 49 3d
       -0.040326845 -0.05038397 -0.013969395 0.04914085
000240 a6 f5 a2 bc da d1 4b bd 38 10 c8 3b 10 cb f0 3b
       -0.019892525 -0.049760677 0.006105449 0.0073484257
000250 58 0c 3d 3c 70 51 2d 3c
       0.0115385875 0.010578498

encoder.1.weight f4 [150]
000000 00 00 80 3f 00 00 80 3f 00 00 80 3f 00 00 80 3f
       1.0 1.0 1.0 1.0
000010 00 00 80 3f 00 00 80 3f 00 00 80 3f 00 00 80 3f
       1.0 1.0 1.0 1.0
000020 00 00 80 3f 00 00 80 3f 00 00 80 3f 00 00 80 3f
       1.0 1.0 1.0 1.0
000030 00 00 80 3f 00 00 80 3f 00 00 80 3f 00 00 80 3f
       1.0 1.0 1.0 1.0
000040 00 00 80 3f 00 00 80 3f 00 00 80 3f 00 00 80 3f
       1.0 1.0 1.0 1.0
000050 00 00 80 3f 00 00 80 3f 00 00 80 3f 00 00 80 3f
       1.0 1.0 1.0 1.0
000060 00 00 80 3f 00 00 80 3f 00 00 80 3f 00 00 80 3f
       1.0 1.0 1.0 1.0
000070 00 00 80 3f 00 00 80 3f 00 00 80 3f 00 00 80 3f
       1.0 1.0 1.0 1.0
000080 00 00 80 3f 00 00 80 3f 00 00 80 3f 00 00 80 3f
       1.0 1.0 1.0 1.0
000090 00 00 80 3f 00 00 80 3f 00 00 80 3f 00 00 80 3f
       1.0 1.0 1.0 1.0
0000a0 00 00 80 3f 00 00 80 3f 00 00 80 3f 00 00 80 3f
       1.0 1.0 1.0 1.0
0000b0 00 00 80 3f 00 00 80 3f 00 00 80 3f 00 00 80 3f
       1.0 1.0 1.0 1.0
0000c0 00 00 80 3f 00 00 80 3f 00 00 80 3f 00 00 80 3f
       1.0 1.0 1.0 1.0
0000d0 00 00 80 3f 00 00 80 3f 00 00 80 3f 00 00 80 3f
       1.0 1.0 1.0 1.0
0000e0 00 00 80 3f 00 00 80 3f 00 00 80 3f 00 00 80 3f
       1.0 1.0 1.0 1.0
0000f0 00 00 80 3f 00 00 80 3f 00 00 80 3f 00 00 80 3f
       1.0 1.0 1.0 1.0
000100 00 00 80 3f 00 00 80 3f 00 00 80 3f 00 00 80 3f
       1.0 1.0 1.0 1.0
000110 00 00 80 3f 00 00 80 3f 00 00 80 3f 00 00 80 3f
       1.0 1.0 1.0 1.0
000120 00 00 80 3f 00 00 80 3f 00 00 80 3f 00 00 80 3f
       1.0 1.0 1.0 1.0
000130 00 00 80 3f 00 00 80 3f 00 00 80 3f 00 00 80 3f
       1.0 1.0 1.0 1.0
000140 00 00 80 3f 00 00 80 3f 00 00 80 3f 00 00 80 3f
       1.0 1.0 1.0 1.0
000150 00 00 80 3f 00 00 80 3f 00 00 80 3f 00 00 80 3f
       1.0 1.0 1.0 1.0
000160 00 00 80 3f 00 00 80 3f 00 00 80 3f 00 00 80 3f
       1.0 1.0 1.0 1.0
000170 00 00 80 3f 00 00 80 3f 00 00 80 3f 00 00 80 3f
       1.0 1.0 1.0 1.0
000180 00 00 80 3f 00 00 80 3f 00 00 80 3f 00 00 80 3f
       1.0 1.0 1.0 1.0
000190 00 00 80 3f 00 00 80 3f 00 00 80 3f 00 00 80 3f
       1.0 1.0 1.0 1.0
0001a0 00 00 80 3f 00 00 80 3f 00 00 80 3f 00 00 80 3f
       1.0 1.0 1.0 1.0
0001b0 00 00 80 3f 00 00 80 3f 00 00 80 3f 00 00 80 3f
       1.0 1.0 1.0 1.0
0001c0 00 00 80 3f 00 00 80 3f 00 00 80 3f 00 00 80 3f
       1.0 1.0 1.0 1.0
0001d0 00 00 80 3f 00 00 80 3f 00 00 80 3f 00 00 80 3f
       1.0 1.0 1.0 1.0
0001e0 00 00 80 3f 00 00 80 3f 00 00 80 3f 00 00 80 3f
       1.0 1.0 1.0 1.0
0001f0 00 00 80 3f 00 00 80 3f 00 00 80 3f 00 00 80 3f
       1.0 1.0 1.0 1.0
000200 00 00 80 3f 00 00 80 3f 00 00 80 3f 00 00 80 3f
       1.0 1.0 1.0 1.0
000210 00 00 80 3f 00 00 80 3f 00 00 80 3f 00 00 80 3f
       1.0 1.0 1.0 1.0
000220 00 00 80 3f 00 00 80 3f 00 00 80 3f 00 00 80 3f
       1.0 1.0 1.0 1.0
000230 00 00 80 3f 00 00 80 3f 00 00 80 3f 00 00 80 3f
       1.0 1.0 1.0 1.0
000240 00 00 80 3f 00 00 80 3f 00 00 80 3f 00 00 80 3f
       1.0 1.0 1.0 1.0
000250 00 00 80 3f 00 00 80 3f
       1.0 1.0

encoder.1.bias f4 [150]
000000 00 00 00 00 00 00 00 00 00 00 00 00 00 00 00 00
       0.0 0.0 0.0 0.0
000010 00 00 00 00 00 00 00 00 00 00 00 00 00 00 00 00
       0.0 0.0 0.0 0.0
000020 00 00 00 00 00 00 00 00 00 00 00 00 00 00 00 00
       0.0 0.0 0.0 0.0
000030 00 00 00 00 00 00 00 00 00 00 00 00 00 00 00 00
       0.0 0.0 0.0 0.0
000040 00 00 00 00 00 00 00 00 00 00 00 00 00 00 00 00
       0.0 0.0 0.0 0.0
000050 00 00 00 00 00 00 00 00 00 00 00 00 00 00 00 00
       0.0 0.0 0.0 0.0
000060 00 00 00 00 00 00 00 00 00 00 00 00 00 00 00 00
       0.0 0.0 0.0 0.0
000070 00 00 00 00 00 00 00 00 00 00 00 00 00 00 00 00
       0.0 0.0 0.0 0.0
000080 00 00 00 00 00 00 00 00 00 00 00 00 00 00 00 00
       0.0 0.0 0.0 0.0
000090 00 00 00 00 00 00 00 00 00 00 00 00 00 00 00 00
       0.0 0.0 0.0 0.0
0000a0 00 00 00 00 00 00 00 00 00 00 00 00 00 00 00 00
       0.0 0.0 0.0 0.0
0000b0 00 00 00 00 00 00 00 00 00 00 00 00 00 00 00 00
       0.0 0.0 0.0 0.0
0000c0 00 00 00 00 00 00 00 00 00 00 00 00 00 00 00 00
       0.0 0.0 0.0 0.0
0000d0 00 00 00 00 00 00 00 00 00 00 00 00 00 00 00 00
       0.0 0.0 0.0 0.0
0000e0 00 00 00 00 00 00 00 00 00 00 00 00 00 00 00 00
       0.0 0.0 0.0 0.0
0000f0 00 00 00 00 00 00 00 00 00 00 00 00 00 00 00 00
       0.0 0.0 0.0 0.0
000100 00 00 00 00 00 00 00 00 00 00 00 00 00 00 00 00
       0.0 0.0 0.0 0.0
000110 00 00 00 00 00 00 00 00 00 00 00 00 00 00 00 00
       0.0 0.0 0.0 0.0
000120 00 00 00 00 00 00 00 00 00 00 00 00 00 00 00 00
       0.0 0.0 0.0 0.0
000130 00 00 00 00 00 00 00 00 00 00 00 00 00 00 00 00
       0.0 0.0 0.0 0.0
000140 00 00 00 00 00 00 00 00 00 00 00 00 00 00 00 00
       0.0 0.0 0.0 0.0
000150 00 00 00 00 00 00 00 00 00 00 00 00 00 00 00 00
       0.0 0.0 0.0 0.0
000160 00 00 00 00 00 00 00 00 00 00 00 00 00 00 00 00
       0.0 0.0 0.0 0.0
000170 00 00 00 00 00 00 00 00 00 00 00 00 00 00 00 00
       0.0 0.0 0.0 0.0
000180 00 00 00 00 00 00 00 00 00 00 00 00 00 00 00 00
       0.0 0.0 0.0 0.0
000190 00 00 00 00 00 00 00 00 00 00 00 00 00 00 00 00
       0.0 0.0 0.0 0.0
0001a0 00 00 00 00 00 00 00 00 00 00 00 00 00 00 00 00
       0.0 0.0 0.0 0.0
0001b0 00 00 00 00 00 00 00 00 00 00 00 00 00 00 00 00
       0.0 0.0 0.0 0.0
0001c0 00 00 00 00 00 00 00 00 00 00 00 00 00 00 00 00
       0.0 0.0 0.0 0.0
0001d0 00 00 00 00 00 00 00 00 00 00 00 00 00 00 00 00
       0.0 0.0 0.0 0.0
0001e0 00 00 00 00 00 00 00 00 00 00 00 00 00 00 00 00
       0.0 0.0 0.0 0.0
0001f0 00 00 00 00 00 00 00 00 00 00 00 00 00 00 00 00
       0.0 0.0 0.0 0.0
000200 00 00 00 00 00 00 00 00 00 00 00 00 00 00 00 00
       0.0 0.0 0.0 0.0
000210 00 00 00 00 00 00 00 00 00 00 00 00 00 00 00 00
       0.0 0.0 0.0 0.0
000220 00 00 00 00 00 00 00 00 00 00 00 00 00 00 00 00
       0.0 0.0 0.0 0.0
000230 00 00 00 00 00 00 00 00 00 00 00 00 00 00 00 00
       0.0 0.0 0.0 0.0
000240 00 00 00 00 00 00 00 00 00 00 00 00 00 00 00 00
       0.0 0.0 0.0 0.0
000250 00 00 00 00 00 00 00 00
       0.0 0.0

encoder.1.running_mean f4 [150]
000000 02 35 da 3e e5 69 3a 3e 57 08 e2 bc 2b bb b8 be
       0.42618567 0.18204458 -0.027591867 -0.36080298
000010 49 eb 6c 3e 69 88 87 be b2 b6 a6 be 20 84 8a bd
       0.23136629 -0.2647126 -0.3256126 -0.06763482
000020 62 e3 db bc 67 ee 61 3e 3b c3 33 bf 55 7e c1 3e
       -0.026841823 0.220636 -0.70219773 0.37791696
000030 1f d2 71 3e 7a 0c 8e be 73 3e 61 be 32 f0 fa 3e
       0.23615311 -0.27743894 -0.21996479 0.4901138
000040 dd 7b 95 be d8 d9 ae bd 4f a5 20 be 24 aa b5 3e
       -0.29196063 -0.08537644 -0.1568806 0.3548137
000050 5c a8 b4 bd 02 61 ec be a7 d9 95 3c ac 36 24 be
       -0.088211745 -0.4616776 0.018292261 -0.1603648
000060 c9 d9 17 3d 45 a2 41 3c 11 39 f6 3e 4a 95 2c 3c
       0.03707293 0.011818473 0.48090413 0.01053364
000070 d9 a6 37 3e 86 ad 94 3e c3 79 9d 3e 3c 8f d8 3d
       0.17934741 0.29038638 0.3075696 0.10574195
000080 38 40 58 3d eb bc 68 3d 56 9a c4 3e 16 70 2d 3e
       0.05279562 0.05682079 0.38399 0.16937289
000090 33 62 2e 3f 7a d8 d9 3e 7a f5 40 be 42 30 aa 39
       0.6811859 0.4254797 -0.18843642 0.00032460882
0000a0 8c a9 95 3d fe 3f a1 3d f3 68 5c be d9 71 35 be
       0.07307729 0.07873534 -0.2152441 -0.1771921
0000b0 33 9f 79 3d 8c dd 57 bd df 38 22 be 6a c5 02 bd
       0.06094284 -0.052701518 -0.15842007 -0.03192655
0000c0 fc 95 4c be 44 54 02 bf 5a fc ae 3c 1a 4c 8b 3d
       -0.1997909 -0.5090983 0.021360565 0.068016246
0000d0 0b 3a 9d be cf fe cd 3e aa 9e 33 3f cf f9 42 be
       -0.30708346 0.40233466 0.7016398 -0.19040607
0000e0 b7 86 bb 3e 8c 63 18 3e ff fc 10 be 73 45 27 be
       0.36626217 0.14881724 -0.1415901 -0.16335087
0000f0 e8 f9 d5 3d eb b7 f9 be 9b e5 7b bd 29 8d 1c bf
       0.104480565 -0.4877313 -0.061498266 -0.61152893
000100 9b 70 22 3d 3f de 44 be 84 57 d3 3d c5 af cc 3d
       0.03965817 -0.19225405 0.10319427 0.09994463
000110 46 b1 95 3d 89 b7 24 bd d2 b9 cd 3e f2 3e db be
       0.07309203 -0.040214095 0.40180832 -0.4282146
000120 a4 95 d8 3e 65 08 88 be 24 80 13 3e 34 bb d3 be
       0.42301667 -0.26568905 0.1440435 -0.41353762
000130 2c 36 d9 be aa e5 a7 bd c4 af b6 3d df 3a 51 bd
       -0.42424142 -0.08198102 0.089202434 -0.051081534
000140 9e db 09 3f 6c 6d 6a 3d b4 05 0d bc 55 b5 27 be
       0.53850734 0.05723326 -0.008607317 -0.16377766
000150 92 c5 d2 bd 22 ee 5e 3d eb 73 23 3e fb e1 6a bc
       -0.1029159 0.05442632 0.15962188 -0.0143361045
000160 a7 51 aa bd b8 dc 6b 3e c6 8a 1f be 5c ba 2d be
       -0.08316355 0.23033416 -0.15580282 -0.16965622
000170 b8 92 a0 bd 87 fc 07 bf 7b ac fe 3d 36 d9 8a be
       -0.078404844 -0.531197 0.12435242 -0.27118844
000180 ee 13 d9 3c 36 cf 6d be 08 f5 93 3e 36 8b 52 be
       0.026498761 -0.23223576 0.28897882 -0.20560917
000190 c7 5a 7c 3e 04 0b e0 bd d5 00 4d be 2d 57 a6 3e
       0.24644004 -0.10939601 -0.20019849 0.32488385
0001a0 03 c4 3e be 97 51 84 be 45 f7 2c be 2a 19 6b 3e
       -0.1862946 -0.25843498 -0.16891201 0.22958818
0001b0 c9 d7 4a 3e bf ea 31 3f 4a f3 06 3f 78 60 48 3e
       0.19808878 0.6949882 0.5271498 0.1956805
0001c0 16 1e b4 be 51 05 f6 bd f2 dd 9d 3d 8e 5e db bd
       -0.35179204 -0.12012733 0.07708348 -0.10711394
0001d0 a8 9d 52 be 76 ac 04 be 7c cf 1d 3d ca 3e b2 3e
       -0.20567954 -0.12956414 0.03852795 0.3481353
0001e0 b5 16 0a bf a6 94 6c 3d 0d f2 30 3e be 65 81 be
       -0.539409 0.05775895 0.17279835 -0.25272936
0001f0 e3 94 f0 3d dd 9e d5 bd 2f 23 d8 3d 7d c4 c0 3d
       0.11747148 -0.104306914 0.10553586 0.09412477
000200 df 99 5f be 7d fa ca 3e 50 1e cd 3e 2e a5 db 3d
       -0.21836041 0.39644232 0.4006219 0.10724865
000210 08 2e 2e 3e d6 17 35 be 3a 4c d1 3e bd 56 87 be
       0.17009747 -0.17684874 0.4087847 -0.26433364
000220 43 ab 6b be 88 04 0c 3e f4 92 be 3e 24 12 c4 be
       -0.2301455 0.13673604 0.3722149 -0.3829509
000230 b2 a2 27 3d af 9b 67 3e 2c 11 13 3f f0 a5 4b be
       0.040926643 0.22617982 0.5744808 -0.19887519
000240 7a b1 87 3d 8b 47 7c be 6c 6e 31 3e 33 36 db bd
       0.06625648 -0.24636666 0.17327279 -0.10703697
000250 c8 43 18 3e 23 cd 58 3e
       0.14869606 0.21172003

encoder.1.running_var f4 [150]
000000 66 d9 04 3d 09 3d e1 3c 94 93 13 3d e0 df 9d 3d
       0.03243389 0.027494924 0.036029413 0.077087164
000010 20 75 0f 3d a1 05 ec 3c cb 16 b3 3d 1a ba 8e 3d
       0.03502381 0.028811278 0.08744582 0.0696909
000020 4b b6 86 3d 11 63 09 3e 2d c0 89 3d e1 29 49 3d
       0.065777384 0.13416697 0.06726108 0.049112204
000030 e9 e3 81 3d 84 44 56 3d 7c 22 8c 3d 50 d0 10 3d
       0.063422985 0.052311435 0.06842515 0.035354912
000040 22 76 98 3d 0b a4 d0 3d bb de 52 3d 82 f9 60 3d
       0.07444407 0.10187539 0.051481944 0.05492545
000050 e6 db 80 3d 58 51 4b 3d 6f dd 1e 3d 16 04 67 3d
       0.06291942 0.049638122 0.038785394 0.05640038
000060 ca da ec 3c f1 4a 38 3e af 12 1b 3d 8a 35 22 3e
       0.02891292 0.17997338 0.037859615 0.15840736
000070 ee f7 cd 3c 4a a7 2c 3e ba b9 70 3d 7d cb 1d 3d
       0.025142636 0.1686069 0.058770873 0.03852414
000080 11 44 91 3d 37 cb 1b 3e 04 dc b8 3d 1b a9 09 3e
       0.07093061 0.15214239 0.0902634 0.13443415
000090 3d ef 00 3d ea 06 ae 3d 87 55 10 3d 01 71 04 3d
       0.031478155 0.084974125 0.035237815 0.03233433
0000a0 83 97 cb 3c 9f e0 e0 3d f4 99 ef 3d 02 7d e7 3c
       0.02485252 0.10980343 0.11699286 0.02825785
0000b0 97 72 63 3d fb 4e 73 3d 8b ff 85 3d 6c cc 83 3e
       0.055529203 0.059401494 0.065428816 0.257419
0000c0 a4 83 f6 3d a3 ea 97 3d 06 fe 9d 3c 05 68 db 3c
       0.12036827 0.074178 0.019286167 0.026782999
0000d0 eb 26 7d 3d f4 4e c8 3c 81 5f 9f 3d dc bc 3d 3d
       0.061804693 0.02445171 0.07781888 0.04632269
0000e0 cc 01 87 3d 9e e5 aa 3d 75 b3 46 3d 29 60 94 3d
       0.065921396 0.08344577 0.048510987 0.072449036
0000f0 19 67 8c 3d aa ec 24 3d ff c4 68 3d 80 69 ef 3d
       0.06855602 0.040264763 0.056828495 0.116900444
000100 92 7e 76 3d fd ef 68 3d 4c 05 bf 3d 7b 6c 83 3d
       0.0601793 0.056869496 0.09327182 0.064171754
000110 f9 57 3b 3d a5 a1 83 3d 82 b6 e1 3d 05 ce 2b 3d
       0.045738194 0.064273156 0.11021139 0.041944522
000120 c6 8a 7e 3c 31 26 3e 3d 88 4b f7 3c 2e 11 98 3d
       0.015536016 0.04642314 0.030187383 0.07425152
000130 f5 42 ec 3d cb 0f 8f 3d 06 6f 2c 3d a1 a7 9c 3d
       0.115362085 0.06985434 0.042098068 0.0764916
000140 03 2c 18 3d 2e c2 b4 3c a4 f4 f2 3d a8 3e e8 3d
       0.037151348 0.022065248 0.11863068 0.11340076
000150 ea 86 c5 3c ba d1 c0 3d 8d 15 21 3d 34 7a 4d 3d
       0.024112184 0.09415002 0.039327193 0.05016537
000160 f2 fd 4b 3d e1 ce 1f 3d c5 04 56 3d 68 b2 55 3d
       0.049802728 0.039015654 0.052250642 0.052172095
000170 1e 4c 31 3d 2e 1a 03 3e 7d 0c 12 3d 32 fc fb 3d
       0.04328548 0.12802956 0.03565644 0.12303962
000180 7a f0 6c 3d 4e c8 75 3d f4 ea 5c 3d 59 a1 a1 3d
       0.057846524 0.06000548 0.053935006 0.07892103
000190 68 ee 82 3d cd bd af 3d d6 42 af 3d 34 f3 a7 3c
       0.06393129 0.085811235 0.0855767 0.02050171
0001a0 37 86 13 3e f0 88 28 3d f6 22 ab 3c 8b 46 3d 3d
       0.14406668 0.04114622 0.020890694 0.046209853
0001b0 ce f8 8b 3d e1 4b 36 3e c4 11 15 3e 4b ef 67 3d
       0.06834565 0.17802383 0.14557558 0.056624692
0001c0 5f 99 01 3d 50 6b 7e 3c 3d 4d 7c 3d b9 3b b9 3d
       0.031640407 0.015528515 0.061597098 0.09044594
0001d0 cb 95 8a 3d f9 89 61 3d a0 57 89 3d f1 87 84 3d
       0.06766852 0.05506322 0.06706166 0.06471241
0001e0 f6 59 57 3d 07 5d eb 3d c0 4e e5 3d 9a 0f 92 3d
       0.052576028 0.11492353 0.11196661 0.07131882
0001f0 6c 0d 52 3d 7a 6e 14 3e c5 f1 24 3d 35 b2 8b 3d
       0.05128233 0.14495268 0.040269632 0.068211
000200 b0 91 a2 3d 5d 8b 0e 3d a1 cd ea 3d dc 2a 85 3d
       0.07937944 0.034800876 0.11465002 0.065023154
000210 50 54 ed 3d 1d 15 72 3d ff 12 95 3d c3 6d d5 3d
       0.11588347 0.059102166 0.07279014 0.10421326
000220 6a 76 5e 3d d6 f3 be 3d f3 02 c2 3d 23 e0 09 3e
       0.054312147 0.09323852 0.09473219 0.13464408
000230 89 06 d1 3d 1a b9 78 3d a8 7b 0e 3e 65 f0 68 3d
       0.102063246 0.0607234 0.13914359 0.056869883
000240 a8 e1 11 3e d4 b6 55 3d 5f 06 a9 3d f7 9d 46 3d
       0.14246237 0.05217631 0.08253168 0.04849049
000250 87 be a7 3d 18 e6 83 3d
       0.08190637 0.06440371

encoder.4.weight f4 [50, 150]
000000 e6 f2 0a 3d 41 a8 84 bd bc 55 ce 3c a0 2e 4e 3d
       0.033923052 -0.064774044 0.025187366 0.050337434
000010 82 81 70 bd f0 2b 45 bc 50 60 fc 3b f0 3e c3 3c
       -0.05871726 -0.012034401 0.007701911 0.023833722
000020 a2 0b 9d bd a8 56 59 3d 53 87 9b bd c0 d2 fb bb
       -0.076682344 0.053061157 -0.075941704 -0.0076850355
000030 00 13 b8 3c 3e 66 9d bd 04 73 a4 bd 2c 0b 2b 3d
       0.022469997 -0.07685517 -0.0802975 0.0417587
000040 d4 78 db 3c 89 47 6f bd 68 a2 55 3d 8c 5c 40 3d
       0.026791014 -0.05841783 0.052156836 0.04696326
000050 a0 9d 2f bc d8 78 1c 3d ce 06 d3 bc 91 12 47 bd
       -0.010718733 0.038201183 -0.02576008 -0.04860169
000060 90 bb 8e 3d 28 7e 57 3d d0 2a d2 3b 18 2b 66 3d
       0.069693685 0.052610546 0.006413795 0.05619344
000070 cc 30 71 3d 50 e1 6c bc 58 4c 50 bc 80 7f 3c 3a
       0.058884427 -0.014458016 -0.012713514 0.000719063
000080 1f b8 67 bd 18 c1 52 3d 9c 17 3c 3d 1a c2 b7 bc
       -0.056572076 0.05145368 0.045920953 -0.022431422
000090 4c 72 a2 3d 62 02 a3 bc 14 4a d6 bc 74 87 6a bd
       0.07931957 -0.019898597 -0.02615837 -0.057258084
0000a0 d8 90 71 bd 00 97 75 bb 64 b9 5c bd d0 d9 34 3d
       -0.058976024 -0.0037474036 -0.05388774 0.044153035
0000b0 2a 9e 1f 3d 28 1d d8 3c d4 c5 65 3d 58 b2 4d 3d
       0.038969196 0.02638109 0.056096867 0.05021891
0000c0 d0 05 f8 3b b4 c9 78 bd bc f1 6a 3d 40 9a 26 bb
       0.0075690523 -0.060739234 0.057359442 -0.002542153
0000d0 44 55 7e bd b4 f6 6a bd 98 23 1c 3d b8 a7 38 3d
       -0.062093034 -0.05736418 0.038119882 0.045081824
0000e0 f0 1e 91 3b 68 7e c5 3c 9a e1 88 3d 14 31 f2 bc
       0.004428737 0.024108127 0.06683655 -0.029564418
0000f0 e7 31 6c bd 00 12 2b 3b 54 4d 9c bd c9 9b 86 bd
       -0.057664778 0.0026103258 -0.07631937 -0.065726824
000100 58 0f 7e bd 93 d3 9d bd 9a e0 80 bd b2 94 2d 3d
       -0.06202635 -0.0770637 -0.06292839 0.042378135
000110 71 25 9f bd 44 fa 97 3d 28 9d 9d bd f4 db 3e bd
       -0.07770813 0.07420781 -0.07695991 -0.046596482
000120 6c 6f 1f 3d d0 a1 eb 3c 16 51 ed bc ad fe 83 bd
       0.03892462 0.028763682 -0.028969329 -0.0644506
000130 46 a1 ae bc 34 b6 73 3d 86 01 a4 3d 61 7b 14 bd
       -0.021317136 0.059499934 0.08008103 -0.036250476
000140 e6 bc 87 3d 08 50 5c bc 60 34 16 bc e0 0f 2b 3b
       0.066278264 -0.013446815 -0.009167761 0.0026101992
000150 9e ad a4 bd 24 5f 6f 3d bc e7 e2 bc a0 69 0d 3c
       -0.08040927 0.058440343 -0.02769839 0.00863114
000160 30 3d 53 3d ce 34 64 bd 00 76 04 3d 6c cd 1c 3d
       0.051572025 -0.05571442 0.032339096 0.038281843
000170 f8 e2 39 bc e0 71 52 bd 48 78 9a 3d 27 fd 6e bd
       -0.0113456175 -0.05137813 0.07542473 -0.058346894
000180 f0 78 a6 3c 6c ee 3f 3d 54 a7 fa bc 74 1a 15 3d
       0.02032134 0.046858236 -0.030597366 0.03640218
000190 c0 e3 f5 3c d8 73 46 3d 72 73 96 3d 4a 13 a4 bd
       0.030015826 0.04845032 0.07346238 -0.080114916
0001a0 1d ce 99 bd 0e d8 81 3d c4 c0 7b 3d 12 ba 2e 3d
       -0.07510016 0.06340037 0.061463133 0.04265792
0001b0 c0 61 20 3d 6e b5 89 bd 70 4d c2 3c 54 17 e9 3c
       0.03915572 -0.06724058 0.023718566 0.028453507
0001c0 10 d7 05 3c 9c 9a fd 3c 5a 9d 22 3d 78 62 03 3d
       0.008168951 0.030957513 0.039700843 0.03207633
0001d0 7c d9 8e 3d 5e 41 a6 bd 4c 29 29 bd 58 63 7f bd
       0.069750756 -0.081179366 -0.04129915 -0.0623506
0001e0 06 5d 85 bd 47 75 11 bd 9c 9e 37 bd ad 3a 29 bd
       -0.065118834 -0.035512235 -0.044828996 -0.041315723
0001f0 7a 70 33 bd a0 29 57 bd 90 17 93 bc a4 2a 4b 3d
       -0.043808438 -0.05252993 -0.017955571 0.049601212
000200 45 15 54 bd 5a 67 06 bd 0c e7 ba 3c de b0 2f 3d
       -0.051778097 -0.032813407 0.02281525 0.042893283
000210 f0 b8 5b bc ea 2d 28 3d a0 48 23 bd 84 ff f6 3c
       -0.013410792 0.041059412 -0.039864182 0.030151136
000220 c0 82 6d bc b0 52 87 bd 7c e6 42 3d 6a 61 97 bd
       -0.014496505 -0.06607568 0.04758309 -0.07391627
000230 d4 8d 9f 3d 07 5a 80 bd d8 c6 53 3c 34 8b be bc
       0.077907234 -0.06267171 0.012925826 -0.023259737
000240 d0 ee 36 3c 48 22 19 3c 22 0b 81 3d 26 37 b8 bc
       0.011165336 0.009346552 0.063009515 -0.022487234
000250 ec 93 89 3d b4 c6 8e 3d f0 0b a5 3c fc bc 9a 3d
       0.06717667 0.06971493 0.020147294 0.07555577
000260 f0 f9 88 bc 52 e3 92 3d 9c bb 92 3d 1f 7c 79 bd
       -0.016720742 0.07172264 0.0716469 -0.060909387
000270 f8 40 4f 3d 36 2e 9d 3d b2 eb f4 bc 24 3d 84 bd
       0.05059907 0.0767483 -0.029897545 -0.06456974
000280 57 1b 15 bd 9a a8 a1 3d 5e 67 93 bd d0 44 f1 3b
       -0.036403026 0.07893486 -0.0719745 0.0073629394
000290 1c 5d 23 3d 5c 3a 16 bd 50 32 8d bc 62 fc 71 bd
       0.039883718 -0.03667675 -0.017235905 -0.05907858
0002a0 58 cb 30 3c 54 1b 5b 3d 00 57 d9 b9 4c b3 e2 bc
       0.010790668 0.05349286 -0.00041454285 -0.027673386
0002b0 0c 14 b8 3c 20 19 10 3c e8 c0 94 3c 1d ba 8b bd
       0.022470497 0.008795053 0.018158391 -0.06822608
0002c0 30 10 82 bc b0 df 7e 3c 0d 4c 8f bd b8 be 53 3c
       -0.01587686 0.015556261 -0.069969274 0.012923889
0002d0 5a 4d 08 3d b4 37 e1 3c f8 3e 03 3c f7 2a 88 bd
       0.033276893 0.027492382 0.008010618 -0.0664882
0002e0 44 ea dc 3c cd 93 02 bd b4 72 2f bd 26 11 93 3d
       0.026967175 -0.031879235 -0.042834 0.07181005
0002f0 88 f5 e5 3c 88 6f 7d 3d 8e 8a 82 bd c4 4a 81 3d
       0.02807118 0.061873943 -0.063740835 0.063130885
000300 98 f7 37 bc a0 ed f9 3b f4 ea 41 bd 32 e2 18 3d
       -0.011228465 0.007627204 -0.04734321 0.03732509
000310 ac f1 90 3d f3 27 20 bd 93 02 32 bd 00 17 d7 3a
       0.07077345 -0.0391006 -0.043459486 0.0016410053
000320 88 0f 35 bc e4 32 d1 bc 30 eb 15 bc 80 08 25 bb
       -0.011051066 -0.025536962 -0.009150311 -0.0025182068
000330 6c 39 2a 3d 9c e1 84 3d c2 c5 8b 3d 7a 69 21 3d
       0.041558668 0.06488344 0.06824829 0.03940723
000340 d8 bc 8b 3d ea 37 56 bd fc 8b 85 3d 4d 43 01 bd
       0.068231285 -0.052299418 0.065208405 -0.031558324
000350 2a e9 8a bd 41 db 49 bd cc a0 8b 3d 20 ea 40 bd
       -0.06782754 -0.049281362 0.06817779 -0.04709828
000360 ec c1 90 3d ee 30 25 3d 00 8b 12 3c 60 e4 5a 3c
       0.07068238 0.040329866 0.008944273 0.013360113
000370 34 62 8a bc ee cd a9 bc b8 bc 3c 3c e0 99 64 3b
       -0.01689253 -0.020728078 0.011519603 0.0034881756
000380 40 a2 ae 3a 1c c8 36 3d 14 a6 a2 bc c0 10 5a 3b
       0.0013323501 0.044624433 -0.019854583 0.0033274144
000390 2f e8 48 bd ff 8e 90 bd 80 c8 44 3d f4 72 cf 3c
       -0.049049553 -0.07058524 0.048042774 0.025323369
0003a0 db 95 8b bd 0a 5d 17 3d 58 18 7a bc e0 59 76 3b
       -0.06815692 0.036953963 -0.015264593 0.003759019
0003b0 e0 2e 05 3d ac 9a fc bc 3a 13 9b 3d 20 56 90 3c
       0.032515407 -0.030835472 0.075720266 0.017619193
0003c0 fc eb ba 3c a8 bf 42 3c d0 21 8c 3b 10 d5 5e 3d
       0.022817604 0.011886515 0.0042764917 0.05440241
0003d0 c8 54 0f 3c 57 50 1e bd b6 80 0a 3d 18 ac 93 3d
       0.008748241 -0.038650837 0.033814155 0.07210559
0003e0 58 db 84 bd c9 b6 a3 bd 02 9d 02 bd 88 f6 71 bc
       -0.06487149 -0.07993848 -0.031888016 -0.01476825
0003f0 44 51 de 3c 34 5c a4 bd 24 9d 93 3d dc 3b 90 bd
       0.02713836 -0.08025399 0.072077066 -0.07042667

encoder.4.bias f4 [50]
000000 3c 71 77 3d ba fe 1e 3d f8 f1 8c 3c 5e ea e4 bc
       0.060410723 0.038817145 0.017205223 -0.027943786
000010 b7 46 3c bd b8 65 53 bc 89 60 26 bd 24 f8 92 bc
       -0.045965876 -0.01290267 -0.040619407 -0.017940588
000020 fe 15 8d bd 30 33 be 3b ab 2e a4 bd d2 87 9f 3d
       -0.0688896 0.005804442 -0.08016714 0.077895775
000030 88 e6 1b bc 9c 0e a1 bd 08 84 6b 3c 90 4b 90 3b
       -0.009515412 -0.07864115 0.01437474 0.004403539
000040 1e e4 99 3d 1e d2 a1 bd 68 33 d0 3c b8 d0 63 bd
       0.07514213 -0.07901405 0.025415137 -0.05561897
000050 b6 9a 8f bd cc 9b 48 3d 14 f2 a5 3c 9c c3 9f 3d
       -0.07011931 0.048976704 0.020257033 0.078009814
000060 58 b9 75 bc 5b c1 08 bd 26 0b 3f bd 1a 2b 1f 3d
       -0.014997803 -0.033387523 -0.04664149 0.038859464
000070 90 51 de 3b 94 7a c4 bc 98 8f 65 3d ee 09 00 3d
       0.0067846254 -0.023984231 0.056045145 0.03125947
000080 87 0f 07 bd 68 be 1d bc a0 14 83 3d dc e4 8b 3d
       -0.032973792 -0.009627916 0.06400418 0.06830761
000090 f8 ae 2f 3c 78 b4 05 3c 80 58 64 3a 4c c8 42 3d
       0.010722868 0.008160703 0.00087106973 0.0475543
0000a0 b0 46 74 bc ed db 86 bd 96 ce 8d 3d 7c ad 88 3d
       -0.014909431 -0.06584916 0.06924169 0.066737145
0000b0 98 dd 5d 3d 50 69 8b bc 08 83 79 3c 84 44 8f bd
       0.054166406 -0.01701799 0.015228994 -0.0699549
0000c0 54 3a 50 3d 78 8d 7d bc
       0.050836876 -0.015475623

encoder.5.weight f4 [50]
000000 00 00 80 3f 00 00 80 3f 00 00 80 3f 00 00 80 3f
       1.0 1.0 1.0 1.0
000010 00 00 80 3f 00 00 80 3f 00 00 80 3f 00 00 80 3f
       1.0 1.0 1.0 1.0
000020 00 00 80 3f 00 00 80 3f 00 00 80 3f 00 00 80 3f
       1.0 1.0 1.0 1.0
000030 00 00 80 3f 00 00 80 3f 00 00 80 3f 00 00 80 3f
       1.0 1.0 1.0 1.0
000040 00 00 80 3f 00 00 80 3f 00 00 80 3f 00 00 80 3f
       1.0 1.0 1.0 1.0
000050 00 00 80 3f 00 00 80 3f 00 00 80 3f 00 00 80 3f
       1.0 1.0 1.0 1.0
000060 00 00 80 3f 00 00 80 3f 00 00 80 3f 00 00 80 3f
       1.0 1.0 1.0 1.0
000070 00 00 80 3f 00 00 80 3f 00 00 80 3f 00 00 80 3f
       1.0 1.0 1.0 1.0
000080 00 00 80 3f 00 00 80 3f 00 00 80 3f 00 00 80 3f
       1.0 1.0 1.0 1.0
000090 00 00 80 3f 00 00 80 3f 00 00 80 3f 00 00 80 3f
       1.0 1.0 1.0 1.0
0000a0 00 00 80 3f 00 00 80 3f 00 00 80 3f 00 00 80 3f
       1.0 1.0 1.0 1.0
0000b0 00 00 80 3f 00 00 80 3f 00 00 80 3f 00 00 80 3f
       1.0 1.0 1.0 1.0
0000c0 00 00 80 3f 00 00 80 3f
       1.0 1.0

encoder.5.bias f4 [50]
000000 00 00 00 00 00 00 00 00 00 00 00 00 00 00 00 00
       0.0 0.0 0.0 0.0
000010 00 00 00 00 00 00 00 00 00 00 00 00 00 00 00 00
       0.0 0.0 0.0 0.0
000020 00 00 00 00 00 00 00 00 00 00 00 00 00 00 00 00
       0.0 0.0 0.0 0.0
000030 00 00 00 00 00 00 00 00 00 00 00 00 00 00 00 00
       0.0 0.0 0.0 0.0
000040 00 00 00 00 00 00 00 00 00 00 00 00 00 00 00 00
       0.0 0.0 0.0 0.0
000050 00 00 00 00 00 00 00 00 00 00 00 00 00 00 00 00
       0.0 0.0 0.0 0.0
000060 00 00 00 00 00 00 00 00 00 00 00 00 00 00 00 00
       0.0 0.0 0.0 0.0
000070 00 00 00 00 00 00 00 00 00 00 00 00 00 00 00 00
       0.0 0.0 0.0 0.0
000080 00 00 00 00 00 00 00 00 00 00 00 00 00 00 00 00
       0.0 0.0 0.0 0.0
000090 00 00 00 00 00 00 00 00 00 00 00 00 00 00 00 00
       0.0 0.0 0.0 0.0
0000a0 00 00 00 00 00 00 00 00 00 00 00 00 00 00 00 00
       0.0 0.0 0.0 0.0
0000b0 00 00 00 00 00 00 00 00 00 00 00 00 00 00 00 00
       0.0 0.0 0.0 0.0
0000c0 00 00 00 00 00 00 00 00
       0.0 0.0

encoder.5.running_mean f4 [50]
000000 01 a4 d6 3c b5 02 09 bd a1 08 39 be be 45 1a bd
       0.02620125 -0.033449847 -0.18069698 -0.037664168
000010 65 5b b9 3c 17 9f 9c be 13 08 83 3d ce 61 50 3d
       0.022626588 -0.30590126 0.063980244 0.050874524
000020 8d 13 74 bd 4e 6a 12 be 46 b1 ed bd 02 f9 6e 3e
       -0.059588958 -0.14298365 -0.11606078 0.23337176
000030 a0 93 08 3e fd e0 27 be 73 96 ea bd 81 43 b2 3e
       0.13337564 -0.1639442 -0.11454477 0.34817126
000040 7b cc 95 3b e3 71 8f bd 07 40 f7 bd ae fb f9 bd
       0.004571495 -0.07004144 -0.12072759 -0.12206207
000050 6e 71 b5 3d 0c 81 31 3e 90 67 58 bb 01 9f f2 3d
       0.088595256 0.17334384 -0.0033020712 0.11846734
000060 6f 36 09 3e f3 0e b5 bd 13 bb 65 be 16 bd 26 3e
       0.13399671 -0.08840742 -0.22434644 0.16283068
000070 d7 19 b5 3e db d2 c8 be 13 de b4 3e df 83 81 be
       0.35371277 -0.3922337 0.3532568 -0.25295922
000080 0c 76 3c 3e 83 41 96 be c6 7e f8 bd ce 05 4a 3e
       0.18404406 -0.29346856 -0.12133555 0.19728777
000090 d6 52 aa 3e a3 f0 31 3e ce 5e 69 bd 6e a6 20 3e
       0.33266324 0.17376952 -0.05697518 0.15688488
0000a0 c8 b2 cc 3d 41 11 cf 3d b2 04 85 be ac 2c 67 bd
       0.09995037 0.10110713 -0.25980145 -0.056439087
0000b0 1a 2f a2 3e b3 ad 52 be a3 ec c7 bd 35 7f d4 bd
       0.3167656 -0.20574073 -0.09761932 -0.10375825
0000c0 dd 56 9b be 7c 52 e6 3d
       -0.3033971 0.112462014

encoder.5.running_var f4 [50]
000000 60 e5 85 3e b3 55 96 3e e2 fc 86 3e 3f 78 89 3e
       0.26151562 0.29362258 0.2636481 0.26849553
000010 ac d5 8a 3e 53 2a b6 3e 28 21 8c 3e 96 ee ac 3e
       0.27116144 0.35579166 0.27369046 0.33775777
000020 a7 82 8c 3e 10 8c a6 3e 2a 0f 94 3e a8 70 8c 3e
       0.2744343 0.32528734 0.2891782 0.274297
000030 f3 f7 c4 3e 09 1d a1 3e f2 f8 91 3e 31 03 85 3e
       0.3847042 0.31467465 0.28510243 0.25978997
000040 86 29 61 3e 4b 26 9a 3e 09 04 a1 3e 73 5a a1 3e
       0.21988496 0.3010734 0.3144839 0.3151432
000050 29 bc 5b 3e 0f 2c 84 3e 3f e4 5d 3e ab 6e 84 3e
       0.21458496 0.25814864 0.216691 0.25865683
000060 4d ad 99 3e d5 e0 b0 3e a1 8b 72 3e b0 da 9a 3e
       0.3001503 0.34546533 0.23686077 0.3024497
000070 e8 09 76 3e b6 db 90 3e c4 f7 88 3e 64 95 b3 3e
       0.24027216 0.28292626 0.2675153 0.35074914
000080 4b 9a b1 3e 89 eb 87 3e b4 68 62 3e 7c c3 b2 3e
       0.3468803 0.26546887 0.22110254 0.34914768
000090 2b aa 3f 3e 33 97 ae 3e 1e 0c 55 3e 25 68 8b 3e
       0.18717258 0.3409973 0.20805404 0.27227893
0000a0 08 81 77 3e 99 d9 8f 3e dc 2a 8a 3e a5 7c 4f 3e
       0.24170315 0.280957 0.26985824 0.20262392
0000b0 e3 e6 95 3e a3 10 91 3e c1 a9 56 3e a7 23 27 3f
       0.29277715 0.28333005 0.20963193 0.65288776
0000c0 f8 f2 6e 3e 19 40 9b 3e
       0.23334873 0.3032234
