neural_network/last_checkpoint.pth (torch, 246843 bytes, 12 tensors)

encoder.0.weight f4 [150, 330]
000000 48 4f 8e bb a8 7f f0 bc 2a 77 51 bd 80 e7 6e bc
       -0.004342947 -0.029357746 -0.051139034 -0.014581561
000010 5a 54 1e bd 40 06 1e 3c 06 e1 44 bd b0 ea 92 3b
       -0.038654663 0.009645045 -0.04806616 0.0044835433
000020 c0 d9 90 3a 80 60 cc b9 fc 83 ec bc 10 85 f7 bc
       0.0011051223 -0.0003898181 -0.028871529 -0.030214816
000030 58 4b 4a 3c 9a 4c 1b 3d 20 37 a1 3c 58 fc 9e 3c
       0.012347065 0.03791485 0.019679606 0.019407436
000040 0c d1 22 bd 2c 39 35 3d 50 de a5 bb 40 a3 8e 3c
       -0.039750144 0.044243976 -0.005061902 0.017411828
000050 68 14 ee 3b 38 8f 4a 3d e0 46 60 3c 00 c7 50 3d
       0.007265616 0.04945299 0.013688773 0.05097103
000060 64 26 51 3d 80 6a 2f 3d 7b 62 48 bd e4 f6 b5 3c
       0.051062003 0.042826176 -0.048922043 0.022212453
000070 00 45 cd 3c 00 48 02 3c 90 07 e4 3b c0 a9 a1 bc
       0.025057316 0.007951736 0.0069589093 -0.019734263
000080 c8 b8 91 3c fe 67 2e 3d b6 19 00 3d f0 f3 79 3c
       0.017788306 0.042579643 0.03127452 0.015255913
000090 5e 4d cb bc 24 c7 08 bc 60 a4 ed 3a cc c4 b9 3c
       -0.024817165 -0.00834826 0.0018130653 0.022676848
0000a0 4e fb af bc 12 ce 0d 3d cc d6 a2 bc 8c 4c cf bc
       -0.021482136 0.034620352 -0.019877814 -0.025305055
0000b0 40 02 36 3c 15 79 4b bd 70 7c 50 bb c0 57 25 3c
       0.011108935 -0.04967602 -0.0031812452 0.010091722
0000c0 ec 0e 60 bc 98 71 1a bc 86 0b 44 3d 3e 85 2b 3d
       -0.013675433 -0.009426497 0.047862552 0.041875117
0000d0 7e ab 5c bd c0 d2 d1 bb e6 ac 5e bd 50 50 47 3c
       -0.053874485 -0.006403297 -0.054364108 0.012165144
0000e0 20 05 20 3b f1 b2 46 bd 12 ab 41 bd 50 19 05 bc
       0.0024417117 -0.048510496 -0.047282286 -0.008123711
0000f0 58 71 4b 3d 00 f5 07 39 74 77 11 bd 02 c2 9d bc
       0.04966864 0.00012965873 -0.03551431 -0.01925755
000100 b6 12 17 3d 7c bb d9 bc c2 ef 00 bd 8c eb 0a 3d
       0.03688308 -0.026578657 -0.03147865 0.03391604
000110 7e 6e 1b 3d c0 a7 fd 3b 48 fb 89 bb a2 79 38 3d
       0.03794717 0.0077409446 -0.0042108633 0.045037873
000120 88 ec 1c 3c 7e 5d 01 3d b0 c1 f8 bc 12 97 5f 3d
       0.009577878 0.0315833 -0.030365795 0.05458743
000130 1c 5c b8 3c 56 55 9a bc e4 5e ef 3c 00 84 3d 3c
       0.022504859 -0.01883952 0.029220052 0.011567116
000140 b0 bc 12 bd c8 fa 80 bb b4 0a 0d 3d fc c6 43 bd
       -0.035824478 -0.0039361455 0.034434035 -0.04779719
000150 48 13 97 3c 78 0d 54 bc 2a b3 30 bd eb f2 2d bd
       0.018441811 -0.012942664 -0.043139614 -0.042467993
000160 f2 cf 5c 3d 66 8d 0b 3d 18 eb be bb e0 34 4e 3c
       0.05390925 0.034070395 -0.005826365 0.012585849
000170 00 cd 1a 3d ac f9 32 3d 80 8a 27 3d c0 a0 62 3c
       0.03779316 0.043695137 0.04090357 0.013832271
000180 98 0e dc 3c a6 49 1b 3d 68 d7 57 3c 98 e0 1c bd
       0.026862428 0.037912033 0.013173915 -0.038300127
000190 98 d5 d4 3c 2e 1b 4e bd b9 c9 59 bd 80 0b 06 3d
       0.025980756 -0.05031889 -0.053170893 0.03272581
0001a0 64 89 4c bc 58 d9 94 bb 44 eb 66 bc 98 ab 11 bc
       -0.012483928 -0.004542511 -0.014094178 -0.008891009
0001b0 30 5e ae 3c d8 17 3f 3d 7a c3 21 3d 28 80 47 3c
       0.021285146 0.0466536 0.03949306 0.012176551
0001c0 80 04 cc 3c a0 1a 59 3d e0 9a 1c bc e8 1f c4 3c
       0.02490449 0.053003907 -0.009558409 0.023940995
0001d0 80 67 4b 3c 5a d4 1a 3d cd 29 11 bd 7c fe a8 3c
       0.012414813 0.03780017 -0.035440255 0.02062916
0001e0 70 25 a6 3b 60 da 33 3c bb 02 38 bd a8 eb df bb
       0.005070381 0.010977358 -0.04492448 -0.0068335123
0001f0 e8 0b 0e 3c 98 1a 39 3c 93 16 3b bd d0 df 54 bb
       0.008669831 0.011297844 -0.045675825 -0.0032482035
000200 f8 65 d8 3b 48 9b 97 3b 84 2c 8d bc 88 4b 9b 3c
       0.0066039525 0.0046266653 -0.01723314 0.018956915
000210 20 82 af bb e4 3e 83 3c c0 f6 35 3c 86 b0 4a 3d
       -0.0053560883 0.0160212 0.011106193 0.049484752
000220 9b f8 4f bd 70 29 29 3c a2 2b 2e 3d 9a 78 02 3d
       -0.050774198 0.010324821 0.04252208 0.031853296
000230 8c da ea 3c 76 aa 0f 3d c6 bc 1d bd 7c 41 1c 3d
       0.028668664 0.035074674 -0.038510107 0.03814839
000240 1a 80 44 3d f8 a2 27 3c 58 dd 39 bd 0e c7 bc bc
       0.04797373 0.010231726 -0.045377105 -0.023044135
000250 7c 1f 90 bc 50 ed 2c 3c 40 c6 4e bc b0 74 ef 3b
       -0.017593138 0.010554627 -0.012620509 0.0073076114
000260 10 e3 1e 3c c8 dd 2a bc 8c fe 34 3d 30 04 7f bc
       0.009697691 -0.010428853 0.044188067 -0.015564963
000270 a0 cd eb 3c 84 48 5a 3d 80 d2 d6 b9 48 09 2f 3c
       0.028784573 0.053291813 -0.00040974095 0.010683365
000280 c0 c7 40 3d 3e 91 5f 3d e4 d7 f3 bc 99 34 04 bd
       0.047065496 0.054581873 -0.02976603 -0.032276724
000290 e4 91 8c 3c eb 79 4e bd 48 9b c4 bb f6 65 3e 3d
       0.01715941 -0.05040924 -0.0059999563 0.046483956
0002a0 88 04 ba 3b d8 e2 b0 bc 70 30 ee 3b 50 3b 10 3c
       0.0056768097 -0.021592543 0.007268958 0.008803204
0002b0 3d 80 60 bd 10 82 f9 bb 5e db 37 bd c8 69 de 3b
       -0.054809798 -0.0076143816 -0.04488694 0.0067875125
0002c0 e0 8b a0 ba b0 68 c6 bb 90 af f7 3b a8 3f e7 bb
       -0.0012248717 -0.00605496 0.0075587705 -0.007057149
0002d0 92 28 25 3d 80 13 aa 3b 46 b9 45 3d 76 2c 02 bd
       0.040321894 0.005190313 0.048272394 -0.031780683
0002e0 11 e0 d9 bc 6e 57 b3 bc c4 0a 93 bc d8 dd 5c 3c
       -0.026596101 -0.021892276 -0.01794947 0.013480626
0002f0 4c 57 1b 3d 28 7f 60 3d 74 18 29 bd ec 01 e9 3c
       0.03792505 0.054808766 -0.041283086 0.0284433
000300 49 78 d8 bc d6 d5 bd bc 70 9c 5a bc 4e 43 fe bc
       -0.026424544 -0.023173254 -0.013342962 -0.031037953
000310 70 0b e4 bb e0 93 d9 3c 60 bb dc ba ac 28 da 3c
       -0.0069593713 0.02655977 -0.001684051 0.026630722
000320 ce 1a 46 3d 80 b7 ba 3a 13 00 38 bd 50 0b 7c bc
       0.048365407 0.0014245361 -0.044921946 -0.0153835565
000330 08 ee c7 3c 98 7b 5c 3c 28 84 8b 3c c4 fa 83 3c
       0.024405494 0.013457201 0.01703079 0.016110785
000340 d0 61 6a 3c 20 7b cb 3c 4c 7b 23 bc a8 6a f0 bc
       0.014305547 0.024838984 -0.009978127 -0.029347733
000350 8c da 62 bc 92 89 5b 3d f0 06 10 3d d8 5d c5 bc
       -0.013846051 0.053597994 0.035162866 -0.0240926
000360 e5 59 cf bc 62 b8 15 bd 34 76 a5 3c e4 2b 59 3d
       -0.02531142 -0.036552794 0.020197965 0.053020373
000370 70 27 d4 3b 80 c6 29 bd 28 86 21 bc 1c 56 99 bc
       0.006474428 -0.04144907 -0.0098586455 -0.018717818
000380 2a c4 a1 bc aa f9 42 3d 34 a7 13 3d f9 84 2d bd
       -0.019746859 0.04760138 0.03604813 -0.04236314
000390 48 9f 5f 3d d8 1c 44 3c 58 89 27 3d f0 50 1d 3b
       0.05459526 0.0119697675 0.040902466 0.0024004541
0003a0 c4 73 8a 3c 00 52 6f bc 8c c5 21 bc c2 35 12 3d
       0.016900904 -0.014606953 -0.009873759 0.0356958
0003b0 36 9d 94 bc 86 6b a4 bc a2 70 3d 3d 98 20 db 3c
       -0.01814137 -0.020070802 0.046249993 0.02674894
0003c0 48 70 88 3b cc b0 ea 3c 36 73 58 bd b0 5a 40 3c
       0.0041637756 0.028648756 -0.05284425 0.011740372
0003d0 8c be 4c bc ac 0a 88 3c 50 5f 9c 3c 80 2c 15 3b
       -0.012496602 0.016606651 0.019088417 0.002276212
0003e0 e8 f4 ea 3b 1a 46 51 bd 40 78 b1 3b b8 b1 4f bc
       0.0071703084 -0.051092245 0.0054159462 -0.012676649
0003f0 0c 2c 36 3d 80 bc ba ba fc 11 37 bd 66 7c 83 bc
       0.0444756 -0.0014246851 -0.044694886 -0.016050529

encoder.0.bias f4 [150]
000000 42 31 1a 3d 02 07 4d 3d f8 ba b1 bc 84 1d 94 3c
       0.037644632 0.05005551 -0.021695599 0.01808048
000010 fd 16 4c bd bc fe 8f 3c 9c 20 15 bd b3 13 44 bd
       -0.04982661 0.017577522 -0.03640805 -0.04787035
000020 2c 23 16 bd 58 0c 6d 3c 0e 03 9a bc 38 7c 3a 3d
       -0.036654636 0.014468275 -0.018800285 0.04552862
000030 29 d3 1b bd bc ed 1f bd 1e a4 60 3d 6e 94 b8 bc
       -0.038043175 -0.03904508 0.054844014 -0.022531714
000040 e1 c4 19 bd ec 52 08 3d 48 7f 2a 3c 76 ce 3d 3d
       -0.037541274 0.033282205 0.010406323 0.046339475
000050 50 bc 3b bd 9d a9 5c bd e0 f5 f5 bb fc 6a 2e bc
       -0.045833886 -0.053872693 -0.007506117 -0.010645624
000060 a4 88 59 bc 48 76 45 3d ab 7a 3c bd 44 cf a0 bc
       -0.013277207 0.048208505 -0.046015423 -0.019630082
000070 40 c7 4a 3c d4 c6 39 3d eb b6 00 bd 20 a2 ee bb
       0.012376606 0.045355633 -0.031424444 -0.0072825104
000080 ae c4 5c 3d 60 6d db ba 6c 77 11 3d 48 f0 fa 3c
       0.053898506 -0.001674097 0.03551428 0.030632153
000090 90 a4 06 3d 00 51 d6 bb b0 e1 3f 3c 07 ab 3c bd
       0.032871783 -0.0065404177 0.011711523 -0.046061542
0000a0 cb cb 59 bd e0 ff 3a 3d 98 1c 49 3c 82 a0 5a bd
       -0.053172868 0.045654178 0.012274884 -0.05337573
0000b0 70 14 b5 bc e7 50 3d bd 00 55 14 3b ce 11 c3 bc
       -0.022104472 -0.046219733 0.0022633672 -0.0238122
0000c0 68 d0 64 3c 92 02 5a 3d 28 00 7f bc b2 cb 1b 3d
       0.013965704 0.053225107 -0.015564002 0.038036056
0000d0 54 bb b6 3c de ca 56 3d 02 4f 28 bd 20 39 8f bb
       0.022306122 0.052439563 -0.041090973 -0.0043708235
0000e0 14 70 b9 3c 60 ac 02 bb e0 3a 2b 3c fc 9a 4b 3d
       0.02263645 -0.001993917 0.010451049 0.04970835
0000f0 40 95 33 3c dc 90 80 3c 98 4d e4 3c db fc 48 bd
       0.010960877 0.015694074 0.02786903 -0.049069267
000100 e8 3c 14 bd e2 73 c2 bc b2 09 e4 bc 1c 5d c0 3c
       -0.036190897 -0.023736898 -0.027836654 0.023481898
000110 30 97 bf 3c 06 bb 99 bc ac 02 0c bc 1c c2 9e bc
       0.023387522 -0.018765938 -0.008545559 -0.019379668
000120 9e 78 30 3d ee f6 54 bd d1 d0 48 bd 1e ca 03 3d
       0.04308378 -0.051993303 -0.049027268 0.032175176
000130 00 90 3c bc 3d ae 3b bd e6 22 09 3d 58 53 c6 bc
       -0.011508942 -0.045820463 0.033480547 -0.024209663
000140 b8 1d 47 3d 00 8d 7a b9 98 09 23 bd 94 00 fc 3c
       0.048612326 -0.00023894385 -0.03980407 0.030761994
000150 0a 63 1f 3d a8 0e 28 3d 2c 7e 0d bc e0 6c 4a bd
       0.03891281 0.041029602 -0.008636039 -0.049420238
000160 e8 21 5b 3c 18 09 df 3b 18 68 2f bd f4 9b 82 3c
       0.013374783 0.006806504 -0.04282388 0.015943505
000170 80 23 c6 3c 68 63 46 bd af d7 40 bd 08 8f 64 bc
       0.02418685 -0.048434645 -0.047080692 -0.013950117
000180 30 4f 9e bb 38 c9 57 bc 20 ad 50 bc 9c 27 df bc
       -0.004831217 -0.013170533 -0.012736589 -0.027240567
000190 80 a4 4f 3c f4 f6 1f bd d8 21 1f 3c c0 e0 78 3c
       0.012673497 -0.039053872 0.009712659 0.015190303
0001a0 30 a2 4c 3c 58 4d 8a 3c d4 ad 2f 3d a0 ab 32 3d
       0.01248984 0.016882583 0.042890385 0.043620706
0001b0 de c7 59 3d 68 85 a9 3b 14 5e 35 3d 38 cb 9a 3b
       0.053169124 0.005173374 0.044279173 0.0047239326
0001c0 30 1e 98 3c 1c 05 87 3c 2a 08 3b bd 22 ee b1 bc
       0.018569082 0.016481929 -0.045662083 -0.021719996
0001d0 48 f1 41 3d 46 53 28 3d c8 81 fd 3c 40 2a b3 bb
       0.047349244 0.04109504 0.030945674 -0.005467683
0001e0 ec 50 27 bd ec d3 8b 3c 2a e2 34 3d 10 2c 6a 3c
       -0.040848657 0.017068826 0.044161 0.014292732
0001f0 d6 dc 4e 3d f6 3c 25 bd 28 72 a0 3b 40 c1 eb ba
       0.050503574 -0.04034134 0.004896421 -0.001798667
000200 fc 8c 86 3c 88 3c b3 bb ac de d0 3c 20 f9 b7 3c
       0.016424648 -0.0054698624 0.025496803 0.02245766
000210 a0 5e 00 3d 43 d3 05 bd d6 41 03 bd c0 48 83 3b
       0.03134024 -0.032672178 -0.032045208 0.004006475
000220 bc c7 2c bd 90 4d a9 3c 14 17 d1 3c 80 c2 3e 3c
       -0.04218267 0.020666867 0.0255237 0.011643052
000230 c3 2d 25 bd 6c 5f 4e bd e4 df 64 bc ea 47 49 3d
       -0.040326845 -0.05038397 -0.013969395 0.04914085
000240 a6 f5 a2 bc da d1 4b bd 38 10 c8 3b 10 cb f0 3b
       -0.019892525 -0.049760677 0.006105449 0.0073484257
000250 58 0c 3d 3c 70 51 2d 3c
       0.0115385875 0.010578498

encoder.1.weight f4 [150]
000000 00 00 80 3f 00 00 80 3f 00 00 80 3f 00 00 80 3f
       1.0 1.0 1.0 1.0
000010 00 00 80 3f 00 00 80 3f 00 00 80 3f 00 00 80 3f
       1.0 1.0 1.0 1.0
000020 00 00 80 3f 00 00 80 3f 00 00 80 3f 00 00 80 3f
       1.0 1.0 1.0 1.0
000030 00 00 80 3f 00 00 80 3f 00 00 80 3f 00 00 80 3f
       1.0 1.0 1.0 1.0
000040 00 00 80 3f 00 00 80 3f 00 00 80 3f 00 00 80 3f
       1.0 1.0 1.0 1.0
000050 00 00 80 3f 00 00 80 3f 00 00 80 3f 00 00 80 3f
       1.0 1.0 1.0 1.0
000060 00 00 80 3f 00 00 80 3f 00 00 80 3f 00 00 80 3f
       1.0 1.0 1.0 1.0
000070 00 00 80 3f 00 00 80 3f 00 00 80 3f 00 00 80 3f
       1.0 1.0 1.0 1.0
000080 00 00 80 3f 00 00 80 3f 00 00 80 3f 00 00 80 3f
       1.0 1.0 1.0 1.0
000090 00 00 80 3f 00 00 80 3f 00 00 80 3f 00 00 80 3f
       1.0 1.0 1.0 1.0
0000a0 00 00 80 3f 00 00 80 3f 00 00 80 3f 00 00 80 3f
       1.0 1.0 1.0 1.0
0000b0 00 00 80 3f 00 00 80 3f 00 00 80 3f 00 00 80 3f
       1.0 1.0 1.0 1.0
0000c0 00 00 80 3f 00 00 80 3f 00 00 80 3f 00 00 80 3f
       1.0 1.0 1.0 1.0
0000d0 00 00 80 3f 00 00 80 3f 00 00 80 3f 00 00 80 3f
       1.0 1.0 1.0 1.0
0000e0 00 00 80 3f 00 00 80 3f 00 00 80 3f 00 00 80 3f
       1.0 1.0 1.0 1.0
0000f0 00 00 80 3f 00 00 80 3f 00 00 80 3f 00 00 80 3f
       1.0 1.0 1.0 1.0
000100 00 00 80 3f 00 00 80 3f 00 00 80 3f 00 00 80 3f
       1.0 1.0 1.0 1.0
000110 00 00 80 3f 00 00 80 3f 00 00 80 3f 00 00 80 3f
       1.0 1.0 1.0 1.0
000120 00 00 80 3f 00 00 80 3f 00 00 80 3f 00 00 80 3f
       1.0 1.0 1.0 1.0
000130 00 00 80 3f 00 00 80 3f 00 00 80 3f 00 00 80 3f
       1.0 1.0 1.0 1.0
000140 00 00 80 3f 00 00 80 3f 00 00 80 3f 00 00 80 3f
       1.0 1.0 1.0 1.0
000150 00 00 80 3f 00 00 80 3f 00 00 80 3f 00 00 80 3f
       1.0 1.0 1.0 1.0
000160 00 00 80 3f 00 00 80 3f 00 00 80 3f 00 00 80 3f
       1.0 1.0 1.0 1.0
000170 00 00 80 3f 00 00 80 3f 00 00 80 3f 00 00 80 3f
       1.0 1.0 1.0 1.0
000180 00 00 80 3f 00 00 80 3f 00 00 80 3f 00 00 80 3f
       1.0 1.0 1.0 1.0
000190 00 00 80 3f 00 00 80 3f 00 00 80 3f 00 00 80 3f
       1.0 1.0 1.0 1.0
0001a0 00 00 80 3f 00 00 80 3f 00 00 80 3f 00 00 80 3f
       1.0 1.0 1.0 1.0
0001b0 00 00 80 3f 00 00 80 3f 00 00 80 3f 00 00 80 3f
       1.0 1.0 1.0 1.0
0001c0 00 00 80 3f 00 00 80 3f 00 00 80 3f 00 00 80 3f
       1.0 1.0 1.0 1.0
0001d0 00 00 80 3f 00 00 80 3f 00 00 80 3f 00 00 80 3f
       1.0 1.0 1.0 1.0
0001e0 00 00 80 3f 00 00 80 3f 00 00 80 3f 00 00 80 3f
       1.0 1.0 1.0 1.0
0001f0 00 00 80 3f 00 00 80 3f 00 00 80 3f 00 00 80 3f
       1.0 1.0 1.0 1.0
000200 00 00 80 3f 00 00 80 3f 00 00 80 3f 00 00 80 3f
       1.0 1.0 1.0 1.0
000210 00 00 80 3f 00 00 80 3f 00 00 80 3f 00 00 80 3f
       1.0 1.0 1.0 1.0
000220 00 00 80 3f 00 00 80 3f 00 00 80 3f 00 00 80 3f
       1.0 1.0 1.0 1.0
000230 00 00 80 3f 00 00 80 3f 00 00 80 3f 00 00 80 3f
       1.0 1.0 1.0 1.0
000240 00 00 80 3f 00 00 80 3f 00 00 80 3f 00 00 80 3f
       1.0 1.0 1.0 1.0
000250 00 00 80 3f 00 00 80 3f
       1.0 1.0

encoder.1.bias f4 [150]
000000 00 00 00 00 00 00 00 00 00 00 00 00 00 00 00 00
       0.0 0.0 0.0 0.0
000010 00 00 00 00 00 00 00 00 00 00 00 00 00 00 00 00
       0.0 0.0 0.0 0.0
000020 00 00 00 00 00 00 00 00 00 00 00 00 00 00 00 00
       0.0 0.0 0.0 0.0
000030 00 00 00 00 00 00 00 00 00 00 00 00 00 00 00 00
       0.0 0.0 0.0 0.0
000040 00 00 00 00 00 00 00 00 00 00 00 00 00 00 00 00
       0.0 0.0 0.0 0.0
000050 00 00 00 00 00 00 00 00 00 00 00 00 00 00 00 00
       0.0 0.0 0.0 0.0
000060 00 00 00 00 00 00 00 00 00 00 00 00 00 00 00 00
       0.0 0.0 0.0 0.0
000070 00 00 00 00 00 00 00 00 00 00 00 00 00 00 00 00
       0.0 0.0 0.0 0.0
000080 00 00 00 00 00 00 00 00 00 00 00 00 00 00 00 00
       0.0 0.0 0.0 0.0
000090 00 00 00 00 00 00 00 00 00 00 00 00 00 00 00 00
       0.0 0.0 0.0 0.0
0000a0 00 00 00 00 00 00 00 00 00 00 00 00 00 00 00 00
       0.0 0.0 0.0 0.0
0000b0 00 00 00 00 00 00 00 00 00 00 00 00 00 00 00 00
       0.0 0.0 0.0 0.0
0000c0 00 00 00 00 00 00 00 00 00 00 00 00 00 00 00 00
       0.0 0.0 0.0 0.0
0000d0 00 00 00 00 00 00 00 00 00 00 00 00 00 00 00 00
       0.0 0.0 0.0 0.0
0000e0 00 00 00 00 00 00 00 00 00 00 00 00 00 00 00 00
       0.0 0.0 0.0 0.0
0000f0 00 00 00 00 00 00 00 00 00 00 00 00 00 00 00 00
       0.0 0.0 0.0 0.0
000100 00 00 00 00 00 00 00 00 00 00 00 00 00 00 00 00
       0.0 0.0 0.0 0.0
000110 00 00 00 00 00 00 00 00 00 00 00 00 00 00 00 00
       0.0 0.0 0.0 0.0
000120 00 00 00 00 00 00 00 00 00 00 00 00 00 00 00 00
       0.0 0.0 0.0 0.0
000130 00 00 00 00 00 00 00 00 00 00 00 00 00 00 00 00
       0.0 0.0 0.0 0.0
000140 00 00 00 00 00 00 00 00 00 00 00 00 00 00 00 00
       0.0 0.0 0.0 0.0
000150 00 00 00 00 00 00 00 00 00 00 00 00 00 00 00 00
       0.0 0.0 0.0 0.0
000160 00 00 00 00 00 00 00 00 00 00 00 00 00 00 00 00
       0.0 0.0 0.0 0.0
000170 00 00 00 00 00 00 00 00 00 00 00 00 00 00 00 00
       0.0 0.0 0.0 0.0
000180 00 00 00 00 00 00 00 00 00 00 00 00 00 00 00 00
       0.0 0.0 0.0 0.0
000190 00 00 00 00 00 00 00 00 00 00 00 00 00 00 00 00
       0.0 0.0 0.0 0.0
0001a0 00 00 00 00 00 00 00 00 00 00 00 00 00 00 00 00
       0.0 0.0 0.0 0.0
0001b0 00 00 00 00 00 00 00 00 00 00 00 00 00 00 00 00
       0.0 0.0 0.0 0.0
0001c0 00 00 00 00 00 00 00 00 00 00 00 00 00 00 00 00
       0.0 0.0 0.0 0.0
0001d0 00 00 00 00 00 00 00 00 00 00 00 00 00 00 00 00
       0.0 0.0 0.0 0.0
0001e0 00 00 00 00 00 00 00 00 00 00 00 00 00 00 00 00
       0.0 0.0 0.0 0.0
0001f0 00 00 00 00 00 00 00 00 00 00 00 00 00 00 00 00
       0.0 0.0 0.0 0.0
000200 00 00 00 00 00 00 00 00 00 00 00 00 00 00 00 00
       0.0 0.0 0.0 0.0
000210 00 00 00 00 00 00 00 00 00 00 00 00 00 00 00 00
       0.0 0.0 0.0 0.0
000220 00 00 00 00 00 00 00 00 00 00 00 00 00 00 00 00
       0.0 0.0 0.0 0.0
000230 00 00 00 00 00 00 00 00 00 00 00 00 00 00 00 00
       0.0 0.0 0.0 0.0
000240 00 00 00 00 00 00 00 00 00 00 00 00 00 00 00 00
       0.0 0.0 0.0 0.0
000250 00 00 00 00 00 00 00 00
       0.0 0.0

encoder.1.running_mean f4 [150]
000000 47 73 ce 3e 8a 43 40 3e d9 a4 12 bd 8c 54 b5 be
       0.40322325 0.18775764 -0.035801742 -0.35416067
000010 60 55 71 3e 5e 7b 8d be 8b 6c 9f be 40 08 bc bd
       0.23567724 -0.27633184 -0.311375 -0.09181261
000020 8d ae 24 bd 73 6e 50 3e d2 68 2f bf a5 e3 bf 3e
       -0.040205527 0.20354633 -0.6851932 0.37478366
000030 8c d4 5a 3e 9f 05 90 be a0 56 5a be a4 d0 fc 3e
       0.21370143 -0.2812929 -0.21322107 0.4937793
000040 28 1a 8f be 0b ea a1 bd 26 a7 0b be 5a 14 c0 3e
       -0.27949643 -0.07905968 -0.13637981 0.37515527
000050 c6 42 bc bd 93 6c f2 be 4e 32 33 3c 2a f0 36 be
       -0.091924235 -0.4734846 0.010937287 -0.17865053
000060 4e b8 f0 3c 94 48 08 3d 20 3e f2 3e f4 92 54 3d
       0.029384758 0.03327234 0.47313023 0.051897958
000070 73 8b 43 3e a1 00 a7 3e b5 30 9f 3e 86 34 e2 3d
       0.19096164 0.32617667 0.31091848 0.11045174
000080 3a 17 8a 3d 7f ec 68 3d ec 66 c4 3e 85 8b 49 3e
       0.06742711 0.056866165 0.38359773 0.19682129
000090 14 46 2c 3f 0a c0 d9 3e ce 52 51 be dc 0f 15 bc
       0.6729443 0.42529327 -0.20441744 -0.009098019
0000a0 57 ad 9e 3d c8 cf 87 3d e5 f0 28 be 20 cc 35 be
       0.07747906 0.06631428 -0.16498144 -0.17753649
0000b0 48 6d 22 3d 76 f1 9e bd 9f 25 0e be f1 3b 3f bc
       0.039655 -0.07760899 -0.13881539 -0.011672006
0000c0 ec 4f 2e be 71 70 00 bf da 20 cd 3c 6e af 8d 3d
       -0.17022675 -0.5017157 0.025040079 0.06918226
0000d0 5f 57 94 be d8 9e cf 3e d4 3b 37 3f 1a 9c 3d be
       -0.2897291 0.40550876 0.71575665 -0.1851658
0000e0 50 57 bf 3e 9f ef 13 3e fc b1 23 be 3c 5e 18 be
       0.37371302 0.14446877 -0.15985864 -0.14879698
0000f0 8c 6d f6 3d 4d e5 fc be 21 2b 74 bd d0 ef 1d bf
       0.12032613 -0.49393693 -0.059611443 -0.6169405
000100 b5 fc cf 3c 29 96 47 be 67 14 fd 3d 10 2d cc 3d
       0.025389055 -0.19490875 0.12357407 0.099695325
000110 20 62 b0 3d f0 aa dc bc 9f 3a c9 3e d6 51 dc be
       0.08612466 -0.026936978 0.39302537 -0.43031186
000120 b7 c8 d2 3e 56 32 88 be 0b 5b 10 3e a8 09 d7 be
       0.41168758 -0.26600903 0.1409723 -0.41999555
000130 35 b3 da be c2 ab 51 bd c4 92 85 3d c9 5d 05 bd
       -0.4271485 -0.05118919 0.06522134 -0.032560144
000140 98 1f 0d 3f d6 e8 79 3d 93 2c ab 3c 23 68 07 be
       0.55126333 0.061013065 0.020895278 -0.13223319
000150 77 f5 c7 bd 1e 09 1c 3d 7a 40 31 3e ab 09 15 bd
       -0.097636156 0.038094632 0.17309752 -0.036386173
000160 c6 83 85 bd 27 b6 5f 3e 36 8c 0c be 9d 2f 3f be
       -0.065192744 0.2184683 -0.13725361 -0.18670507
000170 cc b0 9f bd 81 d8 04 bf 5d ee f6 3d 85 44 8a be
       -0.07797393 -0.5189286 0.12057183 -0.270054
000180 80 ce 11 3d 23 c8 63 be 8e 9f a2 3e c4 a8 49 be
       0.035597324 -0.22244315 0.31762356 -0.19693285
000190 0d d1 8b 3e f6 be c0 bd e3 eb 2f be 1f 4e a7 3e
       0.2730793 -0.09411423 -0.17179827 0.3267679
0001a0 a4 4f 52 be 7d 87 81 be 6e db 2c be 66 a9 6f 3e
       -0.20538193 -0.25298682 -0.16880581 0.23404464
0001b0 6c c1 3e 3e 61 d2 30 3f c8 3c 0a 3f 08 ec 35 3e
       0.18628472 0.6907101 0.53998995 0.1776582
0001c0 36 df b9 be 57 2d f4 bd 51 6e bd 3d 1f c1 f9 bd
       -0.3630311 -0.119227104 0.09249557 -0.12195038
0001d0 5a 9e 4a be 63 37 02 be 69 cd 50 3d c3 9d aa 3e
       -0.19786969 -0.12716441 0.050977144 0.33323488
0001e0 81 b3 0c bf 12 38 95 3d 21 bc 0b 3e c2 67 73 be
       -0.549614 0.07286085 0.13645984 -0.23770049
0001f0 12 67 de 3d 50 12 8c bd 21 8a cf 3d 56 72 dc 3d
       0.10859503 -0.0683943 0.10133768 0.10763995
000200 2a b9 53 be 22 40 c9 3e ea db cc 3e b9 97 bc 3d
       -0.20676103 0.39306742 0.4001153 0.09208626
000210 0c 42 37 3e ab cd 42 be 07 76 c3 3e 2f 7a 85 be
       0.17896289 -0.19023769 0.38175985 -0.2606978
000220 2c bf 66 be 49 dd cf 3d 58 37 bb 3e fa 74 bc be
       -0.22533864 0.10149629 0.3656566 -0.36807996
000230 a4 d7 04 3d 34 c0 7b 3e c7 87 06 3f d4 8b 33 be
       0.032432213 0.24585038 0.5255093 -0.17533809
000240 16 0b 31 3d 07 35 80 be 3c 52 10 3e 9e 92 f6 bd
       0.043223463 -0.25040457 0.1409387 -0.12039684
000250 cf aa 04 3e e3 3f 5c 3e
       0.12955783 0.21508746

encoder.1.running_var f4 [150]
000000 30 c7 2c 3d 5e c1 cd 3c 2e e6 44 3d 55 36 c7 3d
       0.042182148 0.025116619 0.04807108 0.0972716
000010 d5 c0 16 3d 02 8d 2b 3d 09 cd 18 3e e8 e6 df 3d
       0.036804993 0.041882522 0.14921965 0.10932714
000020 c9 85 8e 3d c0 b1 30 3e aa 47 f3 3d df 27 ac 3d
       0.06959111 0.17255306 0.11878903 0.08406042
000030 51 32 96 3d e0 43 5e 3d 64 c6 a8 3d e0 5c 7b 3d
       0.07333816 0.05426395 0.08240965 0.06136787
000040 2c a2 0e 3e 1d 1f 23 3e ae 55 8c 3d df 79 ba 3d
       0.13929051 0.15929838 0.068522796 0.09105276
000050 76 c6 cd 3d a5 97 84 3d 2c 16 2e 3d 63 8a 90 3d
       0.10047619 0.064742364 0.042501613 0.07057645
000060 d6 85 1b 3d 30 25 be 3e 68 dd 3b 3d 97 e1 8e 3e
       0.037969433 0.37137747 0.045865446 0.27906486
000070 9c 77 01 3d 11 a9 ac 3e 87 75 ac 3d 24 62 53 3d
       0.03160821 0.33722737 0.08420854 0.051607266
000080 59 4e dc 3d d2 a1 3a 3e f3 c2 2b 3e c3 30 70 3e
       0.10757131 0.18225792 0.16773586 0.23456101
000090 a4 13 0c 3d c7 86 13 3e 8e 27 29 3d 09 5f 59 3d
       0.03419842 0.14406882 0.041297488 0.05306915
0000a0 2f 28 fd 3c a6 0a eb 3d 66 f5 66 3e d7 cb 01 3d
       0.03090295 0.114766404 0.2255455 0.031688537
0000b0 cd d4 84 3d 56 10 a1 3d d5 67 d6 3d 53 6e b3 3e
       0.06485901 0.07864444 0.10469023 0.35045108
0000c0 59 89 14 3e 99 1e b0 3d 7e c7 bf 3c 4f 4f fc 3c
       0.14505519 0.08599586 0.023410555 0.030799536
0000d0 48 e9 c9 3d 4f 31 c7 3c ed d7 d3 3d f3 c9 81 3d
       0.09858948 0.024315504 0.10343919 0.06337347
0000e0 56 25 ad 3d 48 4d d3 3d 9f ef 6e 3d 42 d8 c5 3d
       0.08454387 0.103174746 0.05833399 0.096603885
0000f0 aa 6b 92 3d 65 97 52 3d 22 18 83 3d 3d 0b 4f 3e
       0.071494415 0.051413912 0.06401087 0.20219131
000100 d7 8a 92 3d c4 2e 7c 3d 00 76 02 3e 83 cf ac 3d
       0.07155388 0.061568037 0.12740326 0.08438017
000110 af f2 92 3d dd d4 80 3d dc 32 2a 3e ac d9 4a 3d
       0.071751945 0.062906004 0.16620964 0.049523994
000120 b2 43 8d 3c c0 9e 95 3d 61 7e 17 3d 9f a7 a4 3d
       0.017244194 0.0730567 0.03698576 0.08039784
000130 5e 22 08 3e 89 5c 03 3e 5e ed 91 3d a9 20 b4 3d
       0.1329436 0.12828268 0.07125352 0.08795292
000140 9b 7c 12 3d a1 c5 b3 3c 35 72 48 3e c5 7b 5f 3e
       0.035763364 0.021944823 0.19574817 0.21824558
000150 2a e0 df 3c ec c6 01 3e 61 18 83 3d 74 1b a4 3d
       0.02732857 0.12673539 0.06401134 0.08013049
000160 9d 5a 64 3d 90 25 37 3d b1 14 81 3d 2d a8 8c 3d
       0.055750478 0.044713557 0.06302775 0.068680145
000170 e9 87 60 3d 6e 32 34 3e c1 1c 16 3d dd 2f 61 3e
       0.054817114 0.17597362 0.036648516 0.21990915
000180 f0 b0 81 3d 8b b9 7e 3d 38 3a b3 3d 33 28 cb 3d
       0.06332576 0.062188666 0.08751339 0.09919777
000190 b3 2c c3 3d a3 3e e3 3d ca b5 1a 3e 10 ec b5 3c
       0.0953001 0.110959314 0.1510841 0.02220729
0001a0 81 3b 85 3e b5 60 5c 3d 62 48 bd 3c 78 2c 56 3d
       0.2602196 0.053803165 0.023105804 0.052288502
0001b0 11 3b db 3d f1 7f 94 3e fd e8 7c 3e a9 35 93 3d
       0.107046254 0.29003862 0.24698253 0.07187969
0001c0 6d 24 22 3d 26 94 b2 3c 93 5a 93 3d 5d 9e bf 3d
       0.03958552 0.021799158 0.0719501 0.09356377
0001d0 ba 5c ee 3d 19 53 83 3d 15 b2 ca 3d 6f f2 ad 3d
       0.1163878 0.06412334 0.09897248 0.08493506
0001e0 b2 a8 69 3d 34 4e 39 3e 3b 46 61 3e a9 6b bb 3d
       0.057045646 0.18096238 0.21999447 0.09151394
0001f0 0d 90 81 3d 40 a3 46 3e dd 08 7d 3d 41 e4 02 3e
       0.06326304 0.19398212 0.06177603 0.12782384
000200 28 a2 cd 3d d9 88 2f 3d a0 0d 2c 3e 15 58 a3 3d
       0.100406945 0.042855117 0.16802073 0.07975785
000210 02 67 50 3e 24 ec 99 3d 0f 87 ec 3d d8 02 21 3e
       0.20351794 0.075157434 0.11549198 0.15723741
000220 b4 4e 97 3d 9d 90 0b 3e b3 b3 21 3e 53 03 5f 3e
       0.07388058 0.13629384 0.15791206 0.21778612
000230 db 78 22 3e a5 7a a7 3d 9e 2c 65 3e f5 da 97 3d
       0.15866415 0.081776895 0.22380301 0.074148096
000240 1e c2 97 3e 1d 94 95 3d f1 96 21 3e ff 53 8a 3d
       0.29640287 0.07303641 0.15780236 0.06754302
000250 01 eb 14 3e 61 20 da 3d
       0.14542772 0.10650707

encoder.4.weight f4 [50, 150]
000000 e6 f2 0a 3d 41 a8 84 bd bc 55 ce 3c a0 2e 4e 3d
       0.033923052 -0.064774044 0.025187366 0.050337434
000010 82 81 70 bd f0 2b 45 bc 50 60 fc 3b f0 3e c3 3c
       -0.05871726 -0.012034401 0.007701911 0.023833722
000020 a2 0b 9d bd a8 56 59 3d 53 87 9b bd c0 d2 fb bb
       -0.076682344 0.053061157 -0.075941704 -0.0076850355
000030 00 13 b8 3c 3e 66 9d bd 04 73 a4 bd 2c 0b 2b 3d
       0.022469997 -0.07685517 -0.0802975 0.0417587
000040 d4 78 db 3c 89 47 6f bd 68 a2 55 3d 8c 5c 40 3d
       0.026791014 -0.05841783 0.052156836 0.04696326
000050 a0 9d 2f bc d8 78 1c 3d ce 06 d3 bc 91 12 47 bd
       -0.010718733 0.038201183 -0.02576008 -0.04860169
000060 90 bb 8e 3d 28 7e 57 3d d0 2a d2 3b 18 2b 66 3d
       0.069693685 0.052610546 0.006413795 0.05619344
000070 cc 30 71 3d 50 e1 6c bc 58 4c 50 bc 80 7f 3c 3a
       0.058884427 -0.014458016 -0.012713514 0.000719063
000080 1f b8 67 bd 18 c1 52 3d 9c 17 3c 3d 1a c2 b7 bc
       -0.056572076 0.05145368 0.045920953 -0.022431422
000090 4c 72 a2 3d 62 02 a3 bc 14 4a d6 bc 74 87 6a bd
       0.07931957 -0.019898597 -0.02615837 -0.057258084
0000a0 d8 90 71 bd 00 97 75 bb 64 b9 5c bd d0 d9 34 3d
       -0.058976024 -0.0037474036 -0.05388774 0.044153035
0000b0 2a 9e 1f 3d 28 1d d8 3c d4 c5 65 3d 58 b2 4d 3d
       0.038969196 0.02638109 0.056096867 0.05021891
0000c0 d0 05 f8 3b b4 c9 78 bd bc f1 6a 3d 40 9a 26 bb
       0.0075690523 -0.060739234 0.057359442 -0.002542153
0000d0 44 55 7e bd b4 f6 6a bd 98 23 1c 3d b8 a7 38 3d
       -0.062093034 -0.05736418 0.038119882 0.045081824
0000e0 f0 1e 91 3b 68 7e c5 3c 9a e1 88 3d 14 31 f2 bc
       0.004428737 0.024108127 0.06683655 -0.029564418
0000f0 e7 31 6c bd 00 12 2b 3b 54 4d 9c bd c9 9b 86 bd
       -0.057664778 0.0026103258 -0.07631937 -0.065726824
000100 58 0f 7e bd 93 d3 9d bd 9a e0 80 bd b2 94 2d 3d
       -0.06202635 -0.0770637 -0.06292839 0.042378135
000110 71 25 9f bd 44 fa 97 3d 28 9d 9d bd f4 db 3e bd
       -0.07770813 0.07420781 -0.07695991 -0.046596482
000120 6c 6f 1f 3d d0 a1 eb 3c 16 51 ed bc ad fe 83 bd
       0.03892462 0.028763682 -0.028969329 -0.0644506
000130 46 a1 ae bc 34 b6 73 3d 86 01 a4 3d 61 7b 14 bd
       -0.021317136 0.059499934 0.08008103 -0.036250476
000140 e6 bc 87 3d 08 50 5c bc 60 34 16 bc e0 0f 2b 3b
       0.066278264 -0.013446815 -0.009167761 0.0026101992
000150 9e ad a4 bd 24 5f 6f 3d bc e7 e2 bc a0 69 0d 3c
       -0.08040927 0.058440343 -0.02769839 0.00863114
000160 30 3d 53 3d ce 34 64 bd 00 76 04 3d 6c cd 1c 3d
       0.051572025 -0.05571442 0.032339096 0.038281843
000170 f8 e2 39 bc e0 71 52 bd 48 78 9a 3d 27 fd 6e bd
       -0.0113456175 -0.05137813 0.07542473 -0.058346894
000180 f0 78 a6 3c 6c ee 3f 3d 54 a7 fa bc 74 1a 15 3d
       0.02032134 0.046858236 -0.030597366 0.03640218
000190 c0 e3 f5 3c d8 73 46 3d 72 73 96 3d 4a 13 a4 bd
       0.030015826 0.04845032 0.07346238 -0.080114916
0001a0 1d ce 99 bd 0e d8 81 3d c4 c0 7b 3d 12 ba 2e 3d
       -0.07510016 0.06340037 0.061463133 0.04265792
0001b0 c0 61 20 3d 6e b5 89 bd 70 4d c2 3c 54 17 e9 3c
       0.03915572 -0.06724058 0.023718566 0.028453507
0001c0 10 d7 05 3c 9c 9a fd 3c 5a 9d 22 3d 78 62 03 3d
       0.008168951 0.030957513 0.039700843 0.03207633
0001d0 7c d9 8e 3d 5e 41 a6 bd 4c 29 29 bd 58 63 7f bd
       0.069750756 -0.081179366 -0.04129915 -0.0623506
0001e0 06 5d 85 bd 47 75 11 bd 9c 9e 37 bd ad 3a 29 bd
       -0.065118834 -0.035512235 -0.044828996 -0.041315723
0001f0 7a 70 33 bd a0 29 57 bd 90 17 93 bc a4 2a 4b 3d
       -0.043808438 -0.05252993 -0.017955571 0.049601212
000200 45 15 54 bd 5a 67 06 bd 0c e7 ba 3c de b0 2f 3d
       -0.051778097 -0.032813407 0.02281525 0.042893283
000210 f0 b8 5b bc ea 2d 28 3d a0 48 23 bd 84 ff f6 3c
       -0.013410792 0.041059412 -0.039864182 0.030151136
000220 c0 82 6d bc b0 52 87 bd 7c e6 42 3d 6a 61 97 bd
       -0.014496505 -0.06607568 0.04758309 -0.07391627
000230 d4 8d 9f 3d 07 5a 80 bd d8 c6 53 3c 34 8b be bc
       0.077907234 -0.06267171 0.012925826 -0.023259737
000240 d0 ee 36 3c 48 22 19 3c 22 0b 81 3d 26 37 b8 bc
       0.011165336 0.009346552 0.063009515 -0.022487234
000250 ec 93 89 3d b4 c6 8e 3d f0 0b a5 3c fc bc 9a 3d
       0.06717667 0.06971493 0.020147294 0.07555577
000260 f0 f9 88 bc 52 e3 92 3d 9c bb 92 3d 1f 7c 79 bd
       -0.016720742 0.07172264 0.0716469 -0.060909387
000270 f8 40 4f 3d 36 2e 9d 3d b2 eb f4 bc 24 3d 84 bd
       0.05059907 0.0767483 -0.029897545 -0.06456974
000280 57 1b 15 bd 9a a8 a1 3d 5e 67 93 bd d0 44 f1 3b
       -0.036403026 0.07893486 -0.0719745 0.0073629394
000290 1c 5d 23 3d 5c 3a 16 bd 50 32 8d bc 62 fc 71 bd
       0.039883718 -0.03667675 -0.017235905 -0.05907858
0002a0 58 cb 30 3c 54 1b 5b 3d 00 57 d9 b9 4c b3 e2 bc
       0.010790668 0.05349286 -0.00041454285 -0.027673386
0002b0 0c 14 b8 3c 20 19 10 3c e8 c0 94 3c 1d ba 8b bd
       0.022470497 0.008795053 0.018158391 -0.06822608
0002c0 30 10 82 bc b0 df 7e 3c 0d 4c 8f bd b8 be 53 3c
       -0.01587686 0.015556261 -0.069969274 0.012923889
0002d0 5a 4d 08 3d b4 37 e1 3c f8 3e 03 3c f7 2a 88 bd
       0.033276893 0.027492382 0.008010618 -0.0664882
0002e0 44 ea dc 3c cd 93 02 bd b4 72 2f bd 26 11 93 3d
       0.026967175 -0.031879235 -0.042834 0.07181005
0002f0 88 f5 e5 3c 88 6f 7d 3d 8e 8a 82 bd c4 4a 81 3d
       0.02807118 0.061873943 -0.063740835 0.063130885
000300 98 f7 37 bc a0 ed f9 3b f4 ea 41 bd 32 e2 18 3d
       -0.011228465 0.007627204 -0.04734321 0.03732509
000310 ac f1 90 3d f3 27 20 bd 93 02 32 bd 00 17 d7 3a
       0.07077345 -0.0391006 -0.043459486 0.0016410053
000320 88 0f 35 bc e4 32 d1 bc 30 eb 15 bc 80 08 25 bb
       -0.011051066 -0.025536962 -0.009150311 -0.0025182068
000330 6c 39 2a 3d 9c e1 84 3d c2 c5 8b 3d 7a 69 21 3d
       0.041558668 0.06488344 0.06824829 0.03940723
000340 d8 bc 8b 3d ea 37 56 bd fc 8b 85 3d 4d 43 01 bd
       0.068231285 -0.052299418 0.065208405 -0.031558324
000350 2a e9 8a bd 41 db 49 bd cc a0 8b 3d 20 ea 40 bd
       -0.06782754 -0.049281362 0.06817779 -0.04709828
000360 ec c1 90 3d ee 30 25 3d 00 8b 12 3c 60 e4 5a 3c
       0.07068238 0.040329866 0.008944273 0.013360113
000370 34 62 8a bc ee cd a9 bc b8 bc 3c 3c e0 99 64 3b
       -0.01689253 -0.020728078 0.011519603 0.0034881756
000380 40 a2 ae 3a 1c c8 36 3d 14 a6 a2 bc c0 10 5a 3b
       0.0013323501 0.044624433 -0.019854583 0.0033274144
000390 2f e8 48 bd ff 8e 90 bd 80 c8 44 3d f4 72 cf 3c
       -0.049049553 -0.07058524 0.048042774 0.025323369
0003a0 db 95 8b bd 0a 5d 17 3d 58 18 7a bc e0 59 76 3b
       -0.06815692 0.036953963 -0.015264593 0.003759019
0003b0 e0 2e 05 3d ac 9a fc bc 3a 13 9b 3d 20 56 90 3c
       0.032515407 -0.030835472 0.075720266 0.017619193
0003c0 fc eb ba 3c a8 bf 42 3c d0 21 8c 3b 10 d5 5e 3d
       0.022817604 0.011886515 0.0042764917 0.05440241
0003d0 c8 54 0f 3c 57 50 1e bd b6 80 0a 3d 18 ac 93 3d
       0.008748241 -0.038650837 0.033814155 0.07210559
0003e0 58 db 84 bd c9 b6 a3 bd 02 9d 02 bd 88 f6 71 bc
       -0.06487149 -0.07993848 -0.031888016 -0.01476825
0003f0 44 51 de 3c 34 5c a4 bd 24 9d 93 3d dc 3b 90 bd
       0.02713836 -0.08025399 0.072077066 -0.07042667

encoder.4.bias f4 [50]
000000 3c 71 77 3d ba fe 1e 3d f8 f1 8c 3c 5e ea e4 bc
       0.060410723 0.038817145 0.017205223 -0.027943786
000010 b7 46 3c bd b8 65 53 bc 89 60 26 bd 24 f8 92 bc
       -0.045965876 -0.01290267 -0.040619407 -0.017940588
000020 fe 15 8d bd 30 33 be 3b ab 2e a4 bd d2 87 9f 3d
       -0.0688896 0.005804442 -0.08016714 0.077895775
000030 88 e6 1b bc 9c 0e a1 bd 08 84 6b 3c 90 4b 90 3b
       -0.009515412 -0.07864115 0.01437474 0.004403539
000040 1e e4 99 3d 1e d2 a1 bd 68 33 d0 3c b8 d0 63 bd
       0.07514213 -0.07901405 0.025415137 -0.05561897
000050 b6 9a 8f bd cc 9b 48 3d 14 f2 a5 3c 9c c3 9f 3d
       -0.07011931 0.048976704 0.020257033 0.078009814
000060 58 b9 75 bc 5b c1 08 bd 26 0b 3f bd 1a 2b 1f 3d
       -0.014997803 -0.033387523 -0.04664149 0.038859464
000070 90 51 de 3b 94 7a c4 bc 98 8f 65 3d ee 09 00 3d
       0.0067846254 -0.023984231 0.056045145 0.03125947
000080 87 0f 07 bd 68 be 1d bc a0 14 83 3d dc e4 8b 3d
       -0.032973792 -0.009627916 0.06400418 0.06830761
000090 f8 ae 2f 3c 78 b4 05 3c 80 58 64 3a 4c c8 42 3d
       0.010722868 0.008160703 0.00087106973 0.0475543
0000a0 b0 46 74 bc ed db 86 bd 96 ce 8d 3d 7c ad 88 3d
       -0.014909431 -0.06584916 0.06924169 0.066737145
0000b0 98 dd 5d 3d 50 69 8b bc 08 83 79 3c 84 44 8f bd
       0.054166406 -0.01701799 0.015228994 -0.0699549
0000c0 54 3a 50 3d 78 8d 7d bc
       0.050836876 -0.015475623

encoder.5.weight f4 [50]
000000 00 00 80 3f 00 00 80 3f 00 00 80 3f 00 00 80 3f
       1.0 1.0 1.0 1.0
000010 00 00 80 3f 00 00 80 3f 00 00 80 3f 00 00 80 3f
       1.0 1.0 1.0 1.0
000020 00 00 80 3f 00 00 80 3f 00 00 80 3f 00 00 80 3f
       1.0 1.0 1.0 1.0
000030 00 00 80 3f 00 00 80 3f 00 00 80 3f 00 00 80 3f
       1.0 1.0 1.0 1.0
000040 00 00 80 3f 00 00 80 3f 00 00 80 3f 00 00 80 3f
       1.0 1.0 1.0 1.0
000050 00 00 80 3f 00 00 80 3f 00 00 80 3f 00 00 80 3f
       1.0 1.0 1.0 1.0
000060 00 00 80 3f 00 00 80 3f 00 00 80 3f 00 00 80 3f
       1.0 1.0 1.0 1.0
000070 00 00 80 3f 00 00 80 3f 00 00 80 3f 00 00 80 3f
       1.0 1.0 1.0 1.0
000080 00 00 80 3f 00 00 80 3f 00 00 80 3f 00 00 80 3f
       1.0 1.0 1.0 1.0
000090 00 00 80 3f 00 00 80 3f 00 00 80 3f 00 00 80 3f
       1.0 1.0 1.0 1.0
0000a0 00 00 80 3f 00 00 80 3f 00 00 80 3f 00 00 80 3f
       1.0 1.0 1.0 1.0
0000b0 00 00 80 3f 00 00 80 3f 00 00 80 3f 00 00 80 3f
       1.0 1.0 1.0 1.0
0000c0 00 00 80 3f 00 00 80 3f
       1.0 1.0

encoder.5.bias f4 [50]
000000 00 00 00 00 00 00 00 00 00 00 00 00 00 00 00 00
       0.0 0.0 0.0 0.0
000010 00 00 00 00 00 00 00 00 00 00 00 00 00 00 00 00
       0.0 0.0 0.0 0.0
000020 00 00 00 00 00 00 00 00 00 00 00 00 00 00 00 00
       0.0 0.0 0.0 0.0
000030 00 00 00 00 00 00 00 00 00 00 00 00 00 00 00 00
       0.0 0.0 0.0 0.0
000040 00 00 00 00 00 00 00 00 00 00 00 00 00 00 00 00
       0.0 0.0 0.0 0.0
000050 00 00 00 00 00 00 00 00 00 00 00 00 00 00 00 00
       0.0 0.0 0.0 0.0
000060 00 00 00 00 00 00 00 00 00 00 00 00 00 00 00 00
       0.0 0.0 0.0 0.0
000070 00 00 00 00 00 00 00 00 00 00 00 00 00 00 00 00
       0.0 0.0 0.0 0.0
000080 00 00 00 00 00 00 00 00 00 00 00 00 00 00 00 00
       0.0 0.0 0.0 0.0
000090 00 00 00 00 00 00 00 00 00 00 00 00 00 00 00 00
       0.0 0.0 0.0 0.0
0000a0 00 00 00 00 00 00 00 00 00 00 00 00 00 00 00 00
       0.0 0.0 0.0 0.0
0000b0 00 00 00 00 00 00 00 00 00 00 00 00 00 00 00 00
       0.0 0.0 0.0 0.0
0000c0 00 00 00 00 00 00 00 00
       0.0 0.0

encoder.5.running_mean f4 [50]
000000 c8 2e 62 bc 04 cf 6b bc bf c1 09 be a4 b5 ff bc
       -0.013805099 -0.014392618 -0.13452815 -0.031214543
000010 d4 60 8c 3c ca a0 98 be da a8 9b 3d a7 02 5d 3d
       0.017136015 -0.29810172 0.07600565 0.053957608
000020 92 cc 36 bd a8 d9 f1 bd fa 7b 00 be 59 d2 7b 3e
       -0.044628687 -0.11809093 -0.12547293 0.2459196
000030 f9 d0 cd 3d 8e 5f 09 be f1 dd 10 be d3 d0 ab 3e
       0.10049624 -0.13415357 -0.14147164 0.33557758
000040 2e 8c da bb 3b 28 8c bd 8f 1c e4 bd 46 f5 0e be
       -0.0066695428 -0.06843611 -0.111382596 -0.13960752
000050 9c 62 a9 3d 27 ea 43 3e 80 9d 4d 3c 5d 80 0a 3e
       0.08270761 0.19132291 0.012549758 0.13525529
000060 56 a2 ec 3d 1b 39 99 bd 7b 89 68 be db ee 3b 3e
       0.115544006 -0.07481595 -0.22708695 0.18352835
000070 36 f7 8f 3e 19 12 d1 be f8 3d aa 3e 7a b6 6b be
       0.28118294 -0.4083412 0.33250403 -0.23018828
000080 f8 f4 55 3e ff 4c a9 be 80 d1 00 be eb be 45 3e
       0.2089423 -0.33066556 -0.12579918 0.1931111
000090 46 a4 a2 3e 7d 40 19 3e 9a 36 57 bd 16 89 38 3e
       0.31765956 0.14966007 -0.052542306 0.18021044
0000a0 55 0f ca 3d 9e 06 cb 3d ac 5f 80 be 96 df 11 bd
       0.098662056 0.099133715 -0.25072992 -0.03561362
0000b0 da e9 9c 3e e9 4c 58 be 42 0f 26 be ef b7 be bd
       0.30647165 -0.21123089 -0.16216758 -0.09312426
0000c0 f7 4e 99 be a0 0f b4 3d
       -0.29943058 0.08792043

encoder.5.running_var f4 [50]
000000 d5 11 8a 3e f8 5d 86 3e 63 17 8d 3e 6e da 70 3e
       0.2696673 0.26243567 0.27556905 0.23520824
000010 92 66 92 3e 66 ad d4 3e 3d 5f 70 3e 6c 5a aa 3e
       0.2859388 0.41538543 0.2347383 0.3327211
000020 66 81 85 3e 13 77 97 3e 7d 9b 91 3e 7b 51 90 3e
       0.26075286 0.29583034 0.2843894 0.28187165
000030 a1 0d db 3e a8 12 92 3e 6e eb 8b 3e a7 d3 97 3e
       0.42783836 0.2852986 0.27328056 0.29653665
000040 94 8b 58 3e 07 f2 8b 3e 45 b1 7f 3e d1 ba 6d 3e
       0.21146995 0.2733309 0.24969967 0.23215796
000050 7e fe 89 3e 4e 74 77 3e 9f e8 a8 3e d6 6e 8d 3e
       0.26951975 0.2416546 0.32989976 0.27623624
000060 28 62 8c 3e 3a 35 99 3e 01 73 89 3e 39 2f 94 3e
       0.27418637 0.2992342 0.26845554 0.28942278
000070 0f 96 99 3e 97 bc 83 3e 2f ca 9a 3e 0a c6 d9 3e
       0.29997298 0.2572982 0.3023238 0.42533904
000080 2b c6 80 3e bc 31 87 3e d7 15 2d 3e 16 52 98 3e
       0.2515119 0.26405132 0.16902862 0.29750127
000090 3d 71 42 3e e2 fd de 3e ac ab bf 3e 3f 71 d4 3e
       0.1898851 0.43553072 0.37435663 0.4149265
0000a0 1c aa 72 3e 0d 11 96 3e 27 84 ca 3e b6 ca 3a 3e
       0.23697704 0.29309884 0.3955395 0.1824139
0000b0 4e a2 80 3e ce 4a 8b 3e a0 b3 7f 3e 5c ea 0c 3f
       0.2512383 0.2720551 0.24970865 0.55045104
0000c0 0b d1 68 3e 0a 5b 66 3e
       0.22735994 0.22495666
