neural_network/last_checkpoint.pth (torch, 404155 bytes, 12 tensors)

encoder.0.weight f4 [200, 328]
-0.020007808 -0.044117298 0.034322817 -0.032471605 -0.047401346 -0.001281146 -0.0045587867 -0.045409426
-0.024276206 -0.05367021 -0.01860514 0.030461524 -0.051855173 0.021984179 -0.039974276 0.016461026
-0.02814652 -0.02126931 0.03947513 0.015948448 0.014694948 -0.04914165 -0.02616122 -0.01770961
0.036243666 0.025896203 -0.043086402 -0.0109495185 0.054959167 -0.0066139065 -0.024945127 -0.0010063313
-0.006529495 0.0033848323 0.012612779 0.03828034 0.007530216 -0.049791425 0.016320262 0.01745272
0.023323495 0.0424882 0.010148447 0.026569176 0.03505216 0.050299663 -0.0128300935 0.045586254
0.047452565 -0.048245266 0.045205895 0.028478649 -0.004333921 -0.054275382 -0.047916535 0.048192073
0.04857726 0.0020024255 -0.040508546 -0.023693882 -0.030644458 0.024967518 0.03645962 -0.017241314
0.0041576996 0.04087643 -0.015624706 -0.007864088 -0.051097486 0.012252655 -0.0028709583 -0.04447118
-0.009750806 0.03565837 -0.022066046 -0.05206747 -0.045736127 0.04601674 -0.019774176 0.04520129
0.01555017 0.017637279 -0.04539023 -0.04595037 0.00803205 0.02877729 0.041570496 0.018826317
0.019397695 0.021839138 -0.0251395 -0.0364199 -0.03146801 0.040547643 -0.031320974 0.040273096
0.009223569 0.012511123 -0.0071077235 -0.021071922 0.046341855 0.0050782263 0.03271797 -0.016028862
0.004347939 -0.013561457 -0.001350373 -0.023123294 0.047013965 0.03337389 -0.020234793 0.04565813
-0.026803592 -0.021496002 -0.04515446 -0.0360531 0.0055885836 0.03443182 0.021425117 -0.04786888
0.043757755 0.04072277 -0.027670532 0.046883266 -0.045459554 -0.034115493 -0.04917738 -0.0021916926
0.029513534 -0.0028734878 -0.0126859285 0.012217294 -0.010349512 0.05051245 -0.009549029 0.041973528
0.0021921843 -0.023197103 0.038944546 0.031330418 0.033789974 0.013709877 0.052576113 -0.014932044
-0.033598334 -0.03452994 -0.02789619 -0.039724402 -0.025764318 -0.030836578 0.053285163 -0.03255641
-0.009591274 -0.03172736 -0.05168046 0.009600576 -0.02867949 -0.001461599 0.017419387 0.035119195
0.04032998 -0.045034323 -0.028375885 0.011267152 -0.050889976 -0.0139283985 0.021526996 -0.017193265
0.017160844 0.03503317 -0.0023527592 -0.017047632 0.050638217 0.03931203 0.030173708 -0.05492535
0.044065874 -0.015998963 -0.049685907 -0.018962778 0.018417958 -0.016759668 0.006793745 -0.028390544
0.024820868 -0.055149283 0.02994107 -0.052906822 0.050895665 -0.033907823 0.03214411 -0.049422234
-0.04235389 -0.003714174 -0.04908306 -0.03819713 0.037819464 -0.018300127 -0.02567701 -0.0058751963
-0.007838517 -0.014150739 0.031771075 0.033455264 0.03850839 -0.027344573 0.026131053 0.0432314
-0.029711979 0.047920357 -0.035376996 0.016890991 0.00315243 -0.012422785 0.05344486 -0.022365015
0.020157937 -0.019794248 0.029342059 0.030398246 0.0038674176 0.045969393 0.00991432 -0.0043415204
0.051669735 -0.042263754 0.044918697 0.0072258376 0.043522757 -0.012118101 -0.004839625 0.0536302
0.013469186 -0.004084084 -0.007245101 -0.001880236 -0.0020170845 0.023971904 -0.00910686 -0.008085534
0.047826555 -0.0391778 -0.02670374 -0.015185814 -0.011008091 0.048055124 -0.031881258 -0.02510273
0.0356567 0.015818182 0.012618352 -0.01809958 0.03331389 0.011232484 0.021888424 -0.015877884
00000000: 6ae7 a3bc 57b4 34bd 1596 0c3d f200 05bd
00000010: ea27 42bd 20ec a7ba e061 95bb 3cff 39bd
00000020: e5de c6bc 4bd5 5bbd ce69 98bc 728a f93c
00000030: 1766 54bd 2a18 b43c 11bc 23bd 46d9 863c
00000040: 8893 e6bc fa3c aebc adb0 213d 52a6 823c
00000050: 14c3 703c c148 49bd 0e50 d6bc be13 91bc
00000060: 3d74 143d 4624 d43c 5e7b 30bd 9c65 33bc
00000070: dd1c 613d 78b9 d8bb b959 ccbc e0e6 83ba
00000080: 60f5 d5bb 10d4 5d3b d4a5 4e3c d9cb 1c3d
00000090: 08c0 f63b 18f2 4bbd 12b2 853c 02f9 8e3c
000000a0: ea10 bf3c 1b08 2e3d ac45 263c 9aa7 d93c
000000b0: db92 0f3d 0507 4e3d 5035 52bc a7b8 3a3d
000000c0: 9f5d 423d d49c 45bd d129 393d 0e4c e93c
000000d0: 9003 8ebb dd4f 5ebd 2144 44bd 0d65 453d
000000e0: f3f8 463d 203b 033b 4aec 25bd ac19 c2bc
000000f0: 160a fbbc ae88 cc3c af56 153d a83d 8dbc
00000100: 503d 883b 0b6e 273d c4fe 7fbc 60d8 00bc
00000110: 994b 51bd 5cbf 483c b026 3cbb 6927 36bd
00000120: d8c1 1fbc 830e 123d dac3 b4bc b344 55bd
00000130: ce55 3bbd 0d7c 3c3d 74fd a1bc fd24 393d
00000140: 24c6 7e3c 0e7c 903c 1beb 39bd 7536 3cbd
00000150: dc98 033c 5abe eb3c d345 2a3d a639 9a3c
00000160: eae7 9e3c fee7 b23c 5af1 cdbc 082d 15bd
00000170: 9ae4 00bd 4915 263d 6c4a 00bd 67f5 243d
00000180: 741e 173c 74fb 4c3c e8e7 e8bb 069f acbc
00000190: f5d0 3d3d 4067 a63b 4703 063d f64e 83bc
000001a0: 2879 8e3b e030 5ebc 00ff b0ba 106d bdbc
000001b0: b791 403d 0fb3 083d 70c3 a5bc 0504 3b3d
000001c0: 3593 dbbc 6218 b0bc e2f3 38bd 6aac 13bd
000001d0: 7020 b73b 6108 0d3d ba83 af3c 2912 44bd
000001e0: 553b 333d ebcc 263d 50ad e2bc ab08 403d
000001f0: cc33 3abd b0bc 0bbd 386e 49bd 80a2 0fbb
00000200: 5ec6 f13c 2051 3cbb a4d8 4fbc 0c2b 483c
00000210: 0091 29bc 25e6 4e3d 8873 1cbc 6fec 2b3d
00000220: c0aa 0f3b da07 bebc 5184 1f3d 5354 003d
00000230: 5b67 0a3d 649f 603c 0d5a 573d 88a5 74bc
00000240: 689e 09bd 446f 0dbd 8d86 e4bc 0eb6 22bd
00000250: b10f d3bc fe9c fcbc 8b41 5a3d df59 05bd
00000260: b824 1dbc 8cf4 01bd e4ae 53bd bc4b 1d3c
00000270: 40f1 eabc 2093 bfba 1ab3 8e3c 25d9 0f3d
00000280: 0d31 253d e975 38bd 8b74 e8bc dc99 383c
00000290: 0272 50bd f033 64bc 6259 b03c e4d8 8cbc
000002a0: e694 8c3c f17e 0f3d c030 1abb 7aa7 8bbc
000002b0: 056a 4f3d a705 213d da2e f73c 67f9 60bd
000002c0: 6b7e 343d 4210 83bc 7383 4bbd d457 9bbc
000002d0: 42e1 963c 924b 89bc 109e de3b 4993 e8bc
000002e0: 2255 cb3c 37e4 61bd fa46 f53c d3b4 58bd
000002f0: f977 503d eee2 0abd 8ba9 033d f86e 4abd
00000300: 467b 2dbd 8069 73bb 520b 49bd 9874 1cbd
00000310: 95e8 1a3d 26ea 95bc 9858 d2bc b884 c0bb
00000320: 206d 00bc 80d8 67bc 6322 023d 6308 093d
00000330: f9ba 1d3d ba01 e0bc ca10 d63c 6913 313d
00000340: 8966 f3bc 2348 443d 78e7 10bd fa5e 8a3c
00000350: 0099 4e3b f088 4bbc ffe8 5a3d d636 b7bc
00000360: 4222 a53c 8c27 a2bc c25e f03c be05 f93c
00000370: 8074 7d3b 674a 3c3d ac6f 223c 5043 8ebb
00000380: a5a3 533d c21c 2dbd abfc 373d b8c6 ec3b
00000390: eb44 323d 008b 46bc b895 9ebb 57ab 5b3d
000003a0: dcad 5c3c c8d3 85bb 5068 edbb 4072 f6ba
000003b0: 1031 04bb ba60 c43c f034 15bc 3079 04bc
000003c0: c7e5 433d e778 20bd cdc1 dabc eccd 78bc
000003d0: 485b 34bc 73d5 443d ec95 02bd 3ea4 cdbc
000003e0: c30c 123d 2295 813c 34bd 4e3c 9245 94bc
000003f0: 2574 083d 7408 383c 5a4f b33c 5612 82bc

encoder.0.bias f4 [200]
-0.045040265 0.014389131 -0.023948755 -0.05474569 -0.006916426 -0.014530256 -0.046165913 0.055019807
-0.028951395 0.022775214 -0.024689749 0.049372163 -0.029725814 0.044841286 0.008444261 0.040127944
0.036370385 -0.024554392 -0.03157311 0.014482316 -0.026752606 -0.031094339 0.021801505 0.018594112
-0.00881717 -0.009581387 0.018017288 -0.037849113 0.047709424 0.050302435 -0.010644004 -0.043567967
-0.043055728 0.021267336 0.048901442 -0.04112557 -0.00065840036 -0.0025077574 -0.0384872 0.041977156
0.052804943 -0.023215178 -0.002820257 0.026508566 -0.016229834 -0.047502026 -0.022772603 0.0022319444
0.0047156885 -0.020103458 0.007994775 -0.032722265 -0.019439392 0.052886073 -0.016699154 -0.035532586
0.025045086 0.017997768 0.032985378 -0.054332178 0.0106871985 0.054806817 0.049258355 0.006824255
0.05375133 0.036454108 0.04387113 0.029734243 -0.03512854 -0.038531266 0.036462072 -0.008133132
0.0010746494 -0.02049382 0.053370435 0.028086644 -0.02885731 -0.027485466 0.01562902 -0.0070648678
-0.05267602 -0.010204416 -0.019306686 0.023462381 0.00367089 -0.04834881 -0.01637416 -0.016674448
-0.017216735 0.039777268 0.010276269 -0.004717149 0.0147669725 0.039494876 0.013137791 0.026977014
-0.006166149 -0.0034455806 0.02496818 0.021724913 -0.03027695 0.045413945 0.032573726 0.046624277
0.0207345 -0.044560373 0.035343755 -0.0066146627 -0.009648409 0.038727354 -0.03323939 -0.037920028
0.01351041 0.015921112 0.022821072 0.03241283 0.045509953 0.03230134 -0.011491951 0.013504703
0.054153915 0.011130247 0.0016136356 0.018073339 0.03040151 -0.049074758 0.019726064 -0.054735485
0.052869324 0.0057858936 0.02896345 -0.025379756 -0.0051643588 -0.03336284 -0.0037605725 -0.002959188
0.047615986 0.037480365 0.043421824 0.0505107 -0.007654913 0.053863738 -0.030654257 -0.020419367
-0.003373202 -0.05322636 -0.03834416 -0.023368299 -0.019434243 0.0017752945 0.03301577 -0.018971052
0.02063306 0.0022650324 -0.039893612 -0.0480661 0.018965099 0.013567556 0.013874989 0.016099174
0.005582556 -0.03136284 -0.029455977 -0.04664899 0.01517323 -0.007156078 0.021301609 0.02175403
0.016434256 -0.04344308 -0.011346314 0.0008094646 -0.044925854 -0.0102328025 0.012432177 -0.050746482
-0.04059823 -0.011476748 -0.040335804 0.0027341358 -0.03909547 -0.03049816 -0.0268165 0.006610431
-0.04236811 -0.021265857 -0.028428115 -0.034368478 -0.024088627 -0.038165446 -0.04425834 -0.03491764
0.030588146 0.03897653 0.037090655 -0.031141369 -0.054205406 0.050062466 -0.043642707 -0.034181654
00000000: 247c 38bd 64c0 6b3c 2e30 c4bc 043d 60bd
00000010: 30a3 e2bb 5010 6ebc 7818 3dbd 735c 613d
00000020: 7a2b edbc 1693 ba3c 2842 cabc 773a 4a3d
00000030: 8d83 f3bc 7fab 373d cc59 0a3c 335d 243d
00000040: 1df9 143d 4b26 c9bc ce52 01bd 3c47 6d3c
00000050: 4828 dbbc 8eb9 febc 1299 b23c ae52 983c
00000060: e475 10bc 40fb 1cbc fe98 933c ac07 1bbd
00000070: f56a 433d ed09 4e3d 3064 2ebc 5374 32bd
00000080: 345b 30bd d638 ae3c e14c 483d 4973 28bd
00000090: 8098 2cba 3059 24bb c1a4 1dbd 3df0 2b3d
000000a0: ff49 583d c22d bebc 10d4 38bb 7e28 d93c
000000b0: 6ef4 84bc 7c91 42bd 9c8d babc d045 123b
000000c0: 1086 9a3b 02b0 a4bc 84fc 023c c807 06bd
000000d0: 5c3f 9fbc 119f 583d aacc 88bc 9e8a 11bd
000000e0: 5a2b cd3c 0e70 933c ad1b 073d 6b8b 5ebd
000000f0: 5c19 2f3c 1d7d 603d 21c3 493d 009e df3b
00000100: 5b2a 5c3d e750 153d 37b2 333d 3a95 f33c
00000110: f2e2 0fbd f6d2 1dbd 4159 153d d440 05bc
00000120: 40db 8c3a a8e2 a7bc f59a 5a3d f615 e63c
00000130: 2a66 ecbc 3329 e1bc 6e08 803c 6880 e7bb
00000140: cfc2 57bd 6c30 27bc 0e29 9ebc 2e34 c03c
00000150: 5093 703b 6709 46bd 1a23 86bc da98 88bc
00000160: 1c0a 8dbc 7ded 223d cc5d 283c 5092 9abb
00000170: 2cf1 713c 61c5 213d e43f 573c e6fe dc3c
00000180: 680d cabb 40cf 61bb 128a cc3c 72f8 b13c
00000190: 5e07 f8bc f903 3a3d 076c 053d 19f9 3e3d
000001a0: 66db a93c f084 36bd 9dc4 103d d0bf d8bb
000001b0: 5c14 1ebc 93a0 1e3d 0726 08bd 0852 1bbd
000001c0: c45a 5d3c fe6c 823c 42f3 ba3c 51c3 043d
000001d0: a568 3a3d 694e 043d bc48 3cbc d442 5d3c
000001e0: 7fd0 5d3d a45b 363c a080 d33a 8a0e 943c
000001f0: 960c f93c 9d02 49bd 8e98 a13c 5132 60bd
00000200: 818d 583d 9897 bd3b c244 ed3c 35e9 cfbc
00000210: c839 a9bb 79a7 08bd f073 76bb f0ee 41bb
00000220: fb08 433d 0385 193d 15db 313d 4fe4 4e3d
00000230: 10d6 fabb 39a0 5c3d a31e fbbc 8446 a7bc
00000240: f010 5dbb e203 5abd c40e 1dbd e06e bfbc
00000250: 9034 9fbc 00b1 e83a 8b3b 073d 2e69 9bbc
00000260: aa06 a93c f070 143b 7c67 23bd f5e0 44bd
00000270: b25c 9b3c 744a 5e3c ec53 633c 6ae2 833c
00000280: e0ed b63b 5276 00bd a94d f1bc 0313 3fbd
00000290: 2499 783c 887d eabb b680 ae3c 8235 b23c
000002a0: 22a1 863c 5ff1 31bd e4e5 39bc 4032 543a
000002b0: 2c04 38bd 7ca7 27bc 54b0 4b3c 8bdb 4fbd
000002c0: 544a 26bd f808 3cbc 2837 25bd 302f 333b
000002d0: 9222 20bd 47d7 f9bc 47ae dbbc 509c d83b
000002e0: 2f8a 2dbd bc35 aebc 14e2 e8bc f6c5 0cbd
000002f0: 8355 c5bc 5f53 1cbd 3c48 35bd cd05 0fbd
00000300: fe93 fa3c dba5 1f3d 5fec 173d 2f1c ffbc
00000310: 7d06 5ebd 4d0e 4d3d b2c2 32bd 1002 0cbd

encoder.1.weight f4 [200]
1.0 1.0 1.0 1.0 1.0 1.0 1.0 1.0
1.0 1.0 1.0 1.0 1.0 1.0 1.0 1.0
1.0 1.0 1.0 1.0 1.0 1.0 1.0 1.0
1.0 1.0 1.0 1.0 1.0 1.0 1.0 1.0
1.0 1.0 1.0 1.0 1.0 1.0 1.0 1.0
1.0 1.0 1.0 1.0 1.0 1.0 1.0 1.0
1.0 1.0 1.0 1.0 1.0 1.0 1.0 1.0
1.0 1.0 1.0 1.0 1.0 1.0 1.0 1.0
1.0 1.0 1.0 1.0 1.0 1.0 1.0 1.0
1.0 1.0 1.0 1.0 1.0 1.0 1.0 1.0
1.0 1.0 1.0 1.0 1.0 1.0 1.0 1.0
1.0 1.0 1.0 1.0 1.0 1.0 1.0 1.0
1.0 1.0 1.0 1.0 1.0 1.0 1.0 1.0
1.0 1.0 1.0 1.0 1.0 1.0 1.0 1.0
1.0 1.0 1.0 1.0 1.0 1.0 1.0 1.0
1.0 1.0 1.0 1.0 1.0 1.0 1.0 1.0
1.0 1.0 1.0 1.0 1.0 1.0 1.0 1.0
1.0 1.0 1.0 1.0 1.0 1.0 1.0 1.0
1.0 1.0 1.0 1.0 1.0 1.0 1.0 1.0
1.0 1.0 1.0 1.0 1.0 1.0 1.0 1.0
1.0 1.0 1.0 1.0 1.0 1.0 1.0 1.0
1.0 1.0 1.0 1.0 1.0 1.0 1.0 1.0
1.0 1.0 1.0 1.0 1.0 1.0 1.0 1.0
1.0 1.0 1.0 1.0 1.0 1.0 1.0 1.0
1.0 1.0 1.0 1.0 1.0 1.0 1.0 1.0
00000000: 0000 803f 0000 803f 0000 803f 0000 803f
00000010: 0000 803f 0000 803f 0000 803f 0000 803f
00000020: 0000 803f 0000 803f 0000 803f 0000 803f
00000030: 0000 803f 0000 803f 0000 803f 0000 803f
00000040: 0000 803f 0000 803f 0000 803f 0000 803f
00000050: 0000 803f 0000 803f 0000 803f 0000 803f
00000060: 0000 803f 0000 803f 0000 803f 0000 803f
00000070: 0000 803f 0000 803f 0000 803f 0000 803f
00000080: 0000 803f 0000 803f 0000 803f 0000 803f
00000090: 0000 803f 0000 803f 0000 803f 0000 803f
000000a0: 0000 803f 0000 803f 0000 803f 0000 803f
000000b0: 0000 803f 0000 803f 0000 803f 0000 803f
000000c0: 0000 803f 0000 803f 0000 803f 0000 803f
000000d0: 0000 803f 0000 803f 0000 803f 0000 803f
000000e0: 0000 803f 0000 803f 0000 803f 0000 803f
000000f0: 0000 803f 0000 803f 0000 803f 0000 803f
00000100: 0000 803f 0000 803f 0000 803f 0000 803f
00000110: 0000 803f 0000 803f 0000 803f 0000 803f
00000120: 0000 803f 0000 803f 0000 803f 0000 803f
00000130: 0000 803f 0000 803f 0000 803f 0000 803f
00000140: 0000 803f 0000 803f 0000 803f 0000 803f
00000150: 0000 803f 0000 803f 0000 803f 0000 803f
00000160: 0000 803f 0000 803f 0000 803f 0000 803f
00000170: 0000 803f 0000 803f 0000 803f 0000 803f
00000180: 0000 803f 0000 803f 0000 803f 0000 803f
00000190: 0000 803f 0000 803f 0000 803f 0000 803f
000001a0: 0000 803f 0000 803f 0000 803f 0000 803f
000001b0: 0000 803f 0000 803f 0000 803f 0000 803f
000001c0: 0000 803f 0000 803f 0000 803f 0000 803f
000001d0: 0000 803f 0000 803f 0000 803f 0000 803f
000001e0: 0000 803f 0000 803f 0000 803f 0000 803f
000001f0: 0000 803f 0000 803f 0000 803f 0000 803f
00000200: 0000 803f 0000 803f 0000 803f 0000 803f
00000210: 0000 803f 0000 803f 0000 803f 0000 803f
00000220: 0000 803f 0000 803f 0000 803f 0000 803f
00000230: 0000 803f 0000 803f 0000 803f 0000 803f
00000240: 0000 803f 0000 803f 0000 803f 0000 803f
00000250: 0000 803f 0000 803f 0000 803f 0000 803f
00000260: 0000 803f 0000 803f 0000 803f 0000 803f
00000270: 0000 803f 0000 803f 0000 803f 0000 803f
00000280: 0000 803f 0000 803f 0000 803f 0000 803f
00000290: 0000 803f 0000 803f 0000 803f 0000 803f
000002a0: 0000 803f 0000 803f 0000 803f 0000 803f
000002b0: 0000 803f 0000 803f 0000 803f 0000 803f
000002c0: 0000 803f 0000 803f 0000 803f 0000 803f
000002d0: 0000 803f 0000 803f 0000 803f 0000 803f
000002e0: 0000 803f 0000 803f 0000 803f 0000 803f
000002f0: 0000 803f 0000 803f 0000 803f 0000 803f
00000300: 0000 803f 0000 803f 0000 803f 0000 803f
00000310: 0000 803f 0000 803f 0000 803f 0000 803f

encoder.1.bias f4 [200]
0.0 0.0 0.0 0.0 0.0 0.0 0.0 0.0
0.0 0.0 0.0 0.0 0.0 0.0 0.0 0.0
0.0 0.0 0.0 0.0 0.0 0.0 0.0 0.0
0.0 0.0 0.0 0.0 0.0 0.0 0.0 0.0
0.0 0.0 0.0 0.0 0.0 0.0 0.0 0.0
0.0 0.0 0.0 0.0 0.0 0.0 0.0 0.0
0.0 0.0 0.0 0.0 0.0 0.0 0.0 0.0
0.0 0.0 0.0 0.0 0.0 0.0 0.0 0.0
0.0 0.0 0.0 0.0 0.0 0.0 0.0 0.0
0.0 0.0 0.0 0.0 0.0 0.0 0.0 0.0
0.0 0.0 0.0 0.0 0.0 0.0 0.0 0.0
0.0 0.0 0.0 0.0 0.0 0.0 0.0 0.0
0.0 0.0 0.0 0.0 0.0 0.0 0.0 0.0
0.0 0.0 0.0 0.0 0.0 0.0 0.0 0.0
0.0 0.0 0.0 0.0 0.0 0.0 0.0 0.0
0.0 0.0 0.0 0.0 0.0 0.0 0.0 0.0
0.0 0.0 0.0 0.0 0.0 0.0 0.0 0.0
0.0 0.0 0.0 0.0 0.0 0.0 0.0 0.0
0.0 0.0 0.0 0.0 0.0 0.0 0.0 0.0
0.0 0.0 0.0 0.0 0.0 0.0 0.0 0.0
0.0 0.0 0.0 0.0 0.0 0.0 0.0 0.0
0.0 0.0 0.0 0.0 0.0 0.0 0.0 0.0
0.0 0.0 0.0 0.0 0.0 0.0 0.0 0.0
0.0 0.0 0.0 0.0 0.0 0.0 0.0 0.0
0.0 0.0 0.0 0.0 0.0 0.0 0.0 0.0
00000000: 0000 0000 0000 0000 0000 0000 0000 0000
00000010: 0000 0000 0000 0000 0000 0000 0000 0000
00000020: 0000 0000 0000 0000 0000 0000 0000 0000
00000030: 0000 0000 0000 0000 0000 0000 0000 0000
00000040: 0000 0000 0000 0000 0000 0000 0000 0000
00000050: 0000 0000 0000 0000 0000 0000 0000 0000
00000060: 0000 0000 0000 0000 0000 0000 0000 0000
00000070: 0000 0000 0000 0000 0000 0000 0000 0000
00000080: 0000 0000 0000 0000 0000 0000 0000 0000
00000090: 0000 0000 0000 0000 0000 0000 0000 0000
000000a0: 0000 0000 0000 0000 0000 0000 0000 0000
000000b0: 0000 0000 0000 0000 0000 0000 0000 0000
000000c0: 0000 0000 0000 0000 0000 0000 0000 0000
000000d0: 0000 0000 0000 0000 0000 0000 0000 0000
000000e0: 0000 0000 0000 0000 0000 0000 0000 0000
000000f0: 0000 0000 0000 0000 0000 0000 0000 0000
00000100: 0000 0000 0000 0000 0000 0000 0000 0000
00000110: 0000 0000 0000 0000 0000 0000 0000 0000
00000120: 0000 0000 0000 0000 0000 0000 0000 0000
00000130: 0000 0000 0000 0000 0000 0000 0000 0000
00000140: 0000 0000 0000 0000 0000 0000 0000 0000
00000150: 0000 0000 0000 0000 0000 0000 0000 0000
00000160: 0000 0000 0000 0000 0000 0000 0000 0000
00000170: 0000 0000 0000 0000 0000 0000 0000 0000
00000180: 0000 0000 0000 0000 0000 0000 0000 0000
00000190: 0000 0000 0000 0000 0000 0000 0000 0000
000001a0: 0000 0000 0000 0000 0000 0000 0000 0000
000001b0: 0000 0000 0000 0000 0000 0000 0000 0000
000001c0: 0000 0000 0000 0000 0000 0000 0000 0000
000001d0: 0000 0000 0000 0000 0000 0000 0000 0000
000001e0: 0000 0000 0000 0000 0000 0000 0000 0000
000001f0: 0000 0000 0000 0000 0000 0000 0000 0000
00000200: 0000 0000 0000 0000 0000 0000 0000 0000
00000210: 0000 0000 0000 0000 0000 0000 0000 0000
00000220: 0000 0000 0000 0000 0000 0000 0000 0000
00000230: 0000 0000 0000 0000 0000 0000 0000 0000
00000240: 0000 0000 0000 0000 0000 0000 0000 0000
00000250: 0000 0000 0000 0000 0000 0000 0000 0000
00000260: 0000 0000 0000 0000 0000 0000 0000 0000
00000270: 0000 0000 0000 0000 0000 0000 0000 0000
00000280: 0000 0000 0000 0000 0000 0000 0000 0000
00000290: 0000 0000 0000 0000 0000 0000 0000 0000
000002a0: 0000 0000 0000 0000 0000 0000 0000 0000
000002b0: 0000 0000 0000 0000 0000 0000 0000 0000
000002c0: 0000 0000 0000 0000 0000 0000 0000 0000
000002d0: 0000 0000 0000 0000 0000 0000 0000 0000
000002e0: 0000 0000 0000 0000 0000 0000 0000 0000
000002f0: 0000 0000 0000 0000 0000 0000 0000 0000
00000300: 0000 0000 0000 0000 0000 0000 0000 0000
00000310: 0000 0000 0000 0000 0000 0000 0000 0000

encoder.1.running_mean f4 [200]
-0.27432263 0.15758237 0.13882893 -0.053507227 0.18170913 0.037860412 -0.37237886 0.024865126
0.09460978 -0.1771781 0.22873835 0.120346226 0.2767188 -0.06693756 -0.001666819 0.08302492
0.11050102 -0.12101809 -0.42093167 0.25922018 0.19484931 0.215254 -0.45152524 -0.035484202
0.055017535 0.08114931 0.09495034 0.044283498 -0.4686828 0.07888564 -0.40220416 -0.27916437
-0.13513501 -0.27764195 0.1625357 0.10473956 0.27411345 0.24039973 0.4525459 -0.3111061
-0.3117813 0.17853348 0.21790652 0.029575862 0.16069016 -0.20559978 -0.047935538 0.1254591
-0.18831615 -0.55883455 0.14021833 0.013645432 -0.47894448 0.16503811 -0.038263448 -0.07344773
-0.22120444 0.14813298 -0.043630775 0.044094063 -0.43137586 0.09906352 0.10981445 0.05115015
0.27145705 0.27118877 -0.3114898 0.14064175 0.40187067 -0.08100903 -0.29778028 -0.053821303
-0.07479974 0.021473821 -0.27836192 0.01750076 -0.41703245 -0.13387342 -0.2011639 -0.50366575
0.25415492 0.057685617 -0.009169338 -0.13347818 -0.2786727 0.25018686 0.038940996 -0.27482295
-0.12646087 0.12738504 0.021947676 -0.072090745 -0.05140749 -0.1977579 -0.057256356 0.02834517
0.15274894 -0.42701972 0.2165169 0.1544156 0.20751828 -0.13506845 0.112541586 0.17510255
0.00027866894 0.054173775 -0.45175278 -0.07932618 0.09484524 0.21465528 0.041363657 -0.085114405
-0.20442487 0.13987513 0.30351767 0.108665355 -0.10517387 0.007538637 0.18471472 -0.0505284
0.56582654 0.14694408 -0.15836716 -0.06670669 -0.09051547 -0.10134513 -0.24165532 -0.14523907
0.30748987 0.44043916 0.090421595 -0.19800147 0.08767408 -0.4116049 0.1310421 0.23925644
-0.19112556 0.43185854 0.024410035 -0.2894692 -0.12973276 0.12574063 -0.18807678 -0.09223984
0.40249997 -0.17530793 -0.040212583 -0.35757497 0.32769144 0.078761704 0.2296011 0.4100688
-0.07992053 0.15270016 -0.15751876 -0.49714935 -0.21039136 0.13558954 0.32209146 -0.12705731
-0.1373026 -0.0020298979 -0.3430565 -0.07828362 0.03151043 0.17941585 0.20074229 0.29413915
0.5588157 -0.13897671 -0.27786717 -0.15668708 -0.3340096 -0.1895837 -0.008842851 0.120686725
-0.31880003 -0.17626302 -0.34582984 0.29458192 -0.1610988 -0.007600262 -0.30913407 -0.46247151
-0.17783034 -0.0163103 -0.10957571 0.25341642 -0.10955964 -0.11039305 -0.103374295 -0.11604599
0.12545434 -0.036815777 0.1488103 -0.14566427 -0.25954923 0.11728452 -0.43217587 0.5240742
00000000: 0474 8cbe 465d 213e 2c29 0e3e 652a 5bbd
00000010: f511 3a3e 8513 1b3d 71a8 bebe f3b1 cb3c
00000020: c6c2 c13d 2d6e 35be 633a 6a3e 1578 f63d
00000030: 16ae 8d3e 8f16 89bd 2a79 daba f808 aa3d
00000040: 5c4e e23d 55d8 f7bd 5b84 d7be 82b8 843e
00000050: 9486 473e 8b6b 5c3e 512e e7be e257 11bd
00000060: 115a 613d 9c31 a63d 5375 c23d 9d62 353d
00000070: 31f7 efbe cb8e a13d b4ed cdbe a2ee 8ebe
00000080: d560 0abe 1627 8ebe c26f 263e b281 d63d
00000090: 9958 8c3e 592b 763e 19b4 e73e 4c49 9fbe
000000a0: cca1 9fbe 7bd1 363e e322 5f3e 1449 f23c
000000b0: f68b 243e c088 52be 0e58 44bd 5a78 003e
000000c0: f3d5 40be c80f 0fbf 6595 0f3e 1791 5f3c
000000d0: 3638 f5be c0ff 283e 22ba 1cbd c36b 96bd
000000e0: 6b83 62be 2cb0 173e 2fb6 32bd fa9b 343d
000000f0: 4cdd dcbe d1e1 ca3d 66e6 e03d d282 513d
00000100: 6bfc 8a3e 41d9 8a3e 977b 9fbe 6404 103e
00000110: fec1 cd3e 10e8 a5bd a876 98be ba73 5cbd
00000120: 9b30 99bd dee9 af3c 7485 8ebe c15d 8f3c
00000130: 4785 d5be 1d16 09be e9fd 4dbe 3df0 00bf
00000140: 9820 823e c147 6c3d fe3a 16bc 81ae 08be
00000150: 30ae 8ebe 7e18 803e 9880 1f3d 98b5 8cbe
00000160: f57e 01be 3971 023e 9dcb b33c 50a4 93bd
00000170: a990 52bd 0c81 4abe a485 6abd 2134 e83c
00000180: 386a 1c3e 54a2 dabe 9bb6 5d3e 1f1f 1e3e
00000190: ac7f 543e 624f 0abe 347c e63d 154e 333e
000001a0: 501a 9239 52e5 5d3d 244c e7be c475 a2bd
000001b0: 393e c23d 98ce 5b3e f06c 293d 7650 aebd
000001c0: c154 51be 6d3b 0f3e ab66 9b3e f18b de3d
000001d0: 6665 d7bd ac06 f73b db25 3d3e def6 4ebd
000001e0: 02da 103f 8278 163e 002b 22be 849d 88bd
000001f0: 2d60 b9bd 098e cfbd 7e74 77be 8db9 14be
00000200: 506f 9d3e 3e81 e13e f52e b93d e6c0 4abe
00000210: 788e b33d e1bd d2be e62f 063e a4ff 743e
00000220: 6bb6 43be 901c dd3e 8ef7 c73c 4f35 94be
00000230: aad8 04be 27c2 003e 3397 40be 3ee8 bcbd
00000240: 7a14 ce3e ec83 33be f3b5 24bd 1114 b7be
00000250: 2cc7 a73e d14d a13d 8d1c 6b3e 8af4 d13e
00000260: 60ad a3bd 6e5d 1c3e 994c 21be 5c8a febe
00000270: d570 57be fcd7 0a3e 2ce9 a43e 501b 02be
00000280: 0e99 0cbe 0908 05bb 1aa5 afbe 2a53 a0bd
00000290: 1511 013d cab8 373e 638f 4d3e 6899 963e
000002a0: 8c0e 0f3f e94f 0ebe 9b44 8ebe 9472 20be
000002b0: 4e03 abbe 3b22 42be 9be1 10bc 9a2a f73d
000002c0: c239 a3be 4b7e 34be 9c10 b1be 71d3 963e
000002d0: 15f7 24be 9e0b f9bb d246 9ebe 11c9 ecbe
000002e0: 2819 36be 2e9d 85bc 3b69 e0bd ccbf 813e
000002f0: ce60 e0bd c015 e2bd e7b5 d3bd 85a9 edbd
00000300: 1a77 003e 24cc 16bd ba61 183e 0429 15be
00000310: a3e3 84be de32 f03d 2846 ddbe ba29 063f

encoder.1.running_var f4 [200]
0.18012023 0.05820458 0.01367505 0.055523857 0.02042611 0.028152091 0.104521595 0.03032746
0.042829696 0.025901634 0.034807716 0.03612549 0.03393086 0.050312553 0.021859573 0.18402544
0.19521683 0.02894009 0.17131956 0.105285816 0.06149604 0.021340447 0.06418845 0.0335431
0.14362776 0.06001297 0.016395662 0.056842927 0.040010627 0.042502712 0.10099453 0.038651127
0.07228349 0.030654402 0.039421294 0.05753038 0.023008293 0.04856828 0.12692317 0.1380601
0.13780858 0.012860027 0.010753762 0.03256167 0.14065298 0.03875619 0.019316116 0.030268254
0.1556954 0.17572607 0.023102334 0.045680735 0.033133633 0.031035423 0.021798575 0.023638848
0.010780538 0.017913733 0.03633477 0.03675875 0.0473031 0.07331003 0.03870819 0.10563198
0.017432198 0.087853655 0.1387026 0.16211605 0.021528818 0.019739885 0.04793933 0.016682617
0.08778885 0.03280685 0.028509341 0.013923982 0.031466197 0.015832793 0.10142223 0.024609577
0.08843948 0.046059363 0.022725996 0.03167744 0.07952797 0.018679665 0.054098416 0.021600021
0.06361252 0.038771708 0.028115395 0.012558913 0.009896903 0.045559417 0.0879057 0.103993766
0.060814995 0.034209557 0.07260556 0.032429773 0.053307887 0.2594422 0.07030089 0.059778355
0.053640526 0.033842564 0.20480216 0.036195796 0.029983558 0.05959798 0.21484393 0.16305016
0.02217065 0.06675512 0.01911505 0.056598045 0.138251 0.025257014 0.037128597 0.13563934
0.049753103 0.035285 0.015762113 0.016530795 0.045195635 0.18298936 0.095527135 0.066234104
0.031209113 0.14621696 0.15249513 0.037887268 0.08385025 0.020984178 0.031799216 0.020341953
0.033795144 0.072817266 0.17307167 0.04255179 0.02167736 0.03531355 0.077516265 0.08669559
0.040066276 0.050797917 0.02933307 0.049600992 0.024321744 0.07629048 0.02531135 0.06436477
0.06519314 0.020794118 0.03191736 0.06323214 0.020862103 0.051763233 0.021905357 0.032898523
0.15366259 0.124500215 0.058933277 0.056465253 0.04351866 0.052098442 0.06626139 0.06883624
0.031000832 0.041098725 0.061704926 0.035814863 0.033464756 0.026466954 0.220337 0.07455675
0.116618454 0.08641938 0.038740456 0.040555812 0.023181958 0.21408974 0.032838956 0.020900229
0.16346455 0.062290605 0.13908382 0.06772219 0.034422155 0.045307927 0.0330979 0.03416556
0.05181888 0.05294256 0.021963771 0.04056514 0.01821888 0.02727157 0.033557136 0.042873923
00000000: 7071 383e ed67 6e3d 510d 603c fc6c 633d
00000010: a854 a73c 379f e63c 6b0f d63d 4b71 f83c
00000020: 316e 2f3d aa2f d43c 8992 0e3d 52f8 133d
00000030: 16fb 0a3d 8914 4e3d d912 b33c 2a71 3c3e
00000040: ece6 473e c513 ed3c 656e 2f3e 17a0 d73d
00000050: 46e3 7b3d 29d2 ae3c 3c75 833d 7d64 093d
00000060: 2813 133e 29d0 753d 3250 863c 21d4 683d
00000070: 2fe2 233d 5317 2e3d 38d6 ce3d a550 1e3d
00000080: 5e09 943d f11e fb3c 3978 213d faa4 6b3d
00000090: e37b bc3c 88ef 463d 26f8 013e a05f 0d3e
000000a0: b11d 0d3e ddb2 523c 8c30 303c 635f 053d
000000b0: 5607 103e d0be 1e3d d53c 9e3c 21f5 f73c
000000c0: 9d6e 1f3e 89f1 333e 1b41 bd3c b91b 3b3d
000000d0: 22b7 073d 003e fe3c ed92 b23c 42a6 c13c
000000e0: dba0 303c d2bf 923c c5d3 143d 5890 163d
000000f0: e5c0 413d 9223 963d 7b8c 1e3d 9455 d83d
00000100: f8cd 8e3c 9eec b33d 0e08 0e3e c001 263e
00000110: 345d b03c 8ab5 a13c 085c 443d fca9 883c
00000120: a4ca b33d 7a60 063d 6c8c e93c 6a21 643c
00000130: b3e2 003d c6b3 813c 75b6 cf3d 069a c93c
00000140: c21f b53d bea8 3c3d de2b ba3c 34c0 013d
00000150: 8fdf a23d 1906 993c 4d96 5d3d 87f2 b03c
00000160: 4847 823d 15cf 1e3d 4252 e63c e6c3 4d3c
00000170: 9f26 223c 839c 3a3d e707 b43d affa d43d
00000180: 2519 793d 521f 0c3d 39b2 943d 15d5 043d
00000190: 5f59 5a3d 9cd5 843e eaf9 8f3d 26da 743d
000001a0: 2bb6 5b3d 809e 0a3d a8b7 513e 0b42 143d
000001b0: 14a0 f53c 031d 743d 0c00 5c3e 9ff6 263e
000001c0: 399f b53c e9b6 883d 2a97 9c3c 5ad3 673d
000001d0: ac91 0d3e cce7 ce3c 2814 183d 0ae5 0a3e
000001e0: e9c9 4b3d 0187 103d 8c1f 813c 976b 873c
000001f0: 0f1f 393d 9061 3b3e bba3 c33d bfa5 873d
00000200: 41aa ff3c e6b9 153e af27 1c3e ae2f 1b3d
00000210: aeb9 ab3d 03e7 ab3c e53f 023d 2ba4 a63c
00000220: c76c 0a3d 3821 953d b339 313e c94a 2e3d
00000230: b894 b13c f1a4 103d d9c0 9e3d 758d b13d
00000240: 891c 243d 7a11 503d e84b f03c 692a 4b3d
00000250: 653e c73c 2f3e 9c3d c059 cf3c add1 833d
00000260: fb83 853d 6d58 aa3c c7bb 023d da7f 813d
00000270: 00e7 aa3c af05 543d dd72 b33c 9ac0 063d
00000280: ba59 1d3e f8f9 fe3d 0564 713d 1c48 673d
00000290: 9f40 323d 2d65 553d 0db4 873d 04fa 8c3d
000002a0: 75f5 fd3c 2357 283d 4ebe 7c3d 9bb2 123d
000002b0: 5712 093d 3ad1 d83c 06a0 613e 36b1 983d
000002c0: a8d5 ee3d a5fc b03d 50ae 1e3d da1d 263d
000002d0: 17e8 bd3c 573a 5b3e 2482 063d f536 ab3c
000002e0: 4063 273e 6f24 7f3d fd6b 0e3e eeb1 8a3d
000002f0: 3ffe 0c3d ce94 393d aa91 073d 30f1 0b3d
00000300: 0940 543d 4cda 583d 5eed b33c a227 263d
00000310: c33f 953c a168 df3c 3573 093d 919c 2f3d

encoder.4.weight f4 [150, 200]
0.017399527 0.052126095 -0.052732714 -0.022601973 -0.018056266 -0.014227908 -0.019867782 0.018727504
0.043489352 0.004305437 0.013729453 -0.010977443 0.011568122 0.017938085 -0.051937893 -0.02200821
0.04108946 -0.004764937 -0.05089545 -0.011333846 0.06188216 -0.06711945 -0.030612178 -0.028492391
-0.043068577 -0.04538146 0.03661044 -0.059033677 -0.036005422 -0.007671155 0.016420066 -0.012748856
-0.04194479 -0.015708882 -0.017515413 0.016019352 0.0023965985 0.0079728365 0.050839983 0.058913685
-0.024460252 -0.02550761 -0.043282643 0.030465163 0.028472193 0.05192931 0.046091676 -0.0072432756
-0.043560803 0.057510473 0.043512046 0.06160351 -0.062394973 -0.04519459 0.056644924 0.031160302
-0.02717682 -0.038085084 0.024581477 -0.024114463 0.00922475 0.01087258 0.040238425 0.069362946
-0.023129161 0.058345385 -0.057640024 -0.02443694 0.036249503 -0.05162151 -0.04314025 0.06803202
-0.039562702 0.064776175 -0.049334913 -0.043051288 0.05228158 -0.04730126 -0.061730225 -0.015010964
-0.033216473 0.003902115 0.023479722 -0.022750694 -0.0102785975 -0.044501595 -0.023194574 -0.036601588
0.04239361 -0.02307298 -0.017862923 -0.057924658 -0.021982364 -0.038966518 -0.057154298 -0.004667215
0.06958098 -0.04335825 0.011261046 0.0062624067 -0.0028004795 0.028321244 0.033515595 0.049898565
0.0026852041 0.031045131 0.06341585 -0.05163215 -0.014681671 -0.01833684 -0.033928096 0.04319842
0.024032272 0.06410044 0.052081026 -0.021353304 0.01304584 -0.002235487 0.05313596 -0.022488743
0.041589156 0.0029829443 -0.024729177 -0.02489959 -0.03027362 0.029801004 -0.061485957 -0.052129913
0.0642535 0.032116085 -0.015435204 -0.04316034 0.005350828 0.027495101 0.06759482 0.04651553
0.05088667 -0.057251297 -0.04140338 -0.014530785 -0.034080464 -0.042314045 0.0016359463 0.021847665
-0.03899934 -0.003909111 -0.068338506 -0.03362911 0.016691193 0.018399626 0.041299775 0.023288026
-0.028583571 -0.000929825 0.026114494 0.03640622 0.004050076 -0.0451648 0.068142764 0.025408171
0.06838695 -0.07026209 0.027305342 0.064381845 0.0032667518 0.01909747 -0.014493503 -0.0075731874
-0.010992091 0.067367055 -0.06382041 -0.022030573 -0.04172322 -0.035617605 0.069638975 0.020702213
0.07062737 -0.022552576 -0.046531666 0.06880144 0.0077878535 -0.03696174 0.02832035 0.009332582
-0.010279719 -0.037272856 -0.06953134 -0.01120507 0.047607258 -0.05098207 -0.05152995 0.0012719557
-0.07003056 -0.018276848 -0.05415803 0.043900773 -0.06303924 -0.02384888 -0.03791921 0.05183421
-0.040854856 0.067017846 0.03315279 -0.049545467 0.060731627 0.04417733 -0.035915177 -0.00759919
0.043107994 -0.024285927 0.030185834 0.025005467 -0.06704503 0.054049224 0.06446209 0.007965393
-0.06717983 -0.058681887 -0.05789134 0.05350498 -0.041548982 0.021539524 0.057087667 0.02615694
-0.046890073 0.02579341 -0.0031295568 0.066716574 -0.061444182 -0.030594103 -0.018528994 -0.067773305
0.0006412044 0.040290132 0.016596474 -0.050344057 0.045982495 0.030769192 0.07004959 -0.05494668
-0.015437186 -0.029576864 0.02534049 -0.060911715 -0.0040662363 -0.009077698 0.056826122 0.055552386
0.015665755 0.017356403 -0.02691513 -0.056034617 0.0026380047 0.06207777 0.028614916 0.02515439
00000000: 7489 8e3c 2c82 553d 42fe 57bd c627 b9bc
00000010: bcea 93bc 2c1c 69bc c2c1 a2bc 6c6a 993c
00000020: e421 323d a014 8d3b 80f1 603c bcda 33bc
00000030: 3888 3d3c e4f2 923c d4bc 54bd 904a b4bc
00000040: 6c4d 283d 3023 9cbb bf77 50bd 98b1 39bc
00000050: 2678 7d3d ec75 89bd 64c6 fabc e068 e9bc
00000060: ad68 30bd e9e1 39bd d4f4 153d 4ccd 71bd
00000070: 6c7a 13bd 505e fbbb 6083 863c 94e0 50bc
00000080: 4dce 2bbd eaaf 80bc 7c7c 8fbc 043b 833c
00000090: 4010 1d3b 80a0 023c 963d 503d 7a4f 713d
000000a0: de60 c8bc 56f5 d0bc 2449 31bd 1492 f93c
000000b0: 843e e93c d4b3 543d a0ca 3c3d 0059 edbb
000000c0: d06c 32bd 1a90 6b3d b039 323d f653 7c3d
000000d0: df91 7fbd f61d 39bd 8204 683d e443 ff3c
000000e0: eca1 debc 1bff 1bbd 185f c93c b28b c5bc
000000f0: 6823 173c e822 323c 0cd1 243d 290e 8e3d
00000100: 5e79 bdbc 92fb 6e3d f217 6cbd fa2f c8bc
00000110: 5c7a 143d 1471 53bd d5b3 30bd 5f54 8b3d
00000120: 800c 22bd 5fa9 843d 6813 4abd 8c56 30bd
00000130: 3625 563d f7be 41bd d5d8 7cbd 8cf0 75bc
00000140: ff0d 08bd a0ba 7f3b 8c58 c03c aa5f babc
00000150: 9067 28bc 4e47 36bd 8c02 bebc 8ceb 15bd
00000160: eca4 2d3d 8c03 bdbc 4455 92bc 6842 6dbd
00000170: 5c14 b4bc 5b9b 1fbd a01a 6abd 70ef 98bb
00000180: 7980 8e3d 6c98 31bd 4080 383c e034 cd3b
00000190: 4088 37bb f401 e83c a647 093d 7062 4c3d
000001a0: 40fa 2f3b 5c52 fe3c 2be0 813d 3c7c 53bd
000001b0: 648b 70bc 2437 96bc 30f8 0abd d4f0 303d
000001c0: 54df c43c 1747 833d ea52 553d 20ed aebc
000001d0: 38be 553c 4081 12bb 18a5 593d 503a b8bc
000001e0: 6459 2a3d 807d 433b d894 cabc 3afa cbbc
000001f0: 6200 f8bc 3c21 f43c b3d8 7bbd 2d86 55bd
00000200: 5797 833d 288c 033d f0e3 7cbc e6c8 30bd
00000210: 0056 af3b 683d e13c 276f 8a3d 1287 3e3d
00000220: 8a6e 503d 5680 6abd 9796 29bd 8812 6ebc
00000230: f597 0bbd 7e51 2dbd 406d d63a e0f9 b23c
00000240: c6bd 1fbd 0018 80bb 0ff5 8bbd adbe 09bd
00000250: f8bb 883c d0ba 963c f429 293d 88c6 be3c
00000260: 1828 eabc 80bf 73ba 10ee d53c b01e 153d
00000270: 80b6 843b bafe 38bd 6f8e 8b3d cc24 d03c
00000280: 750e 8c3d 92e5 8fbd 74af df3c a1da 833d
00000290: 0017 563b 4c72 9c3c 2876 6dbc 8028 f8bb
000002a0: 2c18 34bc bdf7 893d 46b4 82bd 7679 b4bc
000002b0: f8e5 2abd c4e3 11bd e19e 8e3d b097 a93c
000002c0: 15a5 903d 2ec0 b8bc fd97 3ebd c5e7 8c3d
000002d0: 4031 ff3b 3265 17bd 1400 e83c b0e7 183c
000002e0: 446c 28bc 6cab 18bd 7266 8ebd 7895 37bc
000002f0: d4ff 423d 93d2 50bd 1211 53bd c0b7 a63a
00000300: 2f6c 8fbd 54b9 95bc cfd4 5dbd 4cd1 333d
00000310: b81a 81bd ba5e c3bc 2c51 1bbd 1c50 543d
00000320: 6c57 27bd a740 893d 38cb 073d 30f0 4abd
00000330: bac1 783d 4af3 343d cb1b 13bd a002 f9bb
00000340: 0292 303d 48f3 c6bc 4848 f73c 44d8 cc3c
00000350: e84e 89bd b862 5d3d b304 843d 4881 023c
00000360: 9495 89bd 6b5c 70bd 781f 6dbd 0a28 5b3d
00000370: 442f 2abd a873 b03c c2d4 693d 1447 d63c
00000380: ce0f 40bd b44c d33c 4019 4dbb b3a2 883d
00000390: e5ac 7bbd 7ca0 fabc 1eca 97bc bbcc 8abd
000003a0: 8016 283a 4407 253d 54f5 873c 9235 4ebd
000003b0: 2458 3c3d ac0f fc3c 2976 8f3d c50f 61bd
000003c0: 40ec 7cbc 2e4b f2bc dc96 cf3c 907e 79bd
000003d0: 103e 85bb a0ba 14bc 82c2 683d e68a 633d
000003e0: 7855 803c 042f 8e3c 1e7d dcbc 8e84 65bd
000003f0: 60e2 2c3b 4245 7e3d d469 ea3c 9410 ce3c

encoder.4.bias f4 [150]
0.016528755 0.024636649 0.044016756 0.05012946 -0.030478217 0.039092652 -0.05239956 -0.02020277
0.0067596138 0.029060103 0.01947432 -0.009862438 0.017953716 -0.07048092 0.039579444 -0.07053855
-0.054253567 -0.020690076 0.05129116 0.058459006 -0.053101964 0.058619313 0.050245985 0.02886694
-0.00028696656 0.061058514 -0.04874672 0.027186528 -0.061071105 0.023773402 -0.03191235 0.063235395
0.032868788 -0.0372088 -0.054076053 0.013466887 -0.022292346 0.041435167 0.014659703 -0.00168553
0.047373652 0.05327823 0.026914358 0.04758255 -0.032030445 -0.048893213 -0.009013921 -0.0436609
-0.017790928 -0.056807928 -0.027299121 -0.045742214 0.0043167844 -0.017246425 0.033097908 -0.03278038
0.06398193 0.01694142 -0.0061547756 -0.043682545 -0.0037102997 0.026728056 -0.039399777 0.06009356
-0.06438399 -0.023490917 0.021157734 -0.04061725 -0.029951438 -0.036720123 0.00021956116 -0.042965576
-0.0022734553 0.0060799867 -0.06691392 -0.02240958 -0.034062486 0.053889975 -0.043540664 0.06938105
-0.009949945 0.04850988 -0.051641725 -0.055979498 -0.034555856 0.03855391 0.025873296 -0.0023947805
0.013582878 -0.024015334 -0.009886008 -0.030824825 -0.04694694 0.026434064 0.04649613 0.016845405
-0.022257373 -0.008804277 -0.011269428 -0.04564541 -0.03042657 0.042270333 0.013284795 -0.051074885
-0.055364914 0.052877396 -0.061193805 0.06378927 0.018357828 -0.061728455 0.06889243 -0.044727407
0.033424422 0.022978537 -0.031423975 0.004295625 -0.06846993 -0.049198255 0.0611415 0.04783891
0.07032504 -0.059859384 0.03338843 -0.024038017 -0.0565842 0.0041394606 -0.03030222 0.06069783
-0.017595172 0.029772215 0.011650033 0.04336571 0.052533433 -0.061759442 0.044038832 -0.0035057813
-0.04193931 -0.04119535 0.0020599589 -0.044816025 -0.051647425 -0.03492282 0.06275924 -0.045034677
0.056187578 0.06493122 0.03177391 0.005760081 -0.060132723 0.06992871
00000000: 5067 873c ccd2 c93c ea4a 343d 8c54 4d3d
00000010: 74ad f9bc 9e1f 203d eca0 56bd 4880 a5bc
00000020: c07f dd3b 740f ee3c 9c88 9f3c 1096 21bc
00000030: ac13 933c 4d58 90bd 0e1e 223d 8476 90bd
00000040: fd38 5ebd 3c7e a9bc ae16 523d b672 6f3d
00000050: 7281 59bd ce1a 703d bcce 4d3d 5c7a ec3c
00000060: 0074 96b9 7e18 7a3d a4aa 47bd 48b6 de3c
00000070: b225 7abd 70c0 c23c 86b6 02bd 8f81 813d
00000080: 6ca1 063d 4168 18bd da7e 5dbd 38a4 5c3c
00000090: 709e b6bc ecb7 293d 402f 703c 00ed dcba
000000a0: e00a 423d 463a 5a3d 807b dc3c ece5 423d
000000b0: 5b32 03bd 4044 48bd 20af 13bc c6d5 32bd
000000c0: 48be 91bc 6eaf 68bd 68a2 dfbc 305c 3bbd
000000d0: d073 8d3b 6048 8dbc ac91 073d b844 06bd
000000e0: f508 833d bcc8 8a3c 00ae c9bb 78ec 32bd
000000f0: 8028 73bb ccf4 da3c a961 21bd aa24 763d
00000100: c1db 83bd 0670 c0bc fc52 ad3c 465e 26bd
00000110: b85c f5bc d767 16bd 003a 6639 acfc 2fbd
00000120: 40fe 14bb a03a c73b 2a0a 89bd 4c94 b7bc
00000130: 1b85 0bbd bcbb 5c3d b257 32bd a717 8e3d
00000140: 1805 23bc 4cb2 463d 4686 53bd c24a 65bd
00000150: 718a 0dbd b4ea 1d3d 3cf4 d33c c0f1 1cbb
00000160: b88a 5e3c cebb c4bc ecf8 21bc 5884 fcbc
00000170: 6f4b 40bd 408c d83c ba72 3e3d 60ff 893c
00000180: 1855 b6bc d03f 10bc 68a3 38bc aef6 3abd
00000190: 2441 f9bc a823 2d3d 78a8 593c e633 51bd
000001a0: 52c6 62bd f895 583d 5ba6 7abd f3a3 823d
000001b0: 2863 963c fad6 7cbd 7917 8d3d 1634 37bd
000001c0: 0ce8 083d 7c3d bc3c 6db6 00bd 50c2 8c3b
000001d0: f639 8cbd 1c84 49bd 826f 7a3d bcf2 433d
000001e0: 9306 903d 1d2f 75bd 4ec2 083d 60eb c4bc
000001f0: d6c4 67bd 50a4 873b 5c3c f8bc 4a9e 783d
00000200: c023 90bc dce4 f33c c8df 3e3c 3ea0 313d
00000210: 4c2d 573d 78f7 7cbd 1062 343d 40c1 65bb
00000220: 8ec8 2bbd 75bc 28bd 6000 073b 0291 37bd
00000230: 408c 53bd 3b0b 0fbd eb87 803d 4876 38bd
00000240: f224 663d a9fa 843d 5c25 023d 10bf bc3b
00000250: bb4d 76bd c936 8f3d

encoder.5.weight f4 [150]
1.0 1.0 1.0 1.0 1.0 1.0 1.0 1.0
1.0 1.0 1.0 1.0 1.0 1.0 1.0 1.0
1.0 1.0 1.0 1.0 1.0 1.0 1.0 1.0
1.0 1.0 1.0 1.0 1.0 1.0 1.0 1.0
1.0 1.0 1.0 1.0 1.0 1.0 1.0 1.0
1.0 1.0 1.0 1.0 1.0 1.0 1.0 1.0
1.0 1.0 1.0 1.0 1.0 1.0 1.0 1.0
1.0 1.0 1.0 1.0 1.0 1.0 1.0 1.0
1.0 1.0 1.0 1.0 1.0 1.0 1.0 1.0
1.0 1.0 1.0 1.0 1.0 1.0 1.0 1.0
1.0 1.0 1.0 1.0 1.0 1.0 1.0 1.0
1.0 1.0 1.0 1.0 1.0 1.0 1.0 1.0
1.0 1.0 1.0 1.0 1.0 1.0 1.0 1.0
1.0 1.0 1.0 1.0 1.0 1.0 1.0 1.0
1.0 1.0 1.0 1.0 1.0 1.0 1.0 1.0
1.0 1.0 1.0 1.0 1.0 1.0 1.0 1.0
1.0 1.0 1.0 1.0 1.0 1.0 1.0 1.0
1.0 1.0 1.0 1.0 1.0 1.0 1.0 1.0
1.0 1.0 1.0 1.0 1.0 1.0
00000000: 0000 803f 0000 803f 0000 803f 0000 803f
00000010: 0000 803f 0000 803f 0000 803f 0000 803f
00000020: 0000 803f 0000 803f 0000 803f 0000 803f
00000030: 0000 803f 0000 803f 0000 803f 0000 803f
00000040: 0000 803f 0000 803f 0000 803f 0000 803f
00000050: 0000 803f 0000 803f 0000 803f 0000 803f
00000060: 0000 803f 0000 803f 0000 803f 0000 803f
00000070: 0000 803f 0000 803f 0000 803f 0000 803f
00000080: 0000 803f 0000 803f 0000 803f 0000 803f
00000090: 0000 803f 0000 803f 0000 803f 0000 803f
000000a0: 0000 803f 0000 803f 0000 803f 0000 803f
000000b0: 0000 803f 0000 803f 0000 803f 0000 803f
000000c0: 0000 803f 0000 803f 0000 803f 0000 803f
000000d0: 0000 803f 0000 803f 0000 803f 0000 803f
000000e0: 0000 803f 0000 803f 0000 803f 0000 803f
000000f0: 0000 803f 0000 803f 0000 803f 0000 803f
00000100: 0000 803f 0000 803f 0000 803f 0000 803f
00000110: 0000 803f 0000 803f 0000 803f 0000 803f
00000120: 0000 803f 0000 803f 0000 803f 0000 803f
00000130: 0000 803f 0000 803f 0000 803f 0000 803f
00000140: 0000 803f 0000 803f 0000 803f 0000 803f
00000150: 0000 803f 0000 803f 0000 803f 0000 803f
00000160: 0000 803f 0000 803f 0000 803f 0000 803f
00000170: 0000 803f 0000 803f 0000 803f 0000 803f
00000180: 0000 803f 0000 803f 0000 803f 0000 803f
00000190: 0000 803f 0000 803f 0000 803f 0000 803f
000001a0: 0000 803f 0000 803f 0000 803f 0000 803f
000001b0: 0000 803f 0000 803f 0000 803f 0000 803f
000001c0: 0000 803f 0000 803f 0000 803f 0000 803f
000001d0: 0000 803f 0000 803f 0000 803f 0000 803f
000001e0: 0000 803f 0000 803f 0000 803f 0000 803f
000001f0: 0000 803f 0000 803f 0000 803f 0000 803f
00000200: 0000 803f 0000 803f 0000 803f 0000 803f
00000210: 0000 803f 0000 803f 0000 803f 0000 803f
00000220: 0000 803f 0000 803f 0000 803f 0000 803f
00000230: 0000 803f 0000 803f 0000 803f 0000 803f
00000240: 0000 803f 0000 803f 0000 803f 0000 803f
00000250: 0000 803f 0000 803f

encoder.5.bias f4 [150]
0.0 0.0 0.0 0.0 0.0 0.0 0.0 0.0
0.0 0.0 0.0 0.0 0.0 0.0 0.0 0.0
0.0 0.0 0.0 0.0 0.0 0.0 0.0 0.0
0.0 0.0 0.0 0.0 0.0 0.0 0.0 0.0
0.0 0.0 0.0 0.0 0.0 0.0 0.0 0.0
0.0 0.0 0.0 0.0 0.0 0.0 0.0 0.0
0.0 0.0 0.0 0.0 0.0 0.0 0.0 0.0
0.0 0.0 0.0 0.0 0.0 0.0 0.0 0.0
0.0 0.0 0.0 0.0 0.0 0.0 0.0 0.0
0.0 0.0 0.0 0.0 0.0 0.0 0.0 0.0
0.0 0.0 0.0 0.0 0.0 0.0 0.0 0.0
0.0 0.0 0.0 0.0 0.0 0.0 0.0 0.0
0.0 0.0 0.0 0.0 0.0 0.0 0.0 0.0
0.0 0.0 0.0 0.0 0.0 0.0 0.0 0.0
0.0 0.0 0.0 0.0 0.0 0.0 0.0 0.0
0.0 0.0 0.0 0.0 0.0 0.0 0.0 0.0
0.0 0.0 0.0 0.0 0.0 0.0 0.0 0.0
0.0 0.0 0.0 0.0 0.0 0.0 0.0 0.0
0.0 0.0 0.0 0.0 0.0 0.0
00000000: 0000 0000 0000 0000 0000 0000 0000 0000
00000010: 0000 0000 0000 0000 0000 0000 0000 0000
00000020: 0000 0000 0000 0000 0000 0000 0000 0000
00000030: 0000 0000 0000 0000 0000 0000 0000 0000
00000040: 0000 0000 0000 0000 0000 0000 0000 0000
00000050: 0000 0000 0000 0000 0000 0000 0000 0000
00000060: 0000 0000 0000 0000 0000 0000 0000 0000
00000070: 0000 0000 0000 0000 0000 0000 0000 0000
00000080: 0000 0000 0000 0000 0000 0000 0000 0000
00000090: 0000 0000 0000 0000 0000 0000 0000 0000
000000a0: 0000 0000 0000 0000 0000 0000 0000 0000
000000b0: 0000 0000 0000 0000 0000 0000 0000 0000
000000c0: 0000 0000 0000 0000 0000 0000 0000 0000
000000d0: 0000 0000 0000 0000 0000 0000 0000 0000
000000e0: 0000 0000 0000 0000 0000 0000 0000 0000
000000f0: 0000 0000 0000 0000 0000 0000 0000 0000
00000100: 0000 0000 0000 0000 0000 0000 0000 0000
00000110: 0000 0000 0000 0000 0000 0000 0000 0000
00000120: 0000 0000 0000 0000 0000 0000 0000 0000
00000130: 0000 0000 0000 0000 0000 0000 0000 0000
00000140: 0000 0000 0000 0000 0000 0000 0000 0000
00000150: 0000 0000 0000 0000 0000 0000 0000 0000
00000160: 0000 0000 0000 0000 0000 0000 0000 0000
00000170: 0000 0000 0000 0000 0000 0000 0000 0000
00000180: 0000 0000 0000 0000 0000 0000 0000 0000
00000190: 0000 0000 0000 0000 0000 0000 0000 0000
000001a0: 0000 0000 0000 0000 0000 0000 0000 0000
000001b0: 0000 0000 0000 0000 0000 0000 0000 0000
000001c0: 0000 0000 0000 0000 0000 0000 0000 0000
000001d0: 0000 0000 0000 0000 0000 0000 0000 0000
000001e0: 0000 0000 0000 0000 0000 0000 0000 0000
000001f0: 0000 0000 0000 0000 0000 0000 0000 0000
00000200: 0000 0000 0000 0000 0000 0000 0000 0000
00000210: 0000 0000 0000 0000 0000 0000 0000 0000
00000220: 0000 0000 0000 0000 0000 0000 0000 0000
00000230: 0000 0000 0000 0000 0000 0000 0000 0000
00000240: 0000 0000 0000 0000 0000 0000 0000 0000
00000250: 0000 0000 0000 0000

encoder.5.running_mean f4 [150]
-0.15489402 -0.15727511 0.095287584 -0.16315287 -0.06656121 -0.055738825 -0.3832454 0.1324636
-0.02506488 0.22609514 -0.011666779 0.12974253 -0.07792218 -0.09436541 -0.14926589 0.2573059
0.3599968 -0.014591718 -0.08927866 -0.12840614 -0.22263446 0.17170872 0.87212443 0.2850657
-0.08855534 -0.035325672 -0.014446262 0.0979666 0.006188864 -0.2047155 -0.24156456 -0.3491899
-0.41626963 0.2726466 0.38590735 0.30487546 0.13879903 -0.075842015 0.28576773 0.012415087
-0.054947715 -0.06461166 -0.13582219 0.11097864 -0.08774308 -0.16394573 0.14632992 -0.36608893
-0.37959692 -0.19397329 0.32471505 -0.12685952 0.2558622 -0.2436454 -0.56929356 0.049640678
0.0020962022 0.054175455 0.19306737 0.25167733 -0.018494176 -0.09253564 -0.22610442 0.21922943
-0.26967365 -0.33000877 0.32875514 0.07896155 -0.31329188 -0.069467865 -0.055538654 -0.09548198
-0.15569925 -0.35642812 -0.2108647 -0.08495495 -0.053192362 0.06886109 -0.14965077 -0.06815121
-0.040040977 0.1294164 -0.06842536 -0.26648748 -0.08939034 0.2093623 -0.6849392 -0.09399041
0.009798335 0.06922226 0.4429741 -0.060021453 -0.4272589 -0.0043107187 0.42845318 0.61380494
-0.21917866 -0.46151543 -0.24741277 0.41981384 -0.39672455 0.017738044 -0.17673476 -0.14834282
-0.2754612 0.49751648 -0.1954012 -0.16335301 0.1395226 0.2225719 0.38198018 0.19119276
-0.34007737 0.35618278 0.0655241 -0.11490576 -0.076774076 -0.15560439 0.18858548 -0.15639775
0.20639902 0.19850437 -0.42348823 -0.061690748 -0.16615054 0.11890122 0.28153116 0.078743726
-0.18743779 0.11353422 0.10360558 0.029846417 -0.0133762285 -0.0058743046 0.2790959 0.13467222
-0.1404255 0.35309374 0.043707427 -0.27362564 -0.41164398 0.1969836 0.31675276 -0.17240947
0.14160779 0.049984157 0.0024131318 -0.21412177 0.0108226575 0.37939787
00000000: 8a9c 1ebe ba0c 21be 2326 c33d 8c11 27be
00000010: 3e51 88bd 654e 64bd be38 c4be 8aa4 073e
00000020: dd54 cdbc 7c85 673e 0526 3fbc 3adb 043e
00000030: aa95 9fbd a742 c1bd 28d9 18be 99bd 833e
00000040: 8051 b83e 1a12 6fbc bbd7 b6bd e67c 03be
00000050: 4afa 63be 69d4 2f3e 8c43 5f3f 22f4 913e
00000060: 815c b5bd a7b1 10bd 04b0 6cbc b6a2 c83d
00000070: f4cb ca3b f1a0 51be b35c 77be 05c9 b2be
00000080: 4b21 d5be 5698 8b3e a695 c53e a318 9c3e
00000090: 5521 0e3e 0f53 9bbd 2650 923e a668 4b3c
000000a0: db10 61bd 1e53 84bd f914 0bbe c548 e33d
000000b0: a5b2 b3bd 64e1 27be 83d7 153e 0270 bbbe
000000c0: 875a c2be efa0 46be 0d41 a63e 76e7 01be
000000d0: 5f00 833e 2e7e 79be 39bd 11bf 0654 4b3d
000000e0: 7060 093b 15e7 5d3d 74b3 453e dadb 803e
000000f0: 1981 97bc 5383 bdbd eb87 67be ae7d 603e
00000100: aa12 8abe e9f6 a8be 9852 a83e 98b6 a13d
00000110: cb67 a0be 2b45 8ebd 807c 63bd 0e8c c3bd
00000120: a06f 1fbe bf7d b6be eaec 57be dcfc adbd
00000130: 3ce0 59bd 0b07 8d3d 0d3e 19be dd92 8bbd
00000140: 0202 24bd bc85 043e 9822 8cbd 0c71 88be
00000150: 4812 b7bd 1263 563e 2d58 2fbf 0b7e c0bd
00000160: 3289 203c 66c4 8d3d 80cd e23e 0ed9 75bd
00000170: aec1 dabe ee40 8dbb 375e db3e 5222 1d3f
00000180: 5f70 60be c04b ecbe c659 7dbe d7f1 d63e
00000190: 7b1f cbbe 604f 913c f5f9 34be 2ee7 17be
000001a0: 4009 8dbe 7bba fe3e 4117 48be 0346 27be
000001b0: 03df 0e3e e3e9 633e e892 c33e 09c8 433e
000001c0: 9f1e aebe 975d b63e 8031 863d b653 ebbd
000001d0: ba3b 9dbd c256 1fbe 8d1c 413e bb26 20be
000001e0: 445a 533e bb44 4b3e 73d3 d8be 70af 7cbd
000001f0: 5e23 2abe 7c82 f33d da24 903e 6444 a13d
00000200: b1ef 3fbe a184 e83d 2a2f d43d 7980 f43c
00000210: f827 5bbc 3d7d c0bb a8e5 8e3e 84e7 093e
00000220: b4cb 0fbe b4c8 b43e 8f06 333d a918 8cbe
00000230: 00c3 d2be 12b6 493e 6b2d a23e 1c8c 30be
00000240: a201 113e 30bc 4c3d a225 1e3b bd42 5bbe
00000250: 8451 313c 7040 c23e

encoder.5.running_var f4 [150]
0.21129936 0.35074162 0.27584276 0.21923508 0.31633797 0.22042556 0.3422572 0.26669854
0.2532857 0.2797435 0.3578795 0.47632018 0.35163215 0.26951525 0.23343393 0.48983267
0.29171976 0.31183332 0.29497907 0.26752082 0.21215557 0.39120343 0.5041712 0.25572634
0.30127656 0.23784281 0.29474875 0.19138104 0.26736295 0.22515854 0.397372 0.22854061
0.20744553 0.21891782 0.42302305 0.28011924 0.28428236 0.24304335 0.3002438 0.36378726
0.2976227 0.46478897 0.31712753 0.22160657 0.24504174 0.29550427 0.38088953 0.22906019
0.33009598 0.29581457 0.24965106 0.4720437 0.27090448 0.23291439 0.40810516 0.212455
0.3962451 0.30778793 0.2565552 0.27572763 0.3142975 0.2538768 0.20063065 0.30729178
0.2905502 0.21018274 0.28747866 0.2677565 0.21992682 0.30092293 0.28126687 0.26008117
0.46510974 0.30584332 0.32163444 0.26471916 0.29500628 0.27965635 0.27784646 0.22234401
0.30099022 0.36204562 0.4176649 0.33754328 0.2404462 0.2647929 0.68186146 0.2434863
0.26671517 0.23973052 0.2932288 0.4145723 0.2108915 0.23480707 0.3121393 0.27810213
0.23644115 0.2717179 0.30509093 0.3130503 0.18709144 0.26680547 0.32651362 0.35783225
0.25009483 0.21759538 0.26324385 0.29321116 0.30151114 0.24272756 0.38501734 0.17613259
0.2159293 0.30414346 0.3636914 0.2215935 0.22607425 0.48622653 0.2596086 0.26664954
0.26462847 0.2427881 0.28714207 0.28988922 0.29730493 0.22951382 0.22706762 0.26266173
0.2695875 0.28083774 0.25569332 0.23998223 0.2212499 0.22658415 0.35668957 0.23696512
0.2631888 0.22605123 0.2524256 0.24983148 0.2424879 0.32289624 0.49169716 0.22785935
0.2132549 0.25439385 0.23871961 0.22629285 0.20484728 0.2745639
00000000: dc5e 583e 6894 b33e 433b 8d3e 297f 603e
00000010: 0df7 a13e 3db7 613e 563c af3e b68c 883e
00000020: aaae 813e 8a3a 8f3e fb3b b73e 3de0 f33e
00000030: 2109 b43e e7fd 893e 4e09 6f3e 59cb fa3e
00000040: 4b5c 953e 9ea8 9f3e 7f07 973e 7df8 883e
00000050: 4f3f 593e d14b c83e 5d11 013f 90ee 823e
00000060: ec40 9a3e 118d 733e 4fe9 963e 64f9 433e
00000070: cce3 883e f68f 663e 5874 cb3e 8d06 6a3e
00000080: 9a6c 543e fe2b 603e 7a96 d83e ca6b 8f3e
00000090: 758d 913e 5be0 783e 8eb9 993e 5342 ba3e
000000a0: 0162 983e d2f8 ed3e 8a5e a23e d5ec 623e
000000b0: 39ec 7a3e 564c 973e f403 c33e c18e 6a3e
000000c0: 5702 a93e 0275 973e 87a4 7f3e b6af f13e
000000d0: feb3 8a3e 1c81 6e3e 29f3 d03e ce8d 593e
000000e0: a3e0 ca3e 6196 9d3e 345b 833e 2c2c 8d3e
000000f0: 9aeb a03e 24fc 813e 1f72 4d3e 5955 9d3e
00000100: ffc2 943e 253a 573e 6730 933e 6117 893e
00000110: 7f34 613e 9212 9a3e 3602 903e 5c29 853e
00000120: dd22 ee3e 7f97 9c3e 45ad a43e 4589 873e
00000130: 100b 973e 1e2f 8f3e e441 8e3e 26ae 633e
00000140: 641b 9a3e 0b5e b93e 2cd8 d53e 79d2 ac3e
00000150: 8737 763e ef92 873e 798e 2e3f 7954 793e
00000160: e48e 883e eb7b 753e 1622 963e d242 d43e
00000170: f1f3 573e 4471 703e b9d0 9f3e 6763 8e3e
00000180: a11d 723e 9c1e 8b3e e134 9c3e 2148 a03e
00000190: e694 3f3e ba9a 883e cb2c a73e ca35 b73e
000001a0: 6e0c 803e 53d1 5e3e e6c7 863e c61f 963e
000001b0: ab5f 9a3e 938d 783e fe20 c53e 1a5c 343e
000001c0: 921c 5d3e b1b8 9b3e c235 ba3e 68e9 623e
000001d0: 0280 673e aff2 f83e 6beb 843e 4a86 883e
000001e0: 627d 873e 729d 783e 4904 933e 5c6c 943e
000001f0: 5a38 983e ac05 6b3e 6a84 683e 997b 863e
00000200: 5f07 8a3e f7c9 8f3e 3cea 823e e7bd 753e
00000210: 558f 623e ad05 683e 04a0 b63e fca6 723e
00000220: afc0 863e f979 673e ee3d 813e d3d3 7f3e
00000230: c04e 783e a852 a53e bbbf fb3e f653 693e
00000240: 7e5f 5a3e e93f 823e ea72 743e 50b9 673e
00000250: 7cc3 513e a493 8c3e
